명노아/mob_dog.pth (torch, 678712 bytes, 10 tensors)

conv1.weight f4 [6, 3, 5, 5]
0	0xbdfb86d1	-0.122815736
1	0xbcb7fb87	-0.022458805
2	0x3d8b0c6e	0.0678948
3	0x3dc03e37	0.093868665
4	0x3d2d609b	0.04232846
5	0xbc18760a	-0.009305486
6	0x3d9d9ee8	0.076963246
7	0x3c7e1f2e	0.0155103635
8	0xbdb9c53e	-0.09070824
9	0xbd89a3b2	-0.067206755
10	0xbd684316	-0.056704603
11	0x3d6fdfb1	0.058562938
12	0xbdbd4a7a	-0.09242721
13	0xbc3c860d	-0.01150657
14	0x3d1d7b90	0.038447917
15	0x3d798735	0.06091996
16	0x3d92bf5f	0.071654074
17	0x3d995c35	0.0748829
18	0x3d899fb8	0.06719917
19	0x3dabadb5	0.08382741
20	0x3dc0cb0b	0.094137274
21	0xbce4d1af	-0.027932016
22	0x3d98be9e	0.07458232
23	0xbd1bb70c	-0.038016364
24	0xbd14da75	-0.03634115
25	0xbd368b2c	-0.04456632
26	0xbd6fea5e	-0.05857312
27	0xbd9f1f10	-0.077695966
28	0xbd6513c4	-0.055927053
29	0x3daff040	0.08590746
30	0x3dc2130c	0.09476289
31	0xbddda013	-0.10821547
32	0xbdec3e32	-0.115353
33	0x3d34f193	0.044175696
34	0x3c26e41e	0.010186223
35	0xbd4289bf	-0.047494646
36	0xbd11d30f	-0.03560167
37	0xbc86605c	-0.01640337
38	0x3dba8473	0.09107294
39	0x3dcfb921	0.101427324
40	0x3d374f9d	0.04475366
41	0x3d5605bc	0.052251562
42	0xbd165e6a	-0.036711134
43	0x3da1f7fd	0.07908628
44	0x3d46ef20	0.04856789
45	0xbd577ba4	-0.052608147
46	0xbce28553	-0.027651465
47	0x3da98c78	0.082787454
48	0xbd2fa2e7	-0.042879965
49	0x3dbd27b3	0.09236088
50	0xbce7b80b	-0.028286
51	0xbd217050	-0.03941375
52	0xbd1d6cc5	-0.03843381
53	0x3db0b142	0.08627559
54	0x3b6cbdaa	0.003612379
55	0xbca63d14	-0.020292796
56	0xbd4386e3	-0.04773606
57	0x3dffd6b5	0.12492124
58	0x3d238f45	0.039931554
59	0xbd9fefdf	-0.07809424
60	0xbd9c8bdb	-0.07643863
61	0x3db79420	0.089637995
62	0xbd8f69cc	-0.07002601
63	0x3d98e778	0.07466024
64	0x3dffced1	0.12490619
65	0x3d4e6148	0.050385743
66	0x3dd45969	0.10368616
67	0xbdc251ea	-0.0948828
68	0x3d6e7d11	0.05822474
69	0xbb56a350	-0.003275115
70	0x3cc6f40a	0.024286289
71	0x3dd3449e	0.10315822
72	0x3dcb3592	0.09922327
73	0x3ded07b5	0.115737356
74	0x3dd32eb3	0.103116415
75	0xbcfa1378	-0.030526862
76	0x3ddd6d9e	0.108119234
77	0xbd88f807	-0.066879325
78	0xbc96effe	-0.018424984
79	0xbdda679e	-0.10664295
80	0x3d6ed89e	0.05831205
81	0x3c1c3d39	0.009536081
82	0xbab8926a	-0.0014081721
83	0x3c8dd609	0.017313974
84	0xbcd43a43	-0.025906688
85	0xbd627012	-0.05528266
86	0x3dafbe8a	0.08581264
87	0x3ce8f5d1	0.028437527
88	0xbc5f7759	-0.013639295
89	0x3da35fce	0.07977258
90	0x3d9bfee7	0.07616978
91	0xbd215a96	-0.03939303
92	0x3d86aa8c	0.06575498
93	0xbd9dd88a	-0.07707317
94	0xbdb1f078	-0.08688444
95	0x3dec9b82	0.11553098
96	0xbdc65555	-0.096842445
97	0xbd7635b1	-0.060109798
98	0xbde1ea81	-0.11031056
99	0x3bf6ae3b	0.007528094
100	0xbbeda1e0	-0.007251963
101	0x3d9d3834	0.076767355
102	0x3c2e5efe	0.010642765
103	0xbdcefb7a	-0.10106559
104	0x3c8effbf	0.017455934
105	0xbd476625	-0.048681397
106	0xbdf0fbd6	-0.11766784
107	0x3ce55d75	0.027998665
108	0x3d078541	0.033086065
109	0xbdc3c3ff	-0.09558868
110	0xbd8f6a98	-0.07002753
111	0xbdc041a8	-0.09387523
112	0x3d2a7248	0.041612893
113	0x3d8e7de8	0.069576085
114	0xbd80c7de	-0.06288122
115	0x3d4acbcd	0.049510766
116	0x3b72eca2	0.0037067314
117	0x3c17a894	0.009256501
118	0xbdb9c4f2	-0.090707675
119	0x3da5f283	0.08102896
120	0x3dc63bef	0.096794
121	0x3c405a35	0.011740257
122	0x3dca86ce	0.09888993
123	0xbd9eef65	-0.07760505
124	0x3c80ba26	0.015713762
125	0x3c21a8f2	0.00986694
126	0xbd07cdbe	-0.033155195
127	0x3db20f4c	0.08694324
128	0x3da76c56	0.0817496
129	0xbde085c2	-0.10963012
130	0xbd83c65c	-0.064343184
131	0xbd9bceff	-0.07607841
132	0xbded931c	-0.116003245
133	0xbde58eb9	-0.11208863
134	0x3c1006c6	0.008790677
135	0xbd0e5acc	-0.03475456
136	0x3d8e8285	0.069584884
137	0xbdb404d9	-0.08789987
138	0xbc64f0e2	-0.013973447
139	0xbdbcb0e7	-0.09213429
140	0xbdab5816	-0.083664104
141	0xbde275b3	-0.110576056
142	0x3d930d9d	0.07180331
143	0xbde73611	-0.11289609
144	0x3c8244c0	0.015901923
145	0x3ddaaaf1	0.10677136
146	0xbdc48518	-0.09595698
147	0x3c48494b	0.012224506
148	0x3c1b7011	0.009487168
149	0x3b07570f	0.0020651256
150	0x3dc63f0d	0.09679995
151	0xbdbd4661	-0.09241939
152	0xbdcd27b3	-0.10017338
153	0x3d279958	0.040917724
154	0x3d56d240	0.052446604
155	0xbc73e608	-0.014886387
156	0x3cd358cc	0.025799178
157	0xbd91cdae	-0.071193084
158	0x3c5e41a9	0.013565459
159	0x3d1f5e1a	0.0389081
160	0xbd61ff77	-0.05517527
161	0xbdde9462	-0.108681455
162	0x3c35a145	0.011085813
163	0xbd683ce4	-0.056698695
164	0x3d365823	0.044517647
165	0x3db0aeb0	0.08627069
166	0xbdd31627	-0.103069596
167	0x3ddc30f2	0.10751523
168	0xbc57c69b	-0.01316991
169	0xbd15cf31	-0.036574546
170	0xbd93d8b1	-0.07219065
171	0x3d754603	0.05988122
172	0xbdbd1f6e	-0.0923451
173	0x3d9e7153	0.07736459
174	0xbca09188	-0.019600645
175	0xbd7df283	-0.061998855
176	0xbe04a9e9	-0.1295544
177	0x3d0e829d	0.03479253
178	0xbda0f428	-0.07859069
179	0xbc8fffac	-0.017577969
180	0xbb0c99fa	-0.0021454082
181	0xbd1d80a3	-0.038452756
182	0x3d9d224b	0.076725565
183	0xbdde3167	-0.108492665
184	0xbd92a16e	-0.071596965
185	0x3db2cb63	0.08730199
186	0xbb865d5c	-0.004100485
187	0xbba2d00a	-0.004968648
188	0xbd1ea7c0	-0.038734198
189	0xbafc7315	-0.0019260371
190	0x3da094a6	0.078408524
191	0x3d540d0c	0.051770255
192	0x3ddf19a7	0.10893565
193	0xbd9d6445	-0.076851405
194	0xbdaa9f22	-0.083311334
195	0xbd964b22	-0.07338549
196	0x3d54878a	0.051887073
197	0x3da42bde	0.080161795
198	0x3c73aa46	0.014872139
199	0xbc30b747	-0.010785884
200	0xbdd836c0	-0.10557318
201	0x3d1fe884	0.039040104
202	0xbdbe5869	-0.09294207
203	0xbc28556f	-0.010274275
204	0xbdb5d221	-0.088779695
205	0xbc4f28c8	-0.012644
206	0xbdbc4ea0	-0.09194684
207	0x3d595f8e	0.053069644
208	0xbdca2e4f	-0.09872114
209	0xbd86f4b8	-0.06589645
210	0xbd5c5276	-0.05378958
211	0xbcad48e9	-0.02115293
212	0xbd9ba4b6	-0.075997755
213	0x3d900317	0.07031839
214	0xbc81f3f7	-0.015863402
215	0x3bb396aa	0.005480607
216	0xbaddcb29	-0.0016921508
217	0xbd62b8ce	-0.055352025
218	0x3d84fdb5	0.06493703
219	0x3d1fb260	0.03898847
220	0x3de14554	0.109995514
221	0xbd16211e	-0.036652677
222	0x3d37e928	0.04490009
223	0x3cabd0e4	0.02097363
224	0xbd92ef44	-0.071745425
225	0xbc9697db	-0.018382957
226	0xbd87e793	-0.06635966
227	0x3d44390f	0.047905978
228	0xbd5f6c8b	-0.054546874
229	0xbda1964f	-0.07889997
230	0xbc372c58	-0.011180006
231	0xbda171aa	-0.07883008
232	0xbdfdf8a9	-0.12400944
233	0xbd5f0c4c	-0.054455087
234	0x3d03147d	0.03200196
235	0x3d9ca482	0.07648565
236	0x3dc04664	0.09388426
237	0xbc65d1de	-0.014027087
238	0xbd7eda6c	-0.062220022
239	0x3a98e614	0.0011665248
240	0x3d0186f7	0.031622853
241	0xbcd08d07	-0.025457872
242	0xbdd2035f	-0.10254549
243	0x3d3f7943	0.046746504
244	0x3d9ed4ff	0.077554695
245	0x3d221070	0.039566457
246	0xbdb28670	-0.08717048
247	0x3df6f972	0.12059297
248	0xbd3dbf58	-0.046325058
249	0x3de82a40	0.113361835
250	0xbd292a30	-0.0413
251	0xbdfca187	-0.123354964
252	0x3ccaba4c	0.024747036
253	0xbd411e9f	-0.047148343
254	0xbd8bdd8a	-0.068293646
255	0xbd8c33d9	-0.06845827

conv1.bias f4 [6]
0	0xbaf8f1ed	-0.0018992998
1	0x3d0ffa63	0.035150897
2	0xbb468f92	-0.0030297977
3	0x3c671469	0.014103987
4	0x3dccf6cb	0.100080095
5	0xbe0c9cbb	-0.13731663

conv2.weight f4 [16, 6, 5, 5]
0	0x3d4d3b96	0.050105654
1	0xbc4f570c	-0.012655031
2	0x3c7b98de	0.015356271
3	0x3d391fa0	0.045196176
4	0xbdae496c	-0.08510098
5	0x3d01d675	0.031698663
6	0x3c426ca7	0.011866725
7	0xbd8aaaa3	-0.067708276
8	0xbdbb13dd	-0.09134648
9	0xbd9397a2	-0.07206656
10	0x3d28f4bc	0.041249022
11	0x3d80f562	0.06296803
12	0xbd9ac9e4	-0.07558039
13	0x3cb6572f	0.02225837
14	0xbdd9fc9c	-0.106438845
15	0xbd8283c3	-0.06372788
16	0x3d93311a	0.071871
17	0xbd0cb73a	-0.034354426
18	0xbcd5dbe8	-0.026105836
19	0xbc217977	-0.00985562
20	0x3c8cb621	0.01717669
21	0xbd75b979	-0.059991334
22	0x3dadb8fe	0.0848255
23	0xbdb8db97	-0.090262584
24	0xbd4555e2	-0.048177607
25	0x3e05f018	0.1307987
26	0x3e2b2e81	0.16716959
27	0x3d0a2953	0.033730816
28	0x3d43e482	0.047825344
29	0x3d9389f0	0.07204044
30	0x3dbbd8b2	0.09172191
31	0x3dd98e0e	0.10622798
32	0x3e17a015	0.1480716
33	0x3db5a32d	0.08869014
34	0x3dce643e	0.100777134
35	0xbd525322	-0.051348813
36	0x3d9b4816	0.07582109
37	0x3d905079	0.07046599
38	0x3e2e0c76	0.16996941
39	0x3d8f03f8	0.06983179
40	0xbd3beaca	-0.04587821
41	0xbb19b3fe	-0.002345323
42	0x3ce7c6b8	0.028292999
43	0x3dbe0316	0.09277932
44	0x3d1b8620	0.03796971
45	0x3d77ce03	0.060499202
46	0x3cb4f7eb	0.022090873
47	0x3d85be7c	0.06530473
48	0x3c3839e5	0.011244272
49	0x3ddd1f88	0.1079703
50	0x3de40d7e	0.11135386
51	0xbcdd2950	-0.026997238
52	0xbbeae6d7	-0.0071686315
53	0x3cac010d	0.020996595
54	0xbcff053b	-0.031130424
55	0x3c2977f3	0.0103435395
56	0x3dc25b9c	0.09490129
57	0x3d3bc2c6	0.045840047
58	0x3da48f72	0.080351725
59	0x3d9e59e3	0.07731988
60	0xbc851c22	-0.016248766
61	0x3d9d57cf	0.07682764
62	0x3dd3856d	0.10328183
63	0x3d240254	0.040041283
64	0x3d199002	0.037490852
65	0x3c304999	0.010759735
66	0xbd755381	-0.05989409
67	0x3d1c2ffd	0.038131703
68	0x3cf689fc	0.030095093
69	0x3db0d16a	0.086336926
70	0xbdd318cd	-0.10307465
71	0xbcac1cfd	-0.021009916
72	0xbd74ccbe	-0.05976557
73	0x3d8063bf	0.06269025
74	0x3dfd7ce1	0.123773344
75	0x3e071eac	0.13195294
76	0xbb19fa3c	-0.0023495099
77	0xbd0d3e3b	-0.034483176
78	0xbdd841d4	-0.10559431
79	0x3d32552e	0.043538265
80	0x3d09c682	0.033636577
81	0x3e03bca6	0.12864932
82	0x3bc0d322	0.005884544
83	0x3dbbdfdf	0.091735594
84	0xbd7c03e0	-0.061527133
85	0x3cb5ba24	0.022183485
86	0x3e159401	0.1460724
87	0x3cc0738b	0.023492595
88	0x3d9086da	0.07056971
89	0x3d019fd2	0.031646557
90	0x3c84d278	0.01621364
91	0x3c13b99b	0.00901642
92	0x3e0ae0c3	0.13562302
93	0x3db92c27	0.090416245
94	0x3e007143	0.12543206
95	0x3c8c679b	0.017139247
96	0x3e03cb49	0.12870516
97	0x3d228269	0.03967515
98	0x3e5ae437	0.2137612
99	0x3e2597d2	0.16171196
100	0x3bb7207b	0.005588589
101	0x3dd9f892	0.10643114
102	0x3dae1f32	0.08502044
103	0x3da26891	0.07930101
104	0xbcbe0918	-0.023197696
105	0x3d108f00	0.035292625
106	0x3d1f46c9	0.038885865
107	0x3c258d19	0.010104441
108	0xbc538daf	-0.012912198
109	0x3dba7c2f	0.091057174
110	0x3db96f88	0.09054476
111	0x3b9ee678	0.0048492514
112	0x3e0e869c	0.13918537
113	0x3d96ba52	0.073597565
114	0x3d20c5bd	0.039251078
115	0x3df8fa6d	0.1215714
116	0x3e02ffd9	0.1279291
117	0x3d9d8417	0.0769121
118	0xbb2d5174	-0.0026446255
119	0xbd3af8ef	-0.045647558
120	0x3e27d48d	0.16389675
121	0x3d842f29	0.064543076
122	0x3d6506f7	0.055914845
123	0x3d20147b	0.03908203
124	0x3cef3ca6	0.029203724
125	0x3b3b795a	0.0028606267
126	0xbd494add	-0.04914366
127	0xbabd60d4	-0.0014448413
128	0xbc1a6c0e	-0.009425176
129	0x3d615fab	0.055022877
130	0x3d7a413b	0.061097365
131	0x3d1a9c7f	0.037746903
132	0xbd83a656	-0.064282104
133	0xbd785123	-0.060624253
134	0xbd9b73ce	-0.07590447
135	0xbd7a2dc6	-0.06107881
136	0x3d8c3919	0.06846828
137	0x3d5c4f2c	0.05378644
138	0xbda65df3	-0.08123388
139	0xbd62e272	-0.055391736
140	0x3d4abfce	0.049499325
141	0xbd100e6c	-0.035170004
142	0xbd1671b2	-0.036729522
143	0x3d4ec9b5	0.05048533
144	0xbd0bfc01	-0.034175877
145	0xbdbbf640	-0.09177828
146	0xbd7ae361	-0.061252
147	0x3d27cb30	0.04096526
148	0xbd792573	-0.06082673
149	0xbdc7fca7	-0.097649865
150	0x3d867adf	0.065664046
151	0xbc6a0945	-0.014284437
152	0xbc101ef7	-0.008796445
153	0x3b87c991	0.0041439016
154	0xbd376654	-0.044775322
155	0x3c625e57	0.013816438
156	0xbc4829a0	-0.012216955
157	0xbcd69ddd	-0.026198322
158	0x3db5fbb8	0.08885902
159	0x3d59df01	0.05319119
160	0xbd023fc0	-0.031799078
161	0xbaaff596	-0.0013424631
162	0x3cda6f62	0.02666444
163	0xbd798fd2	-0.060928173
164	0x3c9ca7d8	0.019123003
165	0x3d627b82	0.055293567
166	0x3d832a72	0.0640458
167	0x3da7694b	0.0817438
168	0xbd892f44	-0.06698468
169	0x3d0b46d0	0.03400308
170	0x3d5e1e16	0.05422791
171	0x3d62f457	0.055408802
172	0xbc307eff	-0.010772466
173	0x3d9f6382	0.077826515
174	0xbd251313	-0.040301394
175	0xbd970adb	-0.073751174
176	0x3d8ca4e8	0.06867391
177	0xbc91444f	-0.017732767
178	0xbdb6a7d1	-0.08918727
179	0xbdae569c	-0.08512613
180	0xbc3e7adb	-0.011625971
181	0xbd5b8ad3	-0.05359919
182	0x3d8820dd	0.06646893
183	0xbd24c624	-0.040228024
184	0xbd8e8d90	-0.06960595
185	0xbcb356b7	-0.021891935
186	0x3d0ba14f	0.034089383
187	0x3b717f61	0.0036849605
188	0xbc84a802	-0.016193394
189	0x3d2d2c89	0.0422788
190	0xbd919ab0	-0.071095824
191	0x3b9f4c3e	0.0048613837
192	0x3c42f374	0.011898864
193	0xbd27f562	-0.0410055
194	0xbc0b0d44	-0.0084870495
195	0x3c367bb8	0.011137895
196	0x3d6f8c62	0.05848349
197	0x3c986e8b	0.018607398
198	0xbd42e995	-0.047586042
199	0xbd1d3250	-0.03837806
200	0xbd846e04	-0.06466296
201	0x3d733389	0.05937532
202	0x3d1c1c3a	0.038112856
203	0x3d8f16ea	0.069867924
204	0xbd53c410	-0.05170065
205	0x3d5984f5	0.053105313
206	0xbd7d2652	-0.061804123
207	0x3d20f1ef	0.039293226
208	0x3d027ad3	0.031855416
209	0x3d7152a6	0.05891671
210	0x3d1aa14b	0.037751477
211	0x3c173ac9	0.009230324
212	0x3d851a77	0.064991884
213	0xbcd1398d	-0.025540138
214	0x3ccafc30	0.024778455
215	0xbdd4b59d	-0.103862025
216	0xbd92b91d	-0.07164214
217	0x3c804039	0.015655624
218	0x3d855cc3	0.065118335
219	0x3b5059ca	0.00317918
220	0xbda7dee9	-0.081968136
221	0x3c539ede	0.012916295
222	0xbcfb2c4d	-0.030660773
223	0xbda27c68	-0.07933885
224	0x3d806c60	0.06270671
225	0xbd4ec45a	-0.050480224
226	0xbcbe33e2	-0.023218099
227	0x3d9eb05d	0.077484824
228	0x3d0689af	0.03284615
229	0xbd2ae84e	-0.04172545
230	0xbbe21a72	-0.006900125
231	0xbd3faf7f	-0.046798225
232	0xbd3fa73b	-0.046790343
233	0x3cc3f9d2	0.023922835
234	0xbcef6ccc	-0.029226683
235	0x3ad3c8a9	0.0016157824
236	0x3c5cbbc5	0.013472502
237	0xbd83789a	-0.06419487
238	0x3d740a7a	0.059580304
239	0xbd63f3cc	-0.055652425
240	0xbd3f176f	-0.046653207
241	0xbcc5f69a	-0.02416544
242	0xbd678836	-0.056526385
243	0x3cf041aa	0.029328186
244	0x3d98f371	0.07468308
245	0xbd69d684	-0.057089344
246	0xbd9ca724	-0.07649067
247	0xbd26f722	-0.040763028
248	0xbc90cd1f	-0.017675934
249	0xbc6c3f9e	-0.014419464
250	0xbdabd188	-0.08389574
251	0xbdc319b5	-0.095263876
252	0xbcb6dc88	-0.022321954
253	0x3d05cb55	0.032664616
254	0xbd994644	-0.07484105
255	0xbe02df2a	-0.12780443

conv2.bias f4 [16]
0	0x3d414d01	0.047192577
1	0xbd332b2e	-0.04374235
2	0xbdbf6582	-0.09345533
3	0xbcb46dae	-0.022024956
4	0xbdc03eb2	-0.09386958
5	0xbd6da153	-0.05801518
6	0xbd600a81	-0.054697517
7	0x3d3c3ed7	0.045958366
8	0xbcd8eaa8	-0.02647908
9	0xbcca12d2	-0.024667177
10	0xbda10545	-0.07862333
11	0xbd03d750	-0.03218776
12	0x3db5da8c	0.08879575
13	0x3b065992	0.0020500165
14	0xbbc8384d	-0.006110227
15	0x3dfe5882	0.12419225

fc1.weight f4 [120, 1296]
0	0xbd021b39	-0.031764243
1	0x3cd71cf8	0.02625893
2	0x3caf7da1	0.02142221
3	0xbbdeee51	-0.006803312
4	0x39e6050b	0.00043872776
5	0x3cbc6929	0.022999363
6	0xbc854b8a	-0.016271371
7	0xbc1adb14	-0.009451646
8	0x3cb29e9e	0.02180415
9	0x3ca795d2	0.020457182
10	0x3cccee7b	0.02501606
11	0x3cb75047	0.022377146
12	0x3c3949d2	0.011309104
13	0xbbc99be6	-0.0061526177
14	0xbc96f81c	-0.018428855
15	0xba80a02e	-0.0009813362
16	0xbc90751e	-0.01763397
17	0xbcaf89a2	-0.021427933
18	0x3c8ee7e1	0.017444553
19	0xbc83464c	-0.016024731
20	0x3ca83f01	0.020537855
21	0x3c94a789	0.018146293
22	0xbc132f26	-0.008983409
23	0xbbfde79c	-0.0077485573
24	0xbc207ba8	-0.009795107
25	0x3c272442	0.010201516
26	0xbab05920	-0.0013454296
27	0xba79135c	-0.0009501481
28	0x3c695a56	0.014242729
29	0xbc894953	-0.016758597
30	0x3c412e72	0.011790859
31	0x3cd3baf9	0.025845991
32	0x3ca8e45f	0.020616708
33	0x3c827a77	0.015927536
34	0xbc91dbfe	-0.017805096
35	0x3cb0cf65	0.021583268
36	0xbb6ce93a	-0.0036149756
37	0xbcd0916c	-0.025459968
38	0x3b0cbdaa	0.0021475353
39	0x3c194d7e	0.0093568545
40	0xbc7f0dda	-0.015567267
41	0x3c159616	0.009130022
42	0xbb2154c0	-0.0024617165
43	0x3cd088df	0.02545589
44	0x3c55ef55	0.0130575495
45	0x3c6db8de	0.014509408
46	0x3bf2af02	0.0074061165
47	0xbcbab3f8	-0.022790894
48	0x3c87543f	0.016519664
49	0xbcabab6d	-0.020955766
50	0x3cd506c1	0.026004197
51	0x3c85aed7	0.016318722
52	0x3c2b1168	0.010441162
53	0x3cd62603	0.026141172
54	0x3b73bf4d	0.0037192882
55	0xbce2a348	-0.02766575
56	0xbbded2a6	-0.0068000136
57	0xb9afc6cf	-0.00033526725
58	0xbb922de4	-0.004461037
59	0xbb9222a4	-0.004459696
60	0xbc8a27e3	-0.016864723
61	0xbc55a1d5	-0.013039072
62	0xbc3bdc3f	-0.011466085
63	0x3cadaa55	0.021199385
64	0xbcb95c1f	-0.022626935
65	0xbc8e95a2	-0.017405335
66	0xbc842e8c	-0.016135477
67	0xbb1b3bd8	-0.0023686793
68	0x3c0fad47	0.00876934
69	0x3c657d32	0.0140069
70	0xbcc19b7e	-0.023633715
71	0x3ca14f49	0.019691126
72	0xbcb4f143	-0.022087699
73	0x3c2b77e2	0.010465594
74	0x3ca2ac91	0.019857677
75	0x3c738c62	0.014865013
76	0xbc947683	-0.018122917
77	0x3a56fb00	0.0008200854
78	0xbba02773	-0.004887515
79	0x3cd8dac8	0.02647151
80	0xbc6681e2	-0.014069052
81	0x3c1eab1a	0.0096843485
82	0xbbe83306	-0.0070861606
83	0xbcfa1ec0	-0.03053224
84	0xbcfa3195	-0.03054122
85	0xbc7c1dd8	-0.015387975
86	0x3cadad49	0.021200793
87	0xbca139d2	-0.019680891
88	0xba989080	-0.0011639744
89	0xbbd5a39a	-0.006519747
90	0x3c87d683	0.01658178
91	0xbc3f1f74	-0.011665214
92	0x3c8d7e66	0.017272186
93	0x3bc71687	0.0060756835
94	0xbc92485c	-0.01785677
95	0xbbc4acd4	-0.006002048
96	0xbcfc44db	-0.030794552
97	0x3c24fa30	0.010069415
98	0xbc58b28c	-0.013226163
99	0xbbfc2d07	-0.0076957974
100	0xbbe37024	-0.0069408584
101	0xbc44e04e	-0.012016369
102	0xbce8e033	-0.028427219
103	0xbd03d096	-0.032181345
104	0x3c9e6494	0.019335069
105	0xbbc9e086	-0.0061607985
106	0x3bc182b1	0.005905472
107	0xbb1fda16	-0.0024391464
108	0xbc40c037	-0.011764578
109	0xbd06efe5	-0.032943625
110	0x3c1ebba1	0.009688289
111	0xbd02759c	-0.031850442
112	0x3ba3804f	0.004989661
113	0xbc555732	-0.013021277
114	0x39d1e0fc	0.00040031213
115	0xbc80f533	-0.01574192
116	0xbcca9f33	-0.024734115
117	0xbc17accf	-0.009257509
118	0xbc113c61	-0.008864493
119	0x3caa0ed0	0.020759016
120	0x3c6f7947	0.014616317
121	0x3beb39df	0.0071785296
122	0xbd043aa9	-0.032282505
123	0x3c210a76	0.009829154
124	0x3c3928c4	0.011301223
125	0x3c51fc6e	0.012816532
126	0xbc85d8fb	-0.016338816
127	0xbc8abcdc	-0.016935758
128	0x3c11f38e	0.008908166
129	0x3cac82e3	0.021058505
130	0x3c1f8535	0.009736349
131	0xbb281a7a	-0.0025650547
132	0x3aa45f49	0.0012540604
133	0x3ba53c6f	0.0050426046
134	0x3c113982	0.008863809
135	0x3be67f6b	0.0070342324
136	0xbc125569	-0.008931496
137	0x3c2a7099	0.010402822
138	0xbace8af6	-0.0015757966
139	0xbc7f67ec	-0.015588742
140	0x3b8431ee	0.0040342724
141	0x3c803333	0.015649414
142	0x3c3f0c45	0.01166064
143	0xbcfe7eb1	-0.03106627
144	0x3bdce2e0	0.006740913
145	0xbd01629b	-0.031588178
146	0xbc23ce4e	-0.009997917
147	0x3c876a74	0.016530253
148	0xbb8c7fb1	-0.004287683
149	0x3ba89cc0	0.005145639
150	0x3ae514de	0.0017477532
151	0xbb14cabf	-0.0022703854
152	0x3c948774	0.018130995
153	0xbcd72469	-0.026262479
154	0xbc9d94d3	-0.019236004
155	0xbcf23c98	-0.029569909
156	0xbc7f8aa6	-0.015597021
157	0xbcc5490b	-0.024082681
158	0x3c71abb2	0.014750408
159	0xbb473f75	-0.0030402814
160	0x3c84ebd6	0.016225737
161	0x3c3aded4	0.011405665
162	0x3c26f5eb	0.010190467
163	0xbbca44bd	-0.006172745
164	0xbbe2e99b	-0.0069248206
165	0xbc9c66cf	-0.019091992
166	0x3bffe38c	0.007809108
167	0x3bd11fb0	0.0063819513
168	0x3b277cec	0.0025556637
169	0xbcb7796d	-0.022396768
170	0xb80a87a9	-3.3028107e-05
171	0xbc6438c9	-0.013929554
172	0x3bc82792	0.006108233
173	0x3baf4020	0.0053482205
174	0x3bf33e55	0.007423202
175	0x3c894df9	0.016760813
176	0xbc71b85d	-0.014753428
177	0xbbf75af3	-0.007548684
178	0xbc9b4788	-0.018955007
179	0xbb0916cb	-0.0020918127
180	0xbc47a504	-0.012185339
181	0xbcb89550	-0.022532135
182	0x39b5ead0	0.0003469796
183	0xbb92d66e	-0.0044811284
184	0xbc136264	-0.008995626
185	0xbcd61176	-0.026131373
186	0xbc9bd56a	-0.019022662
187	0xbc89b753	-0.016811049
188	0xbcdcc598	-0.026949689
189	0x3c5e7e1f	0.013579874
190	0xbcf7d1b6	-0.030251365
191	0xbc97c2df	-0.018525539
192	0x3c423205	0.011852746
193	0x3bd5f909	0.0065299314
194	0xbd039844	-0.032127634
195	0xbb98828b	-0.004654234
196	0x3bd95ba8	0.0066332407
197	0xbb5e9570	-0.0033963583
198	0xbc02fc9d	-0.007994798
199	0x3ae56e3a	0.0017504164
200	0xbc8ccf80	-0.017188787
201	0x3ba6c3a6	0.005089241
202	0x3cad0db0	0.02112469
203	0xbcc007b5	-0.023441175
204	0xbc8e9a8b	-0.017407676
205	0x3bc5b0d7	0.006033044
206	0xbc96564c	-0.018351696
207	0xbc83df41	-0.016097667
208	0xbce8c56d	-0.028414452
209	0xbccbbf7a	-0.024871577
210	0xbcd81593	-0.026377475
211	0x3c912364	0.01771707
212	0xbba81dbd	-0.005130498
213	0xbcddabcc	-0.027059458
214	0x3c8c1b62	0.0171029
215	0xbc8f722d	-0.017510498
216	0xbc63fbe7	-0.013915039
217	0x3c0e62d6	0.0086905565
218	0xbcbb5675	-0.022868374
219	0xbc468783	-0.012117269
220	0xbc434e31	-0.011920498
221	0x3c94172e	0.01807746
222	0xbae3fee4	-0.0017394689
223	0x3a119e75	0.0005554923
224	0x3c4ad39e	0.012379555
225	0xbcddfd3c	-0.02709829
226	0xbcf3870b	-0.02972748
227	0x3c0a3409	0.008435258
228	0xbc890726	-0.016727041
229	0xba9b2a7f	-0.0011838226
230	0xbbd3e683	-0.006466688
231	0xbd052dd5	-0.032514412
232	0x3b0c08d7	0.0021367574
233	0xbcc0465d	-0.023471052
234	0xbd05d4ab	-0.03267352
235	0x3ca8d37d	0.020608658
236	0x3c22a82b	0.00992779
237	0xbcce6589	-0.0251949
238	0x3c7f3f90	0.015579119
239	0xbca23566	-0.019800853
240	0xbc7f8606	-0.0155959185
241	0xbc520a11	-0.012819783
242	0xbce2796b	-0.027645787
243	0xbcee5275	-0.029092053
244	0xbac6ccdc	-0.0015167254
245	0x3bfb54ca	0.0076700198
246	0x3c11ce15	0.008899231
247	0xbcae677b	-0.021289578
248	0x3c608d64	0.013705585
249	0x391608fc	0.00014308462
250	0xbd024f01	-0.031813625
251	0xbc8789d7	-0.01654522
252	0xbcfec0d0	-0.0310978
253	0xbbddbdca	-0.0067670094
254	0xbcfe7c51	-0.031065138
255	0x3bc45486	0.0059915213

fc1.bias f4 [120]
0	0xbcf159d5	-0.02946178
1	0xba8f8120	-0.0010948516
2	0x3d06471a	0.03278265
3	0x3c37e8fb	0.0112249805
4	0xbd09c132	-0.03363151
5	0x3c901a6a	0.01759072
6	0xba4bd74f	-0.0007775919
7	0xbccc67c6	-0.024951827
8	0x3d282f95	0.041061003
9	0xbc01c043	-0.007919374
10	0x3c7b9586	0.015355473
11	0xbcd7087c	-0.026249163
12	0xbc568b2d	-0.0130947055
13	0xbba4e3e6	-0.0050320504
14	0x3c32bb9e	0.010908989
15	0x3c7b960f	0.015355601
16	0x3d9a07ad	0.07520995
17	0xba8a1259	-0.0010534032
18	0x3d356561	0.044286136
19	0x39be6be0	0.00036319997
20	0xbc9801b1	-0.018555494
21	0xbc756f7e	-0.014980195
22	0x3c795cd2	0.015219884
23	0x3b204eb5	0.0024460976
24	0xbcfbe5a3	-0.030749148
25	0xbcb3b689	-0.021937625
26	0xbd36cb41	-0.04462743
27	0xbb810b99	-0.00393815
28	0xbb1b3a65	-0.002368593
29	0xbcafba3e	-0.021451112
30	0xbb852bed	-0.0040640743
31	0x3c81464c	0.01578059
32	0x3cbd82f5	0.023133734
33	0x3d68cd3c	0.05683635
34	0xbcc08ab4	-0.023503639
35	0x3ccebb9c	0.025235943
36	0xbbbaf7e7	-0.005705822
37	0x3cace842	0.021106843
38	0xbaa400a5	-0.0012512399
39	0xbc916a8f	-0.017751006
40	0x3b5b8817	0.0033497864
41	0xbd019114	-0.031632498
42	0xbc64d8b6	-0.013967684
43	0xbc58f8c5	-0.013242905
44	0xbc550417	-0.013001463
45	0xbc9225ee	-0.017840352
46	0xbc170fd9	-0.009220087
47	0x3b306490	0.0026915409
48	0x3bf2ad70	0.0074059293
49	0xbce84d43	-0.028357154
50	0x3d41df10	0.04733187
51	0x3bc2b5f2	0.0059420997
52	0x3c7c7522	0.015408786
53	0xbc106be8	-0.008814789
54	0xbcc382cc	-0.02386608
55	0xbcf4c4df	-0.029879032
56	0xbc3060b5	-0.010765244
57	0xbc21001e	-0.009826688
58	0x3cc81aa5	0.024426768
59	0x3d27a0b6	0.04092475
60	0x3c2548e0	0.010088176
61	0xbc0e3035	-0.008678486
62	0x3c99674e	0.018726017
63	0xbbef28ef	-0.007298581
64	0xbc370b84	-0.011172179
65	0x3b852b0b	0.004063969
66	0x3c96a9cc	0.018391512
67	0xbc94d9c8	-0.018170252
68	0x3d639399	0.055560682
69	0xbb8d8fa8	-0.0043201037
70	0xbc4bd186	-0.012440091
71	0xbb74fca1	-0.0037382024
72	0xbba611e0	-0.005068049
73	0xbca2a427	-0.019853665
74	0x3bbef14e	0.0058271056
75	0x3c3e0dbe	0.011599956
76	0xbcef48a0	-0.029209435
77	0x3d195c5c	0.037441596
78	0x3c1977d5	0.009366949
79	0xbcf86ec7	-0.03032626
80	0xbbd5be8c	-0.006522959
81	0x3bd39c22	0.0064578215
82	0xbca5795e	-0.020199474
83	0x3d6775c7	0.056508806
84	0xbc4dd9c5	-0.012564127
85	0xbc23ccec	-0.009997588
86	0x3bc72d8a	0.0060784267
87	0x3c6abbd5	0.014327009
88	0x3d9009cb	0.07033118
89	0xbd02d271	-0.031938974
90	0xbd1346d0	-0.035956204
91	0xbc7b0bc4	-0.015322629
92	0x3d5393c0	0.051654577
93	0xbd0bb15d	-0.034104694
94	0xbd03df1d	-0.0321952
95	0x3c012af6	0.007883778
96	0xbc6d42c8	-0.014481254
97	0xbc0085cf	-0.007844402
98	0xbcbb2546	-0.022844922
99	0x3c895f55	0.01676909
100	0x3bad6ed7	0.005292754
101	0xbc2a0ea6	-0.010379469
102	0xbc417ee4	-0.011810038
103	0x3ca76571	0.020434113
104	0x3cca532d	0.024697864
105	0xbcefa6b7	-0.0292543
106	0xbca2937f	-0.019845722
107	0xbcf9ac0b	-0.030477544
108	0x3d751626	0.059835576
109	0x3d9aeff3	0.07565298
110	0xbcbccc39	-0.0230466
111	0x3cbe98c8	0.023266211
112	0xbd00cf0e	-0.031447463
113	0xbcf2f84b	-0.029659411
114	0xbc1b8246	-0.009491509
115	0x3b9ff15c	0.004881067
116	0x3c8104a1	0.015749278
117	0xbc401080	-0.011722684
118	0x3b3559f9	0.0027672036
119	0x3b988a9d	0.004655196

fc2.weight f4 [84, 120]
0	0xbda6d807	-0.08146673
1	0xbc8e03df	-0.01733583
2	0x3d27f17c	0.04100178
3	0xbdaa124a	-0.083042696
4	0xbd6f879b	-0.058478933
5	0xbdb5808a	-0.088624075
6	0x3d4a9018	0.049453825
7	0xbd8993bd	-0.06717632
8	0x3c6ed568	0.014577247
9	0xbd8f2efa	-0.06991382
10	0x3d925e99	0.07146949
11	0xbd8eb0b9	-0.06967301
12	0xbd151670	-0.03639835
13	0xbd3a422c	-0.045473263
14	0x3cfe2514	0.03102354
15	0x3d983a4a	0.07432993
16	0xbddbf475	-0.10739986
17	0x3d829166	0.06375389
18	0x3d092382	0.03348113
19	0x3d60e9fc	0.054910645
20	0x3d2fd664	0.04292907
21	0x3c5ab5a8	0.013348974
22	0x3ba209b5	0.004945005
23	0xbc8fb9bb	-0.017544618
24	0x3d5bad45	0.05363204
25	0x3d1ac50c	0.037785575
26	0xbdb4ee05	-0.08834461
27	0xbdbf82d8	-0.09351128
28	0xbd482958	-0.048867553
29	0x3d37abe5	0.044841666
30	0x3c589a3d	0.013220367
31	0xbd3dd716	-0.0463477
32	0x3d4ad67f	0.049520966
33	0x3cb18cbc	0.021673553
34	0x3d73b735	0.05950089
35	0xbc0abeca	-0.008468339
36	0x3c124cde	0.008929459
37	0x3d2547aa	0.040351547
38	0xbc88676c	-0.016650878
39	0xbd224fbb	-0.03962682
40	0xbcc3153c	-0.023813836
41	0xbbd79a1f	-0.006579652
42	0x3db21c24	0.08696774
43	0x3d96e445	0.07367758
44	0x3d61873f	0.05506062
45	0xbd9f1226	-0.077671334
46	0x3d7cf67f	0.061758514
47	0xbd8cbbff	-0.06871795
48	0xbcbb731b	-0.022882035
49	0x3d1441aa	0.036195435
50	0x3d1b86d1	0.037970368
51	0x3c99cb90	0.018773824
52	0xbd660145	-0.056153554
53	0xbdaaac5c	-0.08333656
54	0xbd2c56a4	-0.042074814
55	0xbbed2e34	-0.007238174
56	0x3d716be0	0.05894077
57	0xbd9cfe95	-0.07665745
58	0xbd27d058	-0.040970176
59	0xbdb55e36	-0.0885586
60	0xbb29b533	-0.0025895357
61	0xbc06e880	-0.008234143
62	0xbda4ba0d	-0.08043299
63	0x3d9ce8c0	0.07661581
64	0x3c267dc8	0.0101618245
65	0xbcf55051	-0.029945524
66	0xbcddf3bc	-0.02709376
67	0xbb0f11f8	-0.0021830779
68	0xbdc0a5eb	-0.09406646
69	0xbd648e6b	-0.055799883
70	0xbd887aab	-0.06664022
71	0x3d7d74a5	0.06187882
72	0x3d9c8beb	0.07643875
73	0x3d093be4	0.03350438
74	0x3d95ec62	0.07320477
75	0x3cc68561	0.024233522
76	0x3af7b81c	0.0018899473
77	0x3c84c868	0.016208842
78	0x3dab54a5	0.08365754
79	0xbb78438d	-0.003788206
80	0x3d93592f	0.07194745
81	0xbc95936e	-0.018258777
82	0xbd0d9e1b	-0.03457461
83	0xbd647c37	-0.055782523
84	0xbd290794	-0.041266993
85	0x3c91cd20	0.017798007
86	0x3d83bc71	0.06432427
87	0x3d0831be	0.033250563
88	0xbc98a943	-0.018635398
89	0xbc300e88	-0.010745652
90	0xbd8043df	-0.062629454
91	0xbd44652c	-0.047948048
92	0xbdaadf57	-0.0834338
93	0xbd99387a	-0.07481475
94	0xbc8af923	-0.0169645
95	0x3dacf367	0.08444863
96	0xbc89b602	-0.01681042
97	0x3b527d25	0.003211805
98	0xbcdc209a	-0.026871014
99	0x3d1bb371	0.038012926
100	0xbda335bd	-0.07969234
101	0x3c8a10b8	0.016853675
102	0x3b1beac2	0.002379105
103	0x3ba335d4	0.004980782
104	0x38d178d4	9.9884026e-05
105	0x3d83a836	0.06428568
106	0xbd2eccb4	-0.04267569
107	0x3daae989	0.083453245
108	0xbd151a66	-0.03640213
109	0x3c5da2a0	0.013527542
110	0x3c06fc3c	0.008238848
111	0x3cf1bba5	0.029508421
112	0xbc9e2a3e	-0.019307252
113	0xbd8fd1ea	-0.0702246
114	0xbd149c80	-0.036282063
115	0x3db708bd	0.089372136
116	0x3d944b8c	0.07240972
117	0xbd975d66	-0.07390861
118	0x3ceb03cd	0.028688336
119	0xbab10861	-0.0013506525
120	0xbd1b0fb2	-0.037856765
121	0xbb3b76be	-0.0028604711
122	0x3c3d92be	0.011570631
123	0x3ba96d8f	0.005170531
124	0x3dcd3651	0.10020126
125	0x3d220555	0.039555866
126	0xbd3b1ecd	-0.04568367
127	0x3d006cf8	0.03135392
128	0x3caec1ae	0.021332588
129	0x3d97e058	0.07415837
130	0x3b2690e4	0.0025415951
131	0x3cd3d961	0.02586049
132	0xbc1d3ef8	-0.009597532
133	0x3cf58139	0.029968845
134	0x3d032308	0.03201583
135	0x3d718f0c	0.05897431
136	0x3dbce2a5	0.092229165
137	0xbd6bb14e	-0.057542138
138	0x3d391efc	0.045195565
139	0x3d1a133d	0.037616003
140	0xbd8e2782	-0.06941129
141	0xbd1f9989	-0.038964782
142	0x3d7b19e0	0.061303973
143	0x3daa6e2f	0.08321797
144	0x3d8dd4d6	0.06925361
145	0x3c77a175	0.015114178
146	0x3c72aa55	0.014811118
147	0x3d0b8cd0	0.034069836
148	0x3d906be6	0.0705183
149	0xbd845a40	-0.06462526
150	0xbda708fa	-0.08156009
151	0x3d0f424c	0.034975335
152	0xbd6a8ff6	-0.057266198
153	0xbd7a4ebe	-0.06111025
154	0xbc2e7520	-0.010648042
155	0xbdb473eb	-0.08811172
156	0xbdb1a574	-0.08674136
157	0xbd571dc0	-0.052518606
158	0x3d06e239	0.032930586
159	0x3cc007d7	0.023441238
160	0x3d06c7d8	0.03290543
161	0x3d2c8347	0.042117383
162	0xba1bad39	-0.0005938593
163	0xbd80d70f	-0.06291019
164	0x3d587285	0.05284359
165	0x3d814b16	0.0631315
166	0x3d74c9db	0.059762817
167	0x3d746d47	0.059674527
168	0xbce87426	-0.028375696
169	0xbd91f593	-0.07126918
170	0x3d040772	0.032233663
171	0x3d859a28	0.065235436
172	0xbdb5da3d	-0.08879516
173	0x3d92eec6	0.07174449
174	0xbd609bbf	-0.05483603
175	0x3d522565	0.051305193
176	0x3d5bccf7	0.053662267
177	0xbda54694	-0.08070102
178	0x3d566060	0.052338004
179	0x3c80f2f1	0.015740843
180	0x3c020ad3	0.007937151
181	0xbd3a9edb	-0.045561653
182	0xbd212438	-0.03934118
183	0x3d522850	0.051307976
184	0x3d8fc5e5	0.07020167
185	0x3d290de8	0.041273028
186	0xbc873f61	-0.016509714
187	0x3d88db58	0.066824615
188	0xbb8996e8	-0.0041988976
189	0xbd550ac8	-0.052012235
190	0x3d7b15b6	0.061300002
191	0x3d19c5b4	0.03754206
192	0x3db649fd	0.08900831
193	0xbc4da6ac	-0.012551945
194	0xbda929e4	-0.08259943
195	0xbbcb40b6	-0.0062027825
196	0xbd4f963f	-0.050680395
197	0xbdaa969b	-0.08329507
198	0xbd9f1047	-0.077667765
199	0xbd590ea2	-0.05299247
200	0xbd72c4c8	-0.059269696
201	0x3d85c2d4	0.06531301
202	0x3d85626e	0.065129146
203	0xbd08e4f3	-0.033421468
204	0x3d394080	0.045227528
205	0x3d9ecee0	0.07754302
206	0xbd71a8d8	-0.058998913
207	0xbd7beb89	-0.06150392
208	0xba54721a	-0.00081041607
209	0x3d1adaf8	0.03780648
210	0x3d513e84	0.05108501
211	0x3db2d625	0.08732251
212	0xbd24ac91	-0.040203635
213	0x3d5eb1e8	0.054368883
214	0x3d6d67fc	0.057960495
215	0xbc520960	-0.012819618
216	0x3dc56487	0.09638315
217	0xbce761c6	-0.028244864
218	0x3dcfc2a1	0.101445444
219	0xbb015341	-0.001973346
220	0x3ccbad97	0.024863048
221	0x3d011ddd	0.03152262
222	0x3d8308b2	0.06398143
223	0x3d8bae58	0.06820363
224	0x39bd9390	0.00036158832
225	0x3c728aee	0.014803631
226	0xbd507a62	-0.050897963
227	0x3cbefd2d	0.023314083
228	0xbdb6ec82	-0.08931829
229	0xbd799181	-0.06092978
230	0x3d642ffe	0.05570983
231	0x3d1815c5	0.037130136
232	0xbcfc9450	-0.03083244
233	0xbd6d0e8e	-0.05787521
234	0xbd7e3172	-0.062058873
235	0x3d37c074	0.044861272
236	0x3cb7b39b	0.02242451
237	0x3d0c4c22	0.034252293
238	0xba1b43b8	-0.00059228716
239	0x3daf6557	0.08564251
240	0xbd1e8113	-0.038697314
241	0xbd47d575	-0.048787553
242	0x3d4685f0	0.048467577
243	0x3d8a30cf	0.06747591
244	0xbd0c0cdf	-0.034191962
245	0x3c1221c0	0.008919179
246	0xbd884e7a	-0.06655593
247	0x3d18d6da	0.037314273
248	0xbcf9ca68	-0.030492023
249	0xbd9409bf	-0.072284214
250	0xbc1ad908	-0.009451158
251	0xbb17009c	-0.0023041135
252	0xbd807f50	-0.06274283
253	0x3d60dc73	0.054897737
254	0x3d8d7cd2	0.06908573
255	0xbdae57e5	-0.08512858

fc2.bias f4 [84]
0	0xbda242a3	-0.07922866
1	0xbda1d205	-0.07901386
2	0xbd67fcd9	-0.05663762
3	0xbdb1c346	-0.086798236
4	0xbdcc8266	-0.09985809
5	0x3bf8a974	0.0075885598
6	0xbd5ddce6	-0.054165743
7	0x3da723f7	0.081611566
8	0x3ddf6d55	0.10909525
9	0x3c2b0e6f	0.010440453
10	0xbcb04b45	-0.021520266
11	0x3dd13b4e	0.102163896
12	0xbc0424e3	-0.008065435
13	0x3c261f42	0.010139288
14	0xbd24fc13	-0.04027946
15	0xbd44551d	-0.047932733
16	0x394b6279	0.00019396273
17	0xbccd2705	-0.02504302
18	0xbc00e4c8	-0.007867046
19	0x3d8d799b	0.0690796
20	0xba2f289e	-0.00066817726
21	0xbdbb0043	-0.09130909
22	0xbda48b5f	-0.080343954
23	0x3dabe15f	0.083925955
24	0xbc1c466b	-0.009538273
25	0xbd73ff7d	-0.059569824
26	0x3afe3069	0.001939309
27	0xbcf2caf0	-0.029637784
28	0x3c6f9c3e	0.014624653
29	0xbda6c183	-0.08142378
30	0xbd15d237	-0.03657743
31	0x3db68a9e	0.08913158
32	0x3d5aa70e	0.053381972
33	0xbd2d6078	-0.042328328
34	0x3cf6fc59	0.030149626
35	0xbcf9f5b3	-0.030512666
36	0x3ce04066	0.027374458
37	0xbd426ff8	-0.047470063
38	0xbc6dcfa8	-0.014514841
39	0xbd6282db	-0.055300575
40	0xbdaeea58	-0.08540791
41	0xbdbee182	-0.09320356
42	0x3d02b38b	0.031909507
43	0xbd5c748c	-0.053822085
44	0xbd43dced	-0.047818113
45	0xbd2b5e71	-0.041838113
46	0xbd41f5b6	-0.04735347
47	0x3e114b85	0.14188965
48	0x3d8f6e3b	0.07003447
49	0x3bc29139	0.005937722
50	0xbd9a584a	-0.07536371
51	0xbdab718f	-0.08371269
52	0xbda95276	-0.08267681
53	0x3de49e28	0.111629784
54	0xbd4cf15c	-0.050034866
55	0xbb86ce2d	-0.0041139335
56	0x3daf14c3	0.08548882
57	0xbbc70461	-0.00607352
58	0xbd5cfdcd	-0.05395298
59	0xbdc2114c	-0.09475955
60	0x3d805bcf	0.06267511
61	0xbc95234e	-0.018205311
62	0xbc992559	-0.018694567
63	0x3d6d1e76	0.057890378
64	0x3c94453f	0.018099425
65	0x3c13e7aa	0.009027401
66	0xbd2a89b0	-0.041635215
67	0x3d6cf90c	0.057854697
68	0xbdcfb5fe	-0.10142134
69	0xbd08fcd8	-0.033444256
70	0xbd5e63bf	-0.054294344
71	0xbd2b9d69	-0.041898165
72	0xbd502442	-0.05081583
73	0xbd03c47a	-0.032169797
74	0x3e04c207	0.1296464
75	0xbd43f084	-0.047836795
76	0x3d8ce5f0	0.068797946
77	0x3cfbc7c4	0.030734904
78	0x3da0ee61	0.07857967
79	0xbd3c92f4	-0.046038583
80	0x3de10876	0.10987942
81	0xbd85c0ee	-0.06530939
82	0x3c66fb84	0.014098052
83	0x3d2bc815	0.04193886

fc3.weight f4 [2, 84]
0	0xbbb4e04a	-0.0055199014
1	0x3ca34670	0.019931048
2	0xbd995ff9	-0.074890085
3	0x3cf29691	0.029612811
4	0x3df73a99	0.120717235
5	0xbdd39d2a	-0.10332711
6	0xbb004ab2	-0.0019575772
7	0x3cb7eda1	0.022452177
8	0xbd3dfa83	-0.046381485
9	0x3ddc19e9	0.107471295
10	0x3d8035a9	0.06260235
11	0xbd622205	-0.055208225
12	0x3db263ac	0.08710417
13	0x3dcc2198	0.09967345
14	0xbc910ace	-0.017705347
15	0xbd02727f	-0.031847473
16	0x3d078bd7	0.033092346
17	0x3c822992	0.015888963
18	0x3c29907e	0.010349391
19	0xbd34a44c	-0.044102
20	0x3d594414	0.05304344
21	0xbd70bbbc	-0.058772787
22	0x3db9ea95	0.09077946
23	0xbe31268b	-0.17299859
24	0x3d28c49a	0.04120312
25	0xbbfed916	-0.0077773435
26	0x3cb5efe1	0.02220911
27	0x3d9bbd60	0.0760448
28	0xbd6cea0a	-0.057840385
29	0x3db3054c	0.08741245
30	0xbb315b4c	-0.0027062474
31	0xbd867e7c	-0.06567094
32	0xbd785ee2	-0.060637362
33	0xbc7117a3	-0.014715108
34	0x3dc92c8e	0.09822951
35	0xbdbd698c	-0.09248647
36	0x3ce97a02	0.02850056
37	0x3d6bb04a	0.05754117
38	0xbdb4a63b	-0.088207684
39	0x3d872079	0.065979905
40	0xbd57c95d	-0.05268227
41	0x3d8f8f1f	0.0700972
42	0x3d3ddfd2	0.04635603
43	0xbdb48bf0	-0.088157535
44	0xbddc8976	-0.10768406
45	0xbd01558a	-0.031575717
46	0x3d570c16	0.05250176
47	0xbd72e763	-0.0593027
48	0xbc93f785	-0.018062362
49	0xbdb1afa0	-0.08676076
50	0x3d3227da	0.043495037
51	0x3db879d1	0.0900761
52	0x3dc43740	0.095808506
53	0xbe02a8f9	-0.1275977
54	0x3cbc3d39	0.022978412
55	0x3d344f7e	0.044021122
56	0xbd833cc7	-0.06408077
57	0x3c59e353	0.013298827
58	0xbdf6c97c	-0.12050149
59	0xbd884b73	-0.06655016
60	0xbd6c1506	-0.057637237
61	0x3d5b69ca	0.053567685
62	0xbdb4c557	-0.08826702
63	0x3ca6736c	0.02031871
64	0xbe162738	-0.14663398
65	0x3c003d76	0.007827153
66	0xbce74723	-0.028232163
67	0x3dae093d	0.08497856
68	0xbb6b13b1	-0.0035869891
69	0x3aff78c3	0.0019490946
70	0xbd6a94eb	-0.057270925
71	0xbdad3ac7	-0.084584765
72	0x3cc0a8dc	0.023518018
73	0xba645d78	-0.00087114377
74	0xbda7d0d4	-0.08194128
75	0x3c42f6f5	0.011899699
76	0xbcbc0a68	-0.02295418
77	0x3c82ead3	0.015981114
78	0x3d241416	0.040058218
79	0xbdebe624	-0.11518505
80	0xbda290b7	-0.079377584
81	0x3d1a73e1	0.037708167
82	0xbd8fe0c0	-0.070252895
83	0x3dc0fb4d	0.09422932
84	0x3d61ffb1	0.055175487
85	0xbe04e1a7	-0.12976705
86	0x3d03fa17	0.032220926
87	0xbcd09ad4	-0.025464453
88	0x3c2e3eed	0.01063512
89	0x3dd7f061	0.105438955
90	0x3dd52ea9	0.1040929
91	0x3d90a778	0.07063192
92	0x3dfb94a3	0.122842096
93	0xbb1c5a53	-0.0023857548
94	0xbd809736	-0.06278841
95	0x3d954720	0.07288957
96	0xbdc4547b	-0.09586426
97	0xbcaa6d5f	-0.020804105
98	0xbdb4d85e	-0.08830331
99	0x3d5b26e2	0.05350388
100	0xbdecf5c6	-0.11570315
101	0x3e1476b4	0.14498407
102	0xbdc822f9	-0.097722955
103	0x3d09980c	0.03359227
104	0xbca8fb8e	-0.020627763
105	0xbc9f8a02	-0.019474987
106	0xbdd33e98	-0.10314673
107	0xbce99cff	-0.028517244
108	0xbd932f32	-0.07186736
109	0xbb0dcce9	-0.0021637029
110	0x3c5bf99a	0.013426209
111	0x3d9674c5	0.07346491
112	0x3d45b731	0.048270408
113	0xbde6e992	-0.11275019
114	0xbd5864ea	-0.052830614
115	0x3db1055a	0.08643599
116	0x3d3eb9dc	0.046563968
117	0xbd5cbd41	-0.053891424
118	0xbdbe16d3	-0.09281697
119	0xbd59aa39	-0.053140853
120	0x3dc6cd3d	0.09707115
121	0x3cb77b68	0.022397712
122	0x3de08673	0.10963144
123	0x3da51f21	0.08062578
124	0x3c8de912	0.01732305
125	0xbdff49fb	-0.124652825
126	0xbcdcff2e	-0.026977148
127	0x3bde2bb7	0.0067801136
128	0x3c183b4c	0.009291481
129	0x3dc4b309	0.09604461
130	0xbc76e8ee	-0.015070183
131	0x3e05058c	0.12990397
132	0xbc8bc9ed	-0.01706406
133	0xbdce9f92	-0.10089029
134	0xbd9cf74c	-0.07664356
135	0xbd5e3664	-0.05425109
136	0x3d28cdb9	0.041211817
137	0x3c102e5e	0.008800117
138	0xbc3ec801	-0.011644364
139	0xbd7086ec	-0.05872242
140	0x3c981f96	0.018569749
141	0x3c408523	0.011750492
142	0x3da06179	0.078310914
143	0xbcfbab48	-0.030721322
144	0x3dd06971	0.10176361
145	0xbcee8cfe	-0.029119965
146	0x3d133ff6	0.03594967
147	0x3dfab6eb	0.1224192
148	0xbd107629	-0.035268936
149	0x3a501a77	0.0007938514
150	0x3db659b8	0.08903831
151	0x3d239101	0.03993321
152	0xbd31d6fa	-0.04341791
153	0xbd5d5f1d	-0.054045785
154	0x3cd099f0	0.025464028
155	0x3d1a704d	0.037704755
156	0x3c7b73a0	0.015347391
157	0x3d275cca	0.040859975
158	0x3dcce16f	0.100039355
159	0xbdae9eb7	-0.08526366
160	0xbd4c9108	-0.049943
161	0x3db9398d	0.0904418
162	0x3dfe9814	0.1243135
163	0x3da09b9d	0.07842181
164	0x3dda3edd	0.106565215
165	0x3cb28087	0.021789802
166	0xbc4dd16a	-0.012562135
167	0x3d337697	0.043814268

fc3.bias f4 [2]
0	0x3d52a56d	0.051427294
1	0xbc13b0e1	-0.009014339
