명노아/mob_dog.pth (torch, 678712 bytes, 10 tensors)

conv1.weight f4 [6, 3, 5, 5]
0.036936764 -0.04319247 0.11412116 0.004309135 -0.044936817 -0.006481364 0.10231609 0.10489794
-0.11322096 -0.103497155 0.06513254 -0.04710756 -0.0138229905 0.023359861 -0.044417743 -0.070874035
-0.0942611 -0.009971001 0.030165076 -0.028864406 0.059503026 -0.01968007 -0.10867278 0.09796007
0.06627881 0.109313436 0.037843604 0.07988854 0.0103726555 -0.014554874 -0.030274177 0.07141542
0.025057673 0.09945452 -0.05375563 -0.10101014 -0.02704957 0.029213306 0.10185093 -0.05805218
0.0427436 -0.10498291 -0.035428993 0.06872567 0.11013019 -0.047048688 0.0458276 0.062440205
-0.044136 0.0303489 -0.04463691 -0.073111944 -0.069166526 -0.05140706 -0.053577818 0.051685568
-0.006530069 -0.060990795 0.0969579 0.08241722 0.09908429 -0.034315113 0.007384267 0.09456407
0.10016404 0.11496013 -0.103809856 -0.037382867 -0.07154624 0.09709476 0.09364889 0.102362305
0.0050474894 0.06876926 -0.08337282 -0.03843519 -0.03492803 -0.011944083 0.022463601 -0.058238566
-0.07175127 0.1143144 0.10268606 -0.102669 0.07795231 -0.08090009 0.009837829 0.053696707
-0.06947213 -0.054174237 -0.11086872 -0.016675644 0.11384739 -0.110671654 0.11367863 0.036045697
0.029172104 -0.021885993 0.0616417 0.029600468 0.040432867 0.09690513 0.010351893 0.08117679
-0.11153945 -0.06405111 -0.011291825 -0.093839824 -0.0806827 -0.04059333 0.071028195 -0.11349117
-0.11481332 -0.065776795 0.069924556 0.048212998 0.030989267 -0.05045766 -0.1004732 0.07009601
-0.067291945 -0.012641436 -0.052755788 0.10200275 -0.049671732 -0.07492421 -0.08380799 0.051758744
0.07217469 0.0144681325 -0.071752384 -0.0561901 0.05398266 0.057775144 -0.06345141 -0.04045477
-0.053760365 0.106677026 0.059082244 0.10182521 -0.00044706228 -0.021662818 -0.03993122 -0.03981119
0.0154361045 0.11375823 0.040592846 0.10763088 0.06598787 0.046109788 -0.02771899 -0.051379006
-0.06814775 -0.11286711 0.08433391 0.047739927 -0.001204365 0.08221824 0.08755658 -0.080246076
0.0372807 0.030155921 0.07906695 0.0899526 -0.034668334 -0.021285383 0.0019842805 0.06452399
-0.10430502 0.05781589 0.0435205 -0.0147691695 -0.09823487 -0.071276836 -0.049445145 0.110375345
0.035502523 0.018586641 -0.033366438 0.10388496 -0.10094791 0.10175961 -0.08056773 0.09467985
-0.10556734 0.10933399 0.020898957 0.08857159 0.09275643 -0.012097303 0.014651057 0.06636313
-0.085830584 -0.0082902955 -0.041113276 0.090481095 -0.10303851 -0.10912122 -0.07189655 0.10379398
-0.0809345 0.033172436 -0.10779294 0.003310389 -0.060703848 -0.043841925 0.02002577 -0.033998817
-0.010610009 -0.07911323 -0.093389355 -0.040001463 -0.010778869 -0.074170336 -0.089420564 0.002890177
0.021053862 -0.070442066 -0.008869006 -0.1002409 0.0141947 -0.11300248 0.033195447 0.033231623
0.093374714 -0.050521612 -0.100116335 0.08083106 0.057174355 0.052663486 -0.10751094 -0.009235492
0.10227051 -0.014287995 0.045062058 0.04455264 -0.07204769 -0.106989644 0.03326947 0.104188025
0.07406277 -0.03801304 -0.11173025 -0.090819925 0.06663441 -0.0039387527 -0.0527718 0.051721495
-0.08245601 0.07027371 0.02899412 0.050588347 -0.027435958 0.036785796 -0.021714961 0.11352842
00000000: 014b 173d 96ea 30bd 5bb8 e93d a533 8d3b
00000010: ab0f 38bd 9f61 d4bb 198b d13d bbd4 d63d
00000020: 64e0 e7bd 51f6 d3bd 3664 853d dbf3 40bd
00000030: d379 62bc 2e5d bf3c 61ef 35bd 6826 91bd
00000040: f70b c1bd 695d 23bc c01c f73c 0c75 ecbc
00000050: 72b9 733d 1938 a1bc d68f debd 4a9f c83d
00000060: 2fbd 873d b9df df3d e501 1b3d 9a9c a33d
00000070: 12f2 293c 9177 6ebc 8d01 f8bc 3f42 923d
00000080: c045 cd3c d0ae cb3d dd2e 5cbd 67de cebd
00000090: 0f97 ddbc be50 ef3c 3897 d03d 1fc8 6dbd
000000a0: ea13 2f3d 4801 d7bd fe1d 11bd 0bc0 8c3d
000000b0: f08b e13d 20b6 40bd b9b5 3b3d 4dc1 7f3d
000000c0: f3c7 34bd 429e f83c 31d5 36bd b7bb 95bd
000000d0: 2ea7 8dbd 3690 52bd 6a74 5bbd 3fb4 533d
000000e0: 30fa d5bb 7cd1 79bd dd91 c63d 5cca a83d
000000f0: b4ec ca3d 018e 0cbd b9f7 f13b cfaa c13d
00000100: ce22 cd3d 3770 eb3d 439a d4bd c71e 19bd
00000110: d686 92bd 9ed9 c63d fdca bf3d 54a3 d13d
00000120: 6965 a53b e6d6 8c3d 5ebf aabd 386e 1dbd
00000130: b210 0fbd 1db1 43bc 9605 b83c 908b 6ebd
00000140: 54f2 92bd ab1d ea3d 124d d23d 2044 d2bd
00000150: 76a5 9f3d f2ae a5bd d82e 213c 14f1 5b3d
00000160: 6747 8ebd cee5 5dbd 240f e3bd 5c9b 88bc
00000170: d228 e93d d2a7 e2bd 57d0 e83d a7a4 133d
00000180: 56fa ee3c 414a b3bc 027c 7c3d ae7c f23c
00000190: ef9c 253d 3276 c63d fc9a 293c 0440 a63d
000001a0: cc6e e4bd 3a2d 83bd 5901 39bc 182f c0bd
000001b0: f93c a5bd 3145 26bd 3b77 913d 0f6e e8bd
000001c0: 3f23 ebbd fcb5 86bd 9b34 8f3d fe7a 453d
000001d0: 34dd fd3c b1ac 4ebd e5c4 cdbd 7f8e 8f3d
000001e0: 5cd0 89bd 071e 4fbc 7416 58bd d1e6 d03d
000001f0: 9674 4bbd dd71 99bd 86a3 abbd fa00 543d
00000200: 53d0 933d bf0b 6d3c eaf2 92bd 9727 66bd
00000210: ec1c 5d3d a1a5 6c3d d0f2 81bd e7b3 25bd
00000220: d433 5cbd 7c79 da3d 3900 723d bc89 d03d
00000230: af63 eab9 3976 b1bc eb8e 23bd 0f11 23bd
00000240: b7e7 7c3c 13fa e83d af44 263d 946d dc3d
00000250: a624 873d 9edd 3c3d ef12 e3bc cb72 52bd
00000260: 0c91 8bbd df26 e7bd 42b7 ac3d f18a 433d
00000270: c9db 9dba 0962 a83d dd50 b33d 0e58 a4bd
00000280: a6b3 183d 8d09 f73c daed a13d 1239 b83d
00000290: 6200 0ebd af5e aebc b40a 023b 2725 843d
000002a0: df9d d5bd 5bd0 6c3d 8d42 323d 63fa 71bc
000002b0: 5d2f c9bd 97f9 91bd fe86 4abd 780c e23d
000002c0: 186b 113d 0343 983c 3fab 08bd a3c1 d43d
000002d0: c7bd cebd 5867 d03d b200 a5bd 82e7 c13d
000002e0: b133 d8bd 80ea df3d 4a34 ab3c 0665 b53d
000002f0: 15f7 bd3d c433 46bc fd0a 703c 65e9 873d
00000300: f2c7 afbd 05d4 07bc 6566 28bd 274e b93d
00000310: db05 d3bd f27a dfbd 803e 93bd f091 d43d
00000320: fdc0 a5bd d2df 073d 8cc2 dcbd 1cf3 583b
00000330: 99a4 78bd 9793 33bd 150d a43c 5842 0bbd
00000340: 9ad5 2dbc 1e06 a2bd eb42 bfbd 93d8 23bd
00000350: da99 30bc 9ee6 97bd 2122 b7bd 2069 3d3b
00000360: 2679 ac3c ee43 90bd 4f4f 11bc 1a4b cdbd
00000370: e390 683c d86d e7bd f3f7 073d e21d 083d
00000380: 3e3b bf3d c0ef 4ebd cb09 cdbd c18a a53d
00000390: a82f 6a3d abb5 573d b22e dcbd 7650 17bc
000003a0: 3373 d13d 3218 6abc fe92 383d d47c 363d
000003b0: bd8d 93bd 631d dbbd 9145 083d 8860 d53d
000003c0: 39ae 973d 90b3 1bbd d4d2 e4bd ccff b9bd
000003d0: 9f77 883d a710 81bb 3e27 58bd ebd9 533d
000003e0: b2de a8bd aaeb 8f3d 1485 ed3c ba35 4f3d
000003f0: 60c1 e0bc b4ac 163d 93e3 b1bc 9781 e83d

conv1.bias f4 [6]
-0.10533246 0.024672933 -0.008884172 -0.0109803295 -0.046367284 -0.04935719
00000000: 8bb8 d7bd e41e ca3c eb8e 11bc d7e6 33bc
00000010: 9feb 3dbd c42a 4abd

conv2.weight f4 [16, 6, 5, 5]
0.03699583 -0.030887986 -0.006768999 -0.032630183 0.025472993 -0.06489613 0.037545927 -0.07060386
0.0743821 0.07222328 -0.046740416 -0.032425914 -0.002532738 -0.0734155 -0.049905885 -0.063186966
0.046827856 0.0024325345 0.016988574 0.017745208 0.060021043 0.024538273 0.045734614 0.04144704
0.044657473 -0.077650145 0.055859953 -0.045073044 0.0012430263 -0.0038168912 0.06517259 -0.048217274
-0.0717217 -0.0048187906 -0.036015023 0.060673065 0.022249019 0.07668309 -0.00609208 -0.073517986
-0.019604916 -0.070240155 -0.013571417 -0.009970644 0.022976229 0.06370588 0.026866648 0.007880382
0.00077905727 -0.013522782 -0.053495064 -0.07758779 -0.018702228 -0.042949956 -0.061403684 0.031503282
-0.08028774 -0.019879846 0.0005111239 0.039646346 0.06148769 -0.05246609 0.06276374 0.06965161
0.0116189895 0.01143207 -0.05619279 0.02935666 -0.00915594 -0.056283083 -0.017304372 -0.038660873
0.015120146 -0.047920637 -0.04234121 -0.020547109 -0.033753973 -0.006116168 0.0685767 -0.028670585
0.032055896 0.0033648547 -0.03875951 -0.026712097 0.047369193 0.05103958 -0.068233214 0.031548247
-0.00549919 -0.060794305 -0.06882187 0.06829077 0.07877383 0.027039504 0.013872273 -0.06461964
-0.044226505 -0.015655613 0.0048283143 -0.035766777 -0.014944188 -0.0048050457 0.048562765 -0.022010949
-0.04554142 0.077880576 -0.05732875 0.029588522 -0.0069413558 -0.004762294 -0.043902654 -0.050438333
0.029977554 -0.06771064 -0.054551855 0.07706709 0.033519167 0.014223214 -0.01827048 -0.020449312
0.03321756 0.07337664 0.01335729 0.055941284 -0.0131654395 0.03705297 -0.043004066 -0.053903982
-0.027609779 0.015653843 -0.043086417 -0.043349218 0.04058613 -0.006156751 0.07618685 -0.054019086
0.07083075 -0.0030897434 -0.014247002 -0.041679654 -0.05976798 0.008052126 -0.06759287 0.03635387
0.012003803 0.07552063 -0.054955855 0.052275557 0.06114267 -0.024241561 -0.017480398 -0.058086287
-0.079177134 -0.06516244 -0.055644806 -0.013931813 0.05447662 -0.07813895 -0.016504059 -0.013193947
-0.011736378 -0.042730775 0.035964873 -0.05460844 -0.049516212 -0.013455628 0.054433182 -0.04233142
0.030192235 -0.0031704635 -0.07486821 0.03838172 -0.016420724 -0.062069993 -0.021004707 -0.059933938
-0.027608633 0.032734428 0.036484584 0.031328443 0.04119925 -0.024556378 0.050369848 0.010208916
-0.078814685 -0.008560084 0.038310353 -0.024006706 0.018066471 0.016551973 -0.07521089 -0.06764587
-0.0726968 0.013661385 0.05049396 -0.023173906 0.0040857284 -0.079688385 -0.022401016 0.050374955
0.044488024 -0.012965434 -0.022258487 0.013754362 -0.0026938494 -0.03941775 0.06145639 -0.07948242
-0.001141623 0.07079051 0.07334271 0.061185542 -0.036958262 -0.013152325 0.03739559 0.043485243
-0.044193223 -0.02963271 0.06440249 -0.07275975 0.011193218 0.023298798 -0.0783934 0.0533356
0.070407435 -0.063449614 0.06119061 -0.033239834 -0.078046724 0.06986226 -0.044040713 0.016028091
0.06553258 0.04694204 -0.03579314 -0.032535315 -0.00274008 -0.024871917 -0.05458302 0.009974925
0.055150274 0.06616128 -0.037152693 -0.0013492514 -0.057529382 0.060986873 -0.030432204 0.05431414
0.017202063 -0.066429414 -0.07805944 0.022794973 0.06532685 0.06850951 -0.057061028 0.072956204
00000000: f088 173d cd08 fdbc 7bce ddbb 3aa7 05bd
00000010: bdac d03c 43e8 84bd c2c9 193d c298 90bd
00000020: a455 983d cde9 933d e172 3fbd 09d1 04bd
00000030: 4bfc 25bb de5a 96bd 1d6a 4cbd 2b68 81bd
00000040: 91ce 3f3d 286b 1f3b 9f2b 8b3c 665e 913c
00000050: a0d8 753d 7d04 c93c 3854 3b3d 5fc4 293d
00000060: c1ea 363d 0a07 9fbd 68cd 643d 839e 38bd
00000070: 0bed a23a cf24 7abb 3579 853d 7a7f 45bd
00000080: d4e2 92bd f2e6 9dbb 7d84 13bd 5284 783d
00000090: 9343 b63c 060c 9d3d 12a0 c7bb 9990 96bd
000000a0: 7d9a a0bc 12da 8fbd a65a 5ebc e95b 23bc
000000b0: a538 bc3c 3a78 823d 7217 dc3c b81c 013c
000000c0: a639 4c3a a98e 5dbc a41d 5bbd 59e6 9ebd
000000d0: 6a35 99bc 4bec 2fbd 6e82 7bbd 9609 013d
000000e0: e66d a4bd 0fdb a2bc f2fc 053a 3564 223d
000000f0: 84da 7b3d afe6 56bd 478a 803d 81a5 8e3d
00000100: 935d 3e3c 944d 3b3c 692a 66bd 617d f03c
00000110: cc02 16bc 1789 66bd e6c1 8dbc dd5a 1ebd
00000120: 7dba 773c 6e48 44bd fa6d 2dbd 6952 a8bc
00000130: 9b41 0abd 236a c8bb f171 8c3d 93de eabc
00000140: 0b4d 033d e584 5c3b 4bc2 1ebd 54d3 dabc
00000150: 3306 423d e10e 513d dbbd 8bbd bc38 013d
00000160: 8d32 b4bb 7303 79bd 7bf2 8cbd 08dc 8b3d
00000170: 2c54 a13d f381 dd3c 8848 633c 4d57 84bd
00000180: da26 35bd 3340 80bc d636 9e3b 2f80 12bd
00000190: 78d8 74bc a573 9dbb c0e9 463d 4e50 b4bc
000001a0: a489 3abd da7f 9f3d 8dd1 6abd a163 f23c
000001b0: 5074 e3bb 040d 9cbb 45d3 33bd 6d98 4ebd
000001c0: 7d93 f53c e0ab 8abd c471 5fbd 5ad5 9d3d
000001d0: 654b 093d 7c08 693c f9ab 95bc 5185 a7bc
000001e0: 230f 083d 7e46 963d 89d8 5a3c b022 653d
000001f0: dbb3 57bc dbc4 173d 0825 30bd 6cca 5cbd
00000200: e72d e2bc 7d3c 803c 627b 30bd f38e 31bd
00000210: a43d 263d 92be c9bb da07 9c3d 1e43 5dbd
00000220: b60f 913d 4b7d 4abb 426c 69bc 49b8 2abd
00000230: 45cf 74bd 10ed 033c 216e 8abd cce7 143d
00000240: 99ab 443c 8faa 9a3d 6419 61bd e51e 563d
00000250: bd70 7a3d 3d96 c6bc 0d33 8fbc e3eb 6dbd
00000260: 9f27 a2bd e373 85bd cfeb 63bd 4242 64bc
00000270: e022 5f3d 5007 a0bd 8533 87bc 6d2b 58bc
00000280: f049 40bc 7706 2fbd e74f 133d 19ad 5fbd
00000290: 83d1 4abd ff74 5cbc 54f5 5e3d b663 2dbd
000002a0: b555 f73c 8dc7 4fbb 8154 99bd 2736 1d3d
000002b0: c184 86bc 1b3d 7ebd 1012 acbc 4a7d 75bd
000002c0: 802b e2bc 8914 063d dc70 153d 4152 003d
000002d0: 8bc0 283d 752a c9bc 9d50 4e3d 4c43 273c
000002e0: 9869 a1bd 983f 0cbc 51eb 1c3d b6a9 c4bc
000002f0: 2300 943c 0198 873c 2b08 9abd eb89 8abd
00000300: 0fe2 94bd 00d4 5f3c c1d2 4e3d 34d7 bdbc
00000310: 93e1 853b aa33 a3bd 5682 b7bc f855 4e3d
00000320: 1339 363d f96c 54bc 6e57 b6bc fa59 613c
00000330: 4b8b 30bb 8274 21bd b2b9 7b3d aec7 a2bd
00000340: 83a2 95ba 9dfa 903d b434 963d b19d 7a3d
00000350: 8c61 17bd d97c 57bc 1e2c 193d 951d 323d
00000360: f403 35bd 4cc0 f2bc 74e5 833d 1003 95bd
00000370: c263 373c 1fdd be3c b88c a0bd 6e76 5a3d
00000380: c631 903d dff1 81bd 01a3 7a3d 7e26 08bd
00000390: f6d6 9fbd f213 8f3d 0964 34bd 584d 833c
000003a0: f235 863d 4c46 403d d49b 12bd c043 05bd
000003b0: ea92 33bb 31c0 cbbc 7292 5fbd de6d 233c
000003c0: 41e5 613d 917f 873d 6c2d 18bd 5dd9 b0ba
000003d0: eea3 6bbd 5fcd 793d f54c f9bc 8178 5e3d
000003e0: 57eb 8c3c 250c 88bd a1dd 9fbd 86bc ba3c
000003f0: 15ca 853d b74e 8c3d d3b8 69bd 106a 953d

conv2.bias f4 [16]
-0.08081898 -0.012812577 0.0037208954 0.04418325 0.0056086476 0.07673704 -0.020565072 -0.05655188
-0.06303703 -0.050648753 -0.03616201 -0.075028226 -0.04871499 -0.006415872 0.035390433 -0.044373833
00000000: 6c84 a5bd d8eb 51bc 44da 733b 7ff9 343d
00000010: bfc8 b73b 4f28 9d3d 1578 a8bc f2a2 67bd
00000020: 8f19 81bd 1175 4fbd 9e1e 14bd 66a8 99bd
00000030: 5f89 47bd 3c3c d2bb 8ff5 103d 56c1 35bd

fc1.weight f4 [120, 1296]
-0.018803345 1.5042722e-05 0.01205601 -0.012146799 0.020429604 -0.004231323 -0.02578474 -0.024011139
-0.014098425 -0.017537627 0.013165757 -0.0034054369 0.015012017 -0.021126576 0.015366185 0.004066468
-0.027751032 0.026960138 -0.0039698435 -0.024658963 0.023011774 -0.010590022 0.012311846 -0.013728998
0.007809676 0.025686849 0.021365477 0.0043004523 -0.024610467 0.007019604 -0.006639622 0.027144045
-0.008683305 0.010904629 -0.012094842 -0.015412797 -0.021088297 -0.017002976 -0.0019294653 0.014454044
0.0070069134 0.020533184 0.0149268815 0.006510333 0.011439436 0.0033410185 -0.003352479 0.025501503
0.012119668 0.025469134 0.026786862 0.009237124 0.025666231 0.0016058873 0.01895536 -0.019131219
0.011346965 -0.0276317 0.006940545 -0.009939732 -0.016343258 0.012531939 0.013450045 0.0065922863
-0.005831319 0.013504189 0.014596269 0.020586962 -0.01074273 0.027735485 0.002270749 -0.008136076
-0.02230687 -0.023326004 -0.023076994 -0.0061227344 -0.023828806 -0.020270033 -0.012698873 -0.021279996
0.02100286 -0.009165552 0.0022364948 -0.01889475 -0.027367616 0.010162739 0.02106666 -0.019882627
0.00029585697 0.008461976 0.019400837 0.022022506 -0.025455842 0.0010489952 0.014445974 -0.023774244
0.0064426456 -0.02434464 -0.023186695 -0.017430041 0.015799051 0.02001083 -0.0039354227 -0.020564526
-0.026059935 -0.02533994 -0.017303504 -0.022349728 0.0003780201 -0.0005435981 -0.027461652 -0.016961504
-0.018055134 -0.0071633756 -0.012433671 -0.016590513 -0.026884457 0.024785342 0.0020461604 0.024113016
0.0042110104 -0.012864149 0.026298823 -0.015065581 -0.0030001365 -0.024066094 0.007256238 0.016372195
-0.027708223 0.0054815654 -0.02398487 -0.00036967173 -0.01171769 -0.003288217 0.022988351 0.02616346
-0.023096982 0.006483441 0.022527693 -0.012124397 -0.026290849 0.006907994 0.022245677 -0.013300223
0.00030979887 -0.013403916 0.018306674 0.02291512 0.018729132 0.021785857 -0.0053234827 -0.0030103698
0.002610594 -0.0029116068 -0.020158095 0.0061988328 0.005591931 -0.02767166 0.013547426 -0.00250208
-0.007901082 -0.024308605 -0.016811837 0.02718045 -0.01859819 -0.012441876 -0.025252152 0.0040293615
0.0019839567 0.022015048 0.010882787 -0.012851185 0.022398004 -0.013516304 -0.0064122314 0.022249304
0.007947159 -0.012478105 -0.025786806 0.0055160983 -0.0069740918 -0.0009032926 -0.016798582 -0.00825392
-0.015720917 0.0017723384 -0.01944353 0.01153683 -0.02534417 0.0059714247 -0.015319758 0.0220061
0.024282843 0.018017568 0.009156111 0.014209239 0.0011212704 -0.02717424 -0.026258273 0.010290994
-0.017881135 -0.00042220287 -0.010788088 0.010959961 -0.003934235 0.02521472 0.0014565968 0.025545381
0.025008578 0.008813787 -0.0099520795 -0.004650531 0.001814586 0.019317094 -0.027627079 0.018227806
-0.024147838 0.025635563 -0.009391924 0.009941036 -0.0010349957 -0.012014921 -0.025045972 0.013150352
-0.018596746 0.00087915006 0.0119778775 -0.0026349777 0.00059557514 -0.026768152 0.0063124686 0.020608146
-0.014025578 -0.019971095 -0.003815454 -0.0027392285 -0.009762427 -0.02267835 -0.0038963126 -0.013309002
-0.027023528 -0.027690811 -0.022499073 -0.022330934 0.018755427 0.013667066 0.02444549 -0.015921332
0.018127462 -0.014505174 0.008352337 -0.024172293 -0.005630188 -0.027929533 0.0115791755 -0.021578576
00000000: 7909 9abc 0060 7c37 9286 453c 5e03 47bc
00000010: fc5b a73c e9a6 8abb 853a d3bc 02b3 c4bc
00000020: 15fd 66bc 12ab 8fbc 30b5 573c c02d 5fbb
00000030: f7f4 753c a411 adbc 74c2 7b3c 0240 853b
00000040: 2256 e3bc 82db dc3c 7615 82bb 9801 cabc
00000050: 3083 bc3c c681 2dbc a0b7 493c 97ef 60bc
00000060: 50e8 ff3b 3a6d d23c a706 af3c cfea 8c3b
00000070: e49b c9bc b504 e63b 3091 d9bb 305d de3c
00000080: 6c44 0ebc 54a9 323c 7229 46bc f585 7cbc
00000090: 5dc1 acbc d349 8bbc 1de6 fcba a8d0 6c3c
000000a0: 409a e53b 3535 a83c e18f 743c a254 d53b
000000b0: 796c 3b3c fdf4 5a3b 44b5 5bbb 87e8 d03c
000000c0: 9291 463c a5a4 d03c 1f70 db3c 4e57 173c
000000d0: fd41 d23c a37c d23a 4548 9b3c 13b9 9cbc
000000e0: 9fe8 393c e05b e2bc 836d e33b 42da 22bc
000000f0: 4ce2 85bc c352 4d3c 945d 5c3c 1b04 d83b
00000100: a614 bfbb ad40 5d3c 3025 6f3c fda5 a83c
00000110: 4702 30bc 8735 e33c d9d0 143b 2d4d 05bc
00000120: e6bc b6bc 2d16 bfbc f70b bdbc 38a1 c8bb
00000130: a134 c3bc 570d a6bc ef0e 50bc 6353 aebc
00000140: 310e ac3c 1d2b 16bc 2892 123b 2ac9 9abc
00000150: 0d32 e0bc 9e81 263c fd93 ac3c e4e0 a2bc
00000160: 401d 9b39 1aa4 0a3c 81ee 9e3c 8b68 b43c
00000170: c588 d0bc 707e 893a ceae 6c3c 34c2 c2bc
00000180: d41c d33b 696e c7bc 06f2 bdbc 72c9 8ebc
00000190: 036d 813c c1ed a33c b8f4 80bb f076 a8bc
000001a0: a57b d5bc b595 cfbc 14c0 8dbc c716 b7bc
000001b0: 0031 c639 4080 0eba 42f7 e0bc daf2 8abc
000001c0: 5ce8 93bc c0ba eabb 99b6 4bbc d4e8 87bc
000001d0: cb3c dcbc a10a cb3c e018 063b a988 c53c
000001e0: 84fc 893b 27c4 52bc a170 d73c a0d5 76bc
000001f0: f09d 44bb 4226 c5bc bcc5 ed3b fb1e 863c
00000200: 5bfc e2bc b49e b33b eb7b c4bc 80d0 c1b9
00000210: 8efb 3fbc 207f 57bb 1152 bc3c c154 d63c
00000220: e235 bdbc 0c73 d43b ff8b b83c 68a5 46bc
00000230: e85f d7bc 745c e23b 913c b63c 2ee9 59bc
00000240: 806c a239 199c 5bbc e1f7 953c 7db8 bb3c
00000250: d66d 993c 4178 b23c 9c70 aebb a049 45bb
00000260: 8016 2b3b a8d0 3ebb 9722 a5bc 941f cb3b
00000270: 843c b73b adaf e2bc 06f6 5d3c f0f9 23bb
00000280: 8a73 01bc d722 c7bc fab8 89bc 89a9 de3c
00000290: 3b5b 98bc 03d9 4bbc 9add cebc bc08 843b
000002a0: 4505 023b e758 b43c b84d 323c c78d 52bc
000002b0: 057c b73c 7d73 5dbc b21d d2bb 2c44 b63c
000002c0: cd34 023c f770 4cbc da3e d3bc 63c0 b43b
000002d0: ec86 e4bb f1ca 6cba 2e9d 89bc 733b 07bc
000002e0: 27c9 80bc cf4d e83a 0a48 9fbc f904 3d3c
000002f0: 949e cfbc f1ab c33b b9ff 7abc 2346 b43c
00000300: d0ec c63c 9499 933c 8303 163c decd 683c
00000310: 97f7 923a 839c debc 971b d7bc 8f9b 283c
00000320: 757b 92bc 1c5b ddb9 85c0 30bc 6991 333c
00000330: c1ea 80bb 1a8f ce3c 47eb be3a 8c44 d13c
00000340: cade cc3c b467 103c 0c0e 23bc 7b63 98bb
00000350: 67d7 ed3a e23e 9e3c 2f52 e2bc 7b52 953c
00000360: b0d1 c5bc ac01 d23c 96e0 19bc badf 223c
00000370: b1a8 87ba 3bda 44bc 362d cdbc 9374 573c
00000380: 3458 98bc c376 663a dc3e 443c 97af 2cbb
00000390: 5f20 1c3a e248 dbbc d3d8 ce3b 6ad2 a83c
000003a0: 8acb 65bc 6c9a a3bc b20c 7abb a184 33bb
000003b0: 96f2 1fbc f2c7 b9bc 4759 7fbb 000e 5abc
000003c0: 7260 ddbc d7d7 e2bc fa4f b8bc 5def b6bc
000003d0: fba4 993c d4eb 5f3c e941 c83c 746d 82bc
000003e0: 0b80 943c 1ca7 6dbc 3ed8 083c f904 c6bc
000003f0: 717d b8bb 7acc e4bc 95b6 3d3c 8ec5 b0bc

fc1.bias f4 [120]
-0.0041168723 -0.0018294379 0.017720489 -0.010088338 -0.013070878 -0.007952425 0.009413356 -0.01580282
-0.015046852 0.008100805 0.010101651 -0.022407645 0.006953532 -0.02350268 0.01269204 0.02082361
0.024826376 -0.013514621 -0.0039502555 -0.007350373 0.0064098043 0.020041864 0.0044327877 -0.014226709
-0.003295585 -0.0060646837 -0.020729931 0.0032164175 0.011631558 0.01058002 0.018073302 -0.023377985
0.017699257 -0.00491181 0.013991996 -0.020389372 0.01900719 0.005494078 0.007737013 -0.0031080812
0.0168097 0.026738241 -0.0076717674 0.026740177 -0.011816202 0.011111102 0.020389143 0.024348406
0.003970651 0.0016458805 -0.012061739 0.012896382 0.012421657 0.020588735 -0.019207535 0.018622177
0.012458799 0.00044957266 0.02830003 0.012245731 -0.020372523 0.025168845 -0.008955362 -0.00900121
0.017662361 -0.014184946 -0.0083656935 0.012315196 0.023925543 -0.013112496 -0.021221561 0.005833803
-0.013181543 -0.015912205 -0.010243217 0.02077136 -0.00018948718 -0.0017867628 0.0012312384 0.010456038
0.020076614 -0.004001286 -0.01428895 0.016877683 0.0081697125 0.011922029 -0.0023760572 0.0002323847
-0.011380929 0.010579397 0.009887869 -0.0026618221 -0.012261073 -0.016245876 -0.019433027 0.019120544
0.013617767 -0.015732601 0.024952628 0.014994666 -0.013009494 -0.02388727 0.007911387 -0.019687215
-0.027339227 0.008301647 -0.013335749 0.018168764 -0.022939531 -0.01520903 0.017731415 -0.025908593
0.0014868513 -0.019217841 0.022627544 0.011437496 -0.0076800063 -0.009864419 0.001131059 -0.008918121
00000000: d4e6 86bb c0c9 efba 8f2a 913c 8e49 25bc
00000010: 3c27 56bc e34a 02bc 7a3a 1a3c ea74 81bc
00000020: 1287 76bc 3db9 043c 6581 253c 3d90 b7bc
00000030: 74da e33b b188 c0bc 46f2 4f3c 4696 aa3c
00000040: af60 cb3c 6e6c 5dbc 2571 81bb 66db f0bb
00000050: 5609 d23b d62e a43c eb40 913b 2417 69bc
00000060: befa 57bb 41ba c6bb d1d1 a9bc 88ca 523b
00000070: 4a92 3e3c d257 2d3c 760e 943c 3083 bfbc
00000080: 08fe 903c 40f3 a0bb af3e 653c 9d07 a7bc
00000090: f7b4 9b3c ab07 b43b c586 fd3b f3b0 4bbb
000000a0: 7fb4 893c 280a db3c 7363 fbbb 370e db3c
000000b0: be98 41bc 570b 363c 2207 a73c 4f76 c73c
000000c0: 3c1c 823b 96ba d73a 9a9e 45bc 594b 533c
000000d0: 3584 4b3c b5a9 a83c 1f59 9dbc 898d 983c
000000e0: fe1f 4c3c 9fb4 eb39 77d5 e73c 52a2 483c
000000f0: 47e4 a6bc e52e ce3c 83b9 12bc d079 13bc
00000100: a8b0 903c fa67 68bc 4310 09bc adc5 493c
00000110: 80ff c33c cbd5 56bc d7d8 adbc 7d29 bf3b
00000120: 66f7 57bc 505a 82bc 2bd3 27bc b328 aa3c
00000130: 14b1 46b9 d031 eaba 8161 a13a cd4f 2b3c
00000140: b677 a43c 381d 83bb 331c 6abc 1143 8a3c
00000150: 42da 053c 9d54 433c a0b7 1bbb 4bac 7339
00000160: 1377 3abc 3555 2d3c ba00 223c f771 2ebb
00000170: abe2 48bc 1216 85bc 0332 9fbc b0a2 9c3c
00000180: 0e1d 5f3c a8e1 80bc 7469 cc3c 30ac 753c
00000190: c625 55bc 3caf c3bc c39e 013c 1547 a1bc
000001a0: 84f6 dfbc a203 083c 2f7e 5abc a9d6 943c
000001b0: afeb bbbc 4c2f 79bc 7941 913c 423e d4bc
000001c0: 73e2 c23a bc6e 9dbc 665d b93c 5664 3b3c
000001d0: 90a8 fbbb 5f9e 21bc 0b40 943a 501d 12bc

fc2.weight f4 [84, 120]
0.019492526 -0.041122355 -0.021883033 0.08101767 -0.057910264 -0.038767826 -0.066198066 0.051913813
0.059830233 0.08757265 -0.03126822 0.08941608 0.05646053 -0.08577534 0.044407435 -0.061686832
-0.013587566 0.035468675 -0.022274077 0.06309086 -0.05706075 0.088453636 -0.012119283 0.013145894
-0.06192966 -0.042268325 -0.059852514 0.08896619 -0.085005075 0.088300616 -0.05625091 -0.0729493
0.08050223 -0.032158848 -0.07359341 0.035880215 0.06894862 -0.0033236863 -0.07263569 -0.043838955
-0.052266765 0.03968701 0.06780392 0.015065424 0.06190938 0.056481 0.046374347 -0.077686794
-0.007230284 -0.0081843585 0.011904681 -0.07366095 -0.035758846 -0.08116031 0.04077724 -0.018814165
-0.0008420656 -0.0449773 -0.09112825 -0.07834996 -0.051158726 -0.07470663 0.053951677 0.00024891243
0.06372159 0.085665576 -0.08443784 0.05717965 0.028594987 0.05486954 0.077795275 -0.070281014
0.068330996 -0.07205613 -0.0011527408 0.022747679 0.053986717 0.08012171 -0.045272693 0.07527512
-0.02963413 0.06781021 -0.005621345 -0.014761149 -0.021348141 0.047438007 0.05871507 -0.034164
-0.018782388 -0.072419524 0.06167998 -0.06581238 0.07939336 0.060885027 -0.044800274 -0.004102226
0.060260016 0.016485423 -0.058206927 0.04591758 0.08658673 0.0149948 0.058842167 0.07014481
-0.0732644 -0.0029153747 -0.015101452 -0.026862964 0.06306809 0.049529515 0.07615128 -0.013617039
0.019381022 0.07143397 0.06306982 0.0856503 0.022384875 0.060741056 -0.038674466 0.09059219
0.034012064 -0.08119728 0.07234985 -0.045127444 0.0747994 -0.09120963 0.08103886 -0.002443023
0.04120159 0.08944069 0.07726824 0.033426546 0.06816709 0.07877943 -0.058875438 0.014765359
-0.07797266 -0.05888198 -0.05223313 -0.011541866 -0.048956413 -0.06307334 -0.020880416 -0.01426287
-0.07927796 0.019015811 0.01444716 -0.08415032 0.06493007 -0.04104299 -0.02716174 -0.044202026
0.003897749 -0.044052277 0.059079945 -0.06999803 0.05716355 -0.017034777 0.08898537 -0.039730076
-0.050894316 -0.065617494 0.073952794 -0.056393497 -0.09029869 0.029930793 0.07330917 -0.037029065
-0.032912914 0.087069884 -0.057182014 -0.05654918 -0.005143732 0.017809369 -0.008919477 0.07919268
0.02564212 -0.0005564317 -0.0521668 -0.05182487 0.015795834 -0.030958805 0.04716389 -0.008565165
0.078890845 0.032285072 0.08638269 -0.025345847 -0.008531831 0.06730616 -0.09082267 0.032282643
-0.005158879 -0.008363545 -0.02833061 -0.052483846 -0.018801898 -0.044052504 -0.049007885 0.057161003
0.04481408 -0.052685592 0.02816192 0.009967916 0.008423343 -0.090930596 -0.020924337 -0.021197855
-0.009965919 -0.0068051815 -0.048742827 0.004215859 -0.006700374 -0.010500811 0.022412308 0.08125089
0.081975326 -0.053745024 -0.0024594367 -0.07757046 -0.087811194 -0.018622525 0.07950552 0.063486114
-0.07354519 -0.058177557 0.0023103505 0.035465017 0.03875263 0.028729267 -0.075536534 0.049402267
0.08608799 0.005547084 -0.0851255 0.04482378 0.051870614 -0.0047690645 -0.085332 -0.04223572
0.015916752 -0.041121986 -0.06480778 -0.057685442 0.07010763 0.08452734 0.038504295 -0.025977246
-0.072718404 -0.036541656 0.07781435 -0.017375574 0.047242656 -0.0221613 -0.037521932 -0.089354955
00000000: caae 9f3c ea6f 28bd 0c44 b3bc 98ec a53d
00000010: 5033 6dbd 03cb 1ebd da92 87bd 94a3 543d
00000020: 8c10 753d 4a59 b33d 1b13 00bd c71f b73d
00000030: 2843 673d fbaa afbd 92e4 353d 55ab 7cbd
00000040: 629e 5ebc 9a47 113d 2078 b6bc c835 813d
00000050: 88b8 69bd 2e27 b53d f58f 46bc e061 573c
00000060: f5a9 7dbd 8d21 2dbd e927 75bd e833 b63d
00000070: 2417 aebd f4d6 b43d 5b67 66bd 7166 95bd
00000080: 5ade a43d ffb8 03bd 24b8 96bd 22f7 123d
00000090: ef34 8d3d 34d2 59bb 05c2 94bd 7a90 33bd
000000a0: ad15 56bd d98e 223d c8dc 8a3d f8d4 763c
000000b0: b194 7d3d 9f58 673d 07f3 3d3d 411a 9fbd
000000c0: 05ec ecbb b017 06bc da0b 433c 8ddb 96bd
000000d0: de77 12bd 6037 a6bd 0906 273d 2a20 9abc
000000e0: 11be 5cba 1e3a 38bd 73a1 babd f275 a0bd
000000f0: d08b 51bd caff 98bd 6ffc 5c3d 7680 8239
00000100: 7780 823d 6f71 af3d bfed acbd 3535 6a3d
00000110: 0940 ea3c e2be 603d 2153 9f3d 7eef 8fbd
00000120: 1ff1 8b3d 2a92 93bd 9017 97ba 5759 ba3c
00000130: 2d21 5d3d da16 a43d dc6f 39bd d829 9a3d
00000140: 46c3 f2bc 14e0 8a3d 4233 b8bb bfd8 71bc
00000150: 4ce2 aebc 5b4e 423d 377f 703d 8def 0bbd
00000160: 86dd 99bc b050 94bd 26a4 7c3d a4c8 86bd
00000170: fc98 a23d 9462 793d 7e80 37bd f76b 86bb
00000180: 35d3 763d 700c 873c 636a 6ebd 1314 3c3d
00000190: 6254 b13d c0ac 753c 7c04 713d 15a8 8f3d
000001a0: a50b 96bd df0f 3fbb 156c 77bc b80f dcbc
000001b0: d829 813d 76df 4a3d 34f5 9b3d 001a 5fbc
000001c0: f3c4 9e3c f94b 923d c02a 813d 6d69 af3d
000001d0: 7c60 b73c 9dcb 783d 1e69 1ebd 6688 b93d
000001e0: 3c50 0b3d c24a a6bd 282c 943d 8ed7 38bd
000001f0: 6e30 993d 1dcc babd b4f7 a53d 201b 20bb
00000200: 00c3 283d ae2c b73d d03e 9e3d 46ea 083d
00000210: 309b 8b3d 1c57 a13d 5f27 71bd 68ea 713c
00000220: 21b0 9fbd 3b2e 71bd 68f2 55bd 181a 3dbc
00000230: 8586 48bd 982c 81bd 680d abbc d0ae 69bc
00000240: 7c5c a2bd 0cc7 9b3c c8b3 6c3c 0157 acbd
00000250: 0efa 843d b21c 28bd 4c82 debc 2f0d 35bd
00000260: 6071 7f3b 2970 34bd d0fd 713d 215b 8fbd
00000270: 5424 6a3d 848c 8bbc f63d b63d 01bc 22bd
00000280: 8f76 50bd 7762 86bd 9074 973d defc 66bd
00000290: 85ee b8bd 6c31 f53c 1e23 963d caab 17bd
000002a0: b1cf 06bd b251 b23d b037 6abd 1da0 67bd
000002b0: c08c a8bb f4e4 913c 0023 12bc c62f a23d
000002c0: 6c0f d23c 80dd 11ba dbac 55bd 5146 54bd
000002d0: 4466 813c 529d fdbc ec2e 413d e854 0cbc
000002e0: 8691 a13d 5a3d 043d 68e9 b03d 18a2 cfbc
000002f0: 18c9 0bbc d0d7 893d 3c01 babd ce3a 043d
00000300: d00b a9bb 4007 09bc 9815 e8bc 4df9 56bd
00000310: 7006 9abc 6670 34bd 7ebc 48bd a821 6a3d
00000320: f88e 373d d9cc 57bd d4b3 e63c 7850 233c
00000330: 1002 0a3c d239 babd 8469 abbc 20a7 adbc
00000340: 1848 23bc 00fe debb 8fa6 47bd 3025 8a3b
00000350: d08e dbbb 980b 2cbc 049a b73c de66 a63d
00000360: aee2 a73d be23 5cbd 802e 21bb 43dd 9ebd
00000370: 5bd6 b3bd 448e 98bc cad3 a23d 0205 823d
00000380: dc9e 96bd 974b 6ebd 4069 173b c443 113d
00000390: 14bb 1e3d a459 eb3c e6b2 9abd 085a 4a3d
000003a0: e64e b03d 50c4 b53b 4756 aebd 2499 373d
000003b0: 4876 543d d045 9cbb 8bc2 aebd 5dff 2cbd
000003c0: d963 823c 876f 28bd f1b9 84bd 9247 6cbd
000003d0: 9794 8f3d ac1c ad3d aeb6 1d3d 3cce d4bc
000003e0: 63ed 94bd b4ac 15bd 215d 9f3d 3857 8ebc
000003f0: 8481 413d 9d8b b5bc 99b0 19bd bbff b6bd

fc2.bias f4 [84]
-0.015568905 -0.073011376 0.014544032 -0.02631003 -0.08356341 -0.058105398 -0.04626995 -0.07790828
-0.038231708 0.013414878 0.05493289 -0.0034102541 0.0046482407 -0.022424458 -0.018693069 -0.057934992
-0.068368316 -0.07874473 -0.067601405 0.08257958 0.07530418 -0.024800817 0.035088785 0.09130573
0.03555559 -0.060700595 0.0857621 -0.07375987 0.086959414 -0.034390334 -0.033173487 -0.08012966
-0.05969925 0.034081176 -0.06414996 -0.026647523 0.075316265 -0.07955068 0.08315097 -0.020902209
0.024260255 0.083260275 0.036587756 0.043100942 -0.025042996 0.018174935 0.0778541 0.04074224
-0.024017747 -0.0422182 -0.023067549 0.013518021 0.0516727 0.06392581 0.058605008 -0.0056305677
-0.05761596 0.08321828 0.0768481 0.07073107 -0.018473797 -0.076887116 0.060735043 -0.05584484
0.0069173886 0.04043306 -0.03235756 -0.017657824 0.04413769 0.074355036 -0.07554316 0.085594736
0.040254705 -0.030173387 0.051619865 -0.0010943197 -0.06598266 -0.07193023 -0.009863696 0.04847407
0.08031651 -0.02690664 0.039598916 -0.09098118
00000000: b814 7fbc fd86 95bd 174a 6e3c 2288 d7bc
00000010: 4b23 abbd edff 6dbd 8f85 3dbd 608e 9fbd
00000020: da98 1cbd 14ca 5b3c 4f01 613d 927e 5fbb
00000030: 4550 983b 7fb3 b7bc 3522 99bc 3e4d 6dbd
00000040: b004 8cbd eb44 a1bd 9b72 8abd 7c1f a93d
00000050: 1439 9a3d 152b cbbc 42b9 0f3d 80fe ba3d
00000060: bda2 113d 30a1 78bd 0aa4 af3d 6a0f 97bd
00000070: c717 b23d e1dc 0cbd ece0 07bd 051b a4bd
00000080: 3387 74bd b498 0b3d 0e61 83bd e84b dabc
00000090: 6a3f 9a3d 78eb a2bd 0e4b aa3d 1c3b abbc
000000a0: 71bd c63c 5d84 aa3d 0bdd 153d 9d8a 303d
000000b0: f826 cdbc 9ae3 943c f871 9f3d 56e1 263d
000000c0: dec0 c4bc feec 2cbd 28f8 bcbc b17a 5d3c
000000d0: c1a6 533d 89eb 823d ce0b 703d a080 b8bb
000000e0: b6fe 6bbd 586e aa3d 8962 9d3d 74db 903d
000000f0: 5c56 97bc fe76 9dbd 4fc5 783d 8fbd 64bd
00000100: 43ab e23b 239d 253d 5c89 04bd 24a7 90bc
00000110: b9c9 343d 7447 983d 5fb6 9abd 4b4c af3d
00000120: 1ee2 243d 2e2e f7bc 5a6f 533d 476f 8fba
00000130: eb21 87bd 2850 93bd 579b 21bc bf8c 463d
00000140: fb7c a43d 506b dcbc 7932 223d 5754 babd

fc3.weight f4 [2, 84]
-0.019955663 -0.082901314 0.0745152 0.059360556 -0.0668941 -0.044607587 0.00084548444 0.028460763
-0.020995125 0.053125888 0.08741634 0.10927843 0.107417054 0.105113655 -0.10120116 0.00038932264
-0.09788385 -0.043622456 -0.076014996 -0.10809436 0.07400388 0.074173056 0.06679876 0.061200637
0.0779985 -0.054782644 -0.09845648 -0.024471387 0.10537154 -0.07245594 -0.07985349 0.051974885
-0.07547763 -0.08067978 0.0791625 0.054473855 -0.06964833 -0.018426523 -0.05089452 -0.054049116
0.019540165 -0.03517575 0.023709055 -0.08509904 0.084373854 0.06933958 0.03547144 0.031147337
0.08408776 -0.0899482 0.024968887 0.04131581 -0.09806379 -0.069016024 0.06511995 0.045077067
0.096192546 -0.020319851 0.038867127 0.0025201202 0.000502944 -0.057446808 0.078548834 -0.08248792
-0.053261545 0.11286131 0.09951467 0.086314455 0.039834917 0.011666273 0.018021308 -0.09821518
-0.08756673 -0.013929293 0.10559213 -0.059863184 0.03774958 -0.02583728 0.08771125 0.074415974
-0.102545984 0.04937049 -0.06614111 -0.00096752495 -0.011077535 -0.038306534 -0.013446052 -0.052845817
0.011760905 -0.022913583 -0.09550054 0.090282254 0.03346213 -0.085570686 -0.06287459 0.05070881
-0.031792186 -0.09014969 0.028836641 -0.096013285 0.04602095 0.09665447 -0.084341384 -0.1022712
0.10256409 0.08687266 0.07831385 0.05073334 0.05678218 -0.06581037 -0.07657584 -0.021624558
-0.064042166 -0.102817684 0.083883636 0.06122165 0.04980453 -0.06705745 0.03004349 -0.034688435
-0.049257513 0.10224704 0.0026563054 -0.067344345 -0.076059334 0.049565367 0.06505734 -0.03674089
-0.09742306 0.08644194 -0.031235315 0.062456567 -0.07769597 -0.05935583 -0.023994865 -0.04055903
0.03841641 -0.008981739 -0.03346066 0.005601934 -0.018959142 0.04914324 0.048493672 0.0039618844
-0.03331939 -0.1038578 -0.0004508153 0.01577469 0.10899373 -0.09617872 -0.08800055 -0.09200403
-0.07581788 0.050724644 -0.03990525 0.02897394 0.11054539 0.057212792 0.023263039 -0.06541939
0.10266615 0.09056135 0.07712113 -0.012895408 -0.003034146 -0.057247426 0.06665804 0.007589504
00000000: 0f7a a3bc 2ac8 a9bd 6d9b 983d 0e24 733d
00000010: c6ff 88bd 72b6 36bd 80a3 5d3a 8c26 e93c
00000020: f8fd abbc 889a 593d 5707 b33d 5fcd df3d
00000030: 79fd db3d d445 d73d 8e42 cfbd 001e cc39
00000040: 5477 c8bd 76ad 32bd c0ad 9bbd 9360 ddbd
00000050: 598f 973d 0be8 973d cacd 883d 85ad 7a3d
00000060: adbd 9f3d c463 60bd 8da3 c9bd 3878 c8bc
00000070: 09cd d73d c863 94bd 3a8a a3bd 9ee3 543d
00000080: 0494 9abd 713b a5bd f31f a23d fa1f 5f3d
00000090: c9a3 8ebd 38f3 96bc c676 50bd 9b62 5dbd
000000a0: b212 a03c 7214 10bd 7e39 c23c 6848 aebd
000000b0: 33cc ac3d e901 8e3d 804a 113d b328 ff3c
000000c0: 3436 ac3d c336 b8bd 8d8b cc3c c43a 293d
000000d0: abd5 c8bd 4658 8dbd 9c5d 853d bba2 383d
000000e0: 9900 c53d d175 a6bc 2333 1f3d 9a28 253b
000000f0: 00d8 033a 584d 6bbd 36de a03d 6def a8bd
00000100: c728 5abd d523 e73d 59ce cb3d a2c5 b03d
00000110: f029 233d e523 3f3c 6ca1 933c 0a25 c9bd
00000120: 3056 b3bd b037 64bc b040 d83d 1933 75bd
00000130: 4e9f 1a3d b4a8 d3bc f5a1 b33d 6767 983d
00000140: a103 d2bd b638 4a3d fe74 87bd 80a1 7dba
00000150: 8d7e 35bc 50e7 1cbd d44c 5cbc db74 58bd
00000160: d0b0 403c 44b5 bbbc ca95 c3bd e7e5 b83d
00000170: 960f 093d af3f afbd 65c4 80bd 0bb4 4f3d
00000180: 8638 02bd 67a0 b8bd d23a ec3c 9da2 c4bd
00000190: 7780 3c3d c7f2 c53d 2dbb acbd 9073 d1bd
000001a0: 1f0d d23d 4bea b13d 0363 a03d c3cd 4f3d
000001b0: 6e94 683d 96c7 86bd cbd3 9cbd fc25 b1bc
000001c0: 8a28 83bd 1492 d2bd 2fcb ab3d 8ec3 7a3d
000001d0: d6ff 4b3d 6b55 89bd c41d f63c 7615 0ebd
000001e0: 3fc2 49bd e566 d13d 6915 2e3b d5eb 89bd
000001f0: ffc4 9bbd 0e05 4b3d c83c 853d 9e7d 16bd
00000200: be85 c7bd 7908 b13d 34e1 ffbc 75d2 7f3d
00000210: 111f 9fbd 191f 73bd e190 c4bc 3a21 26bd
00000220: 875a 1d3d 2528 13bc 0c0e 09bd 6e90 b73b
00000230: 3450 9bbc 6c4a 493d 4da1 463d b2d2 813b
00000240: ea79 08bd 66b3 d4bd 685b ecb9 ec39 813c
00000250: 1b38 df3d 59f9 c4bd a239 b4bd 9c6c bcbd
00000260: 6846 9bbd a5c4 4f3d b073 23bd c25a ed3c
00000270: 9f65 e23d f657 6a3d 2192 be3c 9afa 85bd
00000280: a142 d23d 3b78 b93d aff1 9d3d 4347 53bc
00000290: 86d8 46bb 477c 6abd 0384 883d 60b1 f83b

fc3.bias f4 [2]
-0.09871916 -0.07140407
00000000: 452d cabd 4c3c 92bd
