명노아/mob_dog.pth (torch, 678712 bytes, 10 tensors)

conv1.weight f4 [6, 3, 5, 5]
0.053868413 -0.11098611 0.0663144 -0.060934175 -0.012071207 -0.02977889 -0.08190831 0.07416171
-0.079198815 0.0056251064 -0.014094777 0.096555635 0.037816107 0.0692921 0.058546767 0.056772053
0.08494787 0.00073233247 -0.0639918 -0.100642286 -0.038518652 -0.09544975 0.0252254 -0.021507971
-0.060882445 -0.04429847 0.0067415386 -0.03700225 -0.0313159 -0.01997874 0.026189178 -0.029815696
0.04248245 -0.026410252 0.0008748844 -0.048361145 -0.06696091 -0.003362693 0.036919966 -0.09075583
-0.008679114 0.03891915 0.012122527 0.07134655 -0.0275843 0.10598321 -0.042288154 -0.096156955
0.03801079 -0.06806732 0.021370187 -0.042886898 0.112952694 0.05320923 0.005996488 -0.008957572
0.06123075 0.006521657 -0.06169848 -0.103626944 0.03392127 -0.062249083 -0.034048535 -0.036451988
-0.031707555 -0.08961898 -0.08813164 0.04004246 -0.010360569 -0.046916895 0.09275384 -0.06630967
-0.06182717 0.05142331 0.08014965 0.041216798 -0.07884 0.07377635 -0.05857659 0.019540085
0.08302557 -0.074599944 -0.07320246 0.094384946 0.09561352 -0.039550155 0.039164595 -0.038646966
-0.034942128 0.018156774 0.07801981 0.03581536 -0.019018503 -0.0069013955 0.074470714 0.05941594
-0.038359124 0.035206813 -0.105508894 -0.06798466 0.1153921 -0.022993645 0.066227235 -0.0217037
0.02144987 -0.073245525 -0.09655571 0.111303896 0.002148191 -0.048808105 -0.04006765 -0.07967203
-0.05047547 -0.101158574 -0.04541991 -0.08959436 -0.015337565 0.011009322 -0.055997763 0.07055542
0.11358005 0.08541029 -0.03686169 -0.003988264 0.06063054 -0.07338416 -0.044482518 0.04088727
0.073904514 -0.08839692 0.06339295 0.059020642 0.07042622 -0.022353731 0.08303322 0.10627136
-0.09416958 0.0870826 -0.07663003 0.020889783 0.0075038555 -0.09119258 0.04207964 -0.06601823
0.086867265 0.07949164 -0.07050062 0.080561355 0.05778276 -0.07518204 0.091714635 0.06487115
-0.058164842 0.027200107 0.024520027 0.10587882 0.058780916 2.9229002e-05 0.076869935 0.09592985
0.09798547 0.09654092 0.04400644 -0.07140539 0.055143837 0.0415632 -0.008460329 -0.055659056
0.00863489 -0.0427118 0.008449962 -0.1033601 0.0018051877 -0.028359901 0.053567067 -0.027213184
-0.022482803 0.027558483 -0.012218914 0.0046980935 0.06003896 0.0535797 0.05560499 -0.094437376
0.09341511 0.023910353 0.060728367 -0.08338793 -0.033589482 -0.10834776 0.018978419 -0.009391926
-0.014905184 -0.05046667 0.0052422197 -0.049059723 -0.10466196 0.042264216 0.102850124 0.003380193
-0.05789625 -0.05304166 0.0027470938 -0.08416903 -0.03830895 -0.10338917 0.097417235 0.112820536
-0.037112396 -0.115472816 0.056218352 -0.11447204 -0.093198806 0.01899926 0.0650324 -0.019668998
-0.029522708 -0.027810752 -0.09790916 -0.09913645 0.014133444 -0.08892573 -0.074385695 0.006849206
0.029489907 0.038938046 0.0615965 0.06173613 -0.10296146 0.0026569 -0.050959557 0.059375875
-0.09299382 -0.099133536 -0.089708105 0.01662168 0.05613567 -0.042916417 0.10954787 0.04921799
-0.0023663046 -0.05249028 -0.014907106 0.06474684 0.0130148735 -0.08777993 0.024167303 -0.031233206
-0.10652732 0.11600558 0.060709912 -0.030885331 0.09959548 0.055450942 0.10410978 0.09622534
00000000: 20a5 5c3d b04c e3bd d8cf 873d 1d96 79bd
00000010: 50c6 45bc dcf2 f3bc 8bbf a7bd 18e2 973d
00000020: fd32 a2bd d052 b83b c8ed 66bc f6be c53d
00000030: 10e5 1a3d 04e9 8d3d bcce 6f3d d089 683d
00000040: 26f9 ad3d 00fa 3f3a 220e 83bd 8b1d cebd
00000050: bcc5 1dbd 297b c3bd 80a5 ce3c 7c31 b0bc
00000060: df5f 79bd 5072 35bd 20e8 dc3b ac8f 17bd
00000070: 1a45 00bd 74aa a3bc b08a d63c 0c40 f4bc
00000080: 1402 2e3d 505a d8bc 8058 653a 5616 46bd
00000090: cd22 89bd a060 5cbb 6439 173d 31de b9bd
000000a0: d832 0ebc b069 1f3d 909d 463c 241e 923d
000000b0: 78f8 e1bc ba0d d93d 5836 2dbd f0ed c4bd
000000c0: 34b1 1b3d e166 8bbd 8810 af3c 2caa 2fbd
000000d0: be53 e73d ecf1 593d 307e c43b c8c2 12bc
000000e0: 18cd 7a3d a0b3 d53b 8cb7 7cbd 5d3a d4bd
000000f0: 08f1 0a3d e5f8 7ebd 7a76 0bbd ae4e 15bd
00000100: c8df 01bd 288a b7bd 5c7e b4bd 9003 243d
00000110: 60bf 29bc ee2b 40bd baf5 bd3d 5dcd 87bd
00000120: 7d3e 7dbd 40a1 523d 8025 a43d f2d2 283d
00000130: de76 a1bd 0e18 973d 02ee 6fbd 8712 a03c
00000140: 4f09 aa3d dbc7 98bd 2ceb 95bd e54c c13d
00000150: 05d1 c33d 58ff 21bd 0e6b 203d 484c 1ebd
00000160: 7a1f 0fbd 84bd 943c dac8 9f3d 20b3 123d
00000170: b1cc 9bbc 1a25 e2bb 1a84 983d 215e 733d
00000180: 751e 1dbd 0535 103d 0c15 d8bd 8b3b 8bbd
00000190: b152 ec3d 2b5d bcbc 25a2 873d f5cb b1bc
000001a0: a3b7 af3c c001 96bd 00bf c5bd 4cf3 e33d
000001b0: aac8 0c3b 02eb 47bd fa1d 24bd 172b a3bd
000001c0: 5ebf 4ebd 3a2c cfbd 3a0a 3abd 3f7d b7bd
000001d0: 694a 7bbc 7160 343c e95d 65bd 5c7f 903d
000001e0: a89c e83d 97eb ae3d 49fc 16bd fcaf 82bb
000001f0: bb57 783d 6f4a 96bd 4d33 36bd 6979 273d
00000200: 405b 973d 7209 b5bd 2ad4 813d a1bf 713d
00000210: 9f3b 903d 2c1f b7bc 520d aa3d cca4 d93d
00000220: fbdb c0bd 5d58 b23d 35f0 9cbd 0d21 ab3c
00000230: e7e2 f53b 2dc3 babd b35b 2c3d 9134 87bd
00000240: 77e7 b13d 83cc a23d a162 90bd 5afd a43d
00000250: 9ead 6c3d 0bf9 99bd e2d4 bb3d 2adb 843d
00000260: 423e 6ebd c2d2 de3c 39de c83c ffd6 d83d
00000270: 42c4 703d ce30 f537 fc6d 9d3d df76 c43d
00000280: 9bac c83d 3fb7 c53d 1940 343d fd3c 92bd
00000290: 81de 613d 2d3e 2a3d 319d 0abc c0fa 63bd
000002a0: 5b79 0d3c 92f2 2ebd b671 0a3c 76ae d3bd
000002b0: 0c9c ec3a 0653 e8bc 2469 5b3d 2fee debc
000002c0: db2d b8bc 54c2 e13c d731 48bc 77f2 993b
000002d0: 6aeb 753d 6376 5b3d 0fc2 633d 6268 c1bd
000002e0: 6c50 bf3d a5df c33c 4fbe 783d 4bc7 aabd
000002f0: 2095 09bd 6ee5 ddbd a178 9b3c 98e0 19bc
00000300: df34 74bc 24b6 4ebd edc6 ab3b d9f2 48bd
00000310: 0259 d6bd 3e1d 2d3d 16a3 d23d 3a86 5d3b
00000320: 9e24 6dbd 3642 59bd 9608 343b d060 acbd
00000330: d8e9 1cbd b3bd d3bd b082 c73d 740e e73d
00000340: 2b03 18bd 037d ecbd 3745 663d 5170 eabd
00000350: 04df bebd 56a4 9b3c b52f 853d e120 a1bc
00000360: 9bd9 f1bc 60d3 e3bc 9984 c8bd 0d08 cbbd
00000370: f68f 673c b11e b6bd 8757 98bd 4e6f e03b
00000380: d194 f13c 807d 1f3d 9d4c 7c3d 06df 7c3d
00000390: 75dd d2bd 631f 2e3b f8ba 50bd 1e34 733d
000003a0: 8b73 bebd 8606 cbbd e2b8 b7bd 312a 883c
000003b0: 84ee 653d 20c9 2fbd a25a e03d ce98 493d
000003c0: 0114 1bbb 0c00 57bd ef3c 74bc fe99 843d
000003d0: 563c 553c f7c5 b3bd 82fa c53c c8dc ffbc
000003e0: ff2a dabd 5594 ed3d f5aa 783d 3c03 fdbc
000003f0: b7f8 cb3d 8720 633d 8237 d53d cb11 c53d

conv1.bias f4 [6]
-0.08176094 -0.02103786 0.07864705 -0.044488266 -0.005871741 -0.054679666
00000000: 4872 a7bd 9757 acbc b411 a13d 5439 36bd
00000010: bc67 c0bb c9f7 5fbd

conv2.weight f4 [16, 6, 5, 5]
-0.026062973 -0.042701636 -0.016349569 0.040293634 0.075731516 -0.00451117 -0.059143398 -0.06933133
-0.023517497 0.048286065 0.030163147 0.05604863 -0.05674395 0.03679549 0.02737955 -0.042343583
0.06369622 -0.07777434 0.07054955 0.057869777 -0.0266034 -0.011128344 0.041427717 0.008318856
-0.07200831 -0.054613452 0.012803442 -0.034959786 0.07904644 -0.07542135 -0.077945374 0.06762859
0.0041343276 -0.04959365 0.07332476 0.0057587223 -0.023435986 -0.026298128 0.022361321 -0.040494278
0.036580008 -0.03472298 0.0070047923 0.02739968 0.051263094 -0.06587137 0.05526396 -0.027651137
-0.05840826 0.0070773284 0.05931068 0.04639726 0.031093877 -0.049936835 0.070859306 -0.02028266
-0.0024509835 -0.02497479 0.038542185 -0.050706316 -0.07816194 -0.009212539 0.02779915 0.008081399
0.0032866818 -0.08038186 0.027136048 -0.069996245 0.020499863 -0.06723198 -0.023689367 -0.0032187211
0.052187435 0.064500906 0.014789826 0.010043881 -0.0691974 0.048923068 0.061127197 -0.008250292
0.07018349 -0.045932468 0.041794166 0.018113872 -0.012519985 -0.06461237 0.08085298 -0.028022818
-0.061746933 -0.06373963 0.028281493 5.198177e-05 -0.08033818 0.04156242 -0.033591356 -0.049668457
0.017377 -0.026362685 -0.056362793 0.0028186298 0.0096076215 0.048883863 -0.0545945 -0.015410314
0.037894487 -0.004424426 0.010941174 0.05778901 0.058731426 -0.054523196 0.04143635 -0.033583775
0.057520468 0.018682782 0.010725713 0.0027671515 0.044729568 -0.0351959 0.05058355 -0.02712519
-0.025637457 -0.045007788 -0.043875583 -0.0033222076 -0.03192735 -0.025069134 -0.07493038 -0.03373248
-0.07107864 -0.03582794 0.059232406 -0.07105652 -0.04222416 0.018041642 -0.0099119255 -0.0630136
-0.042771835 0.058394153 -0.080763616 0.050208494 -0.029558359 0.011351742 0.07582274 0.06134959
-0.07930473 -0.035970114 -0.037684917 0.072546445 0.033638194 -0.06840127 0.013783462 0.06587304
-0.07772343 0.034151323 -0.035967007 0.05529657 -0.031229988 0.06375134 -0.054065444 0.07456669
-0.02367467 -0.046590164 -0.043652635 -0.036686637 0.045034915 0.067727774 0.05391732 -0.06892185
-0.04790323 0.04461877 -0.07495517 0.04808587 -0.026963118 -0.020910464 -0.06773141 -0.029436778
0.053611197 0.058279335 0.0021513875 -0.0051864656 0.044753958 -0.038852327 -0.009737533 -0.041485053
-0.017302448 -0.06331257 -0.046737224 0.05388918 -0.0051969155 0.05183617 0.018584987 0.0047751917
0.043361224 -0.074863225 -0.038187623 0.054692637 0.037024118 0.003161419 -0.029512431 -0.0026727724
0.063714415 -0.033997312 -0.054536745 -0.08075789 0.051532153 -0.04842064 -0.05755662 -0.01017802
-0.04308806 0.07002952 0.063107856 0.04661235 -0.07369206 0.0021703222 -0.023913255 -0.015677987
0.0024213751 0.0044960873 -0.009088157 0.061762102 0.011068545 -0.044094842 -0.056015566 -0.08077199
0.043517474 -0.06334345 0.013788086 0.055528928 0.043095056 0.04007512 -0.02712334 -0.031192755
0.06172241 -0.053103488 0.019543344 -0.05483984 -0.0032423544 -0.010614618 -0.049753703 -0.034763735
0.05825487 0.064489916 -0.02566149 0.052385673 0.0035661375 0.020533884 0.038331203 0.0600359
0.01401458 0.0130249495 0.06045785 -0.0771661 0.054280985 0.011593904 0.027028972 -0.028155098
00000000: 0482 d5bc e9e7 2ebd 88ef 85bc f00a 253d
00000010: 2019 9b3d 70d2 93bb 5940 72bd 96fd 8dbd
00000020: c4a7 c0bc 9cc7 453d b418 f73c 4093 653d
00000030: 586c 68bd deb6 163d 144b e03c 7770 2dbd
00000040: 2a73 823d 2748 9fbd 487c 903d dc08 6d3d
00000050: 60ef d9bc a853 36bc 1cb0 293d d04b 083c
00000060: 1879 93bd 5bb2 5fbd 87c5 513c fe31 0fbd
00000070: 1ae3 a13d 8276 9abd d3a1 9fbd dc80 8a3d
00000080: 4179 873b b622 4bbd 4b2b 963d aab3 bc3b
00000090: d3fc bfbc 2c6f d7bc 172f b73c 54dd 25bd
000000a0: ebd4 153d af39 0ebd 7588 e53b 4b75 e03c
000000b0: 40f9 513d 92e7 86bd 765c 623d a384 e2bc
000000c0: 803d 6fbd efe8 e73b c1ef 723d 0e0b 3e3d
000000d0: 96b8 fe3c 918a 4cbd af1e 913d d227 a6bc
000000e0: aea0 20bb ee97 ccbc 69de 1d3d 6db1 4fbd
000000f0: 5e13 a0bd 30f0 16bc 0bbb e33c d867 043c
00000100: 5f65 573b 3f9f a4bd 6b4c de3c 315a 8fbd
00000110: 54ef a73c ecb0 89bd 3410 c2bc 2ef1 52bb
00000120: 7ec2 553d 0d19 843d 0751 723c 178f 243c
00000130: 5eb7 8dbd 8e63 483d 8360 7a3d 3c2c 07bc
00000140: 5dbc 8f3d af23 3cbd 5c30 2b3d 8b63 943c
00000150: a020 4dbc 7e53 84bd 3f96 a53d 1c90 e5bc
00000160: 5aea 7cbd ec89 82bd 97ae e73c 0007 5a38
00000170: 5888 a4bd 5b3d 2a3d 1797 09bd 2771 4bbd
00000180: 365a 8e3c 8ff6 d7bc acdc 66bd c3b8 383b
00000190: 4969 1d3c 723a 483d 7c9e 5fbd 8b7b 7cbc
000001a0: 4037 1b3d c6fa 90bb 9c42 333c 2bb4 6c3d
000001b0: 5d90 703d b753 5fbd 2ab9 293d 248f 09bd
000001c0: 959a 6b3d a20c 993c e7ba 2f3c 1959 353b
000001d0: 5a36 373d 9329 10bd b230 4f3d a535 debc
000001e0: a505 d2bc 165a 38bd e2b6 33bd 65b9 59bb
000001f0: 41c6 02bd c95d cdbc 1975 99bd 122b 0abd
00000200: ae91 91bd 51c0 12bd ae9d 723d 1586 91bd
00000210: 3ef3 2cbd 11cc 933c a165 22bc 460d 81bd
00000220: 8531 2fbd b52e 6f3d 6567 a5bd 6ca7 4d3d
00000230: 5f24 f2bc a8fc 393c f448 9b3d b549 7b3d
00000240: 856a a2bd 6655 13bd 805b 1abd 3b93 943d
00000250: 34c8 093d f715 8cbd 08d4 613c 72e8 863d
00000260: 762d 9fbd 42e2 0b3d 2452 13bd a87e 623d
00000270: 08d6 ffbc 1090 823d ba73 5dbd 6cb6 983d
00000280: 62f1 c1bc 54d5 3ebd 1bcd 32bd ba44 16bd
00000290: 8876 383d dcb4 8a3d 68d8 5c3d e626 8dbd
000002a0: 2d36 44bd 2cc2 363d 1982 99bd b0f5 443d
000002b0: c2e1 dcbc 6c4c abbc c4b6 8abd 6625 f1bc
000002c0: 6a97 5b3d 50b6 6e3d 4bfe 0c3b 3af3 a9bb
000002d0: ed4f 373d 9e23 1fbd 2c8a 1fbc 3bec 29bd
000002e0: ddbd 8dbc 05aa 81bd 886f 3fbd e7ba 5c3d
000002f0: e34a aabb 2a52 543d 8b3f 983c 3679 9c3b
00000300: 8a9b 313d e451 99bd a06a 1cbd 6305 603d
00000310: 9aa6 173d cf2f 4f3b 0ec4 f1bc ae29 2fbb
00000320: b47c 823d c440 0bbd ec61 5fbd 6564 a5bd
00000330: 6113 533d b954 46bd 7ec0 6bbd b6c1 26bc
00000340: 1b7d 30bd a36b 8f3d b13e 813d 97ec 3e3d
00000350: ddeb 96bd f73b 0e3b bbe5 c3bc 1f6f 80bc
00000360: efaf 1e3b ea53 933b 7ee6 14bc 42fa 7c3d
00000370: d858 353c cb9c 34bd 9470 65bd c96b a5bd
00000380: 613f 323d 36ba 81bd 6de7 613c 4d72 633d
00000390: 7184 303d cf25 243d c431 debc f387 ffbc
000003a0: a3d0 7c3d 0b83 59bd 5d19 a03c bd9f 60bd
000003b0: ae7d 54bb efe8 2dbc 8aca 4bbd 6b64 0ebd
000003c0: a99c 6e3d 4a13 843d 0c38 d2bc 5c92 563d
000003d0: dcb5 693b ad36 a83c 2e01 1d3d 34e8 753d
000003e0: 699d 653c 9966 553c a7a2 773d 4309 9ebd
000003f0: bd55 5e3d 5cf4 3d3c dd6b dd3c 85a5 e6bc

conv2.bias f4 [16]
-0.054287553 0.048078462 -0.07256625 0.024858432 -0.03222319 -0.05674636 -0.07795816 -0.028387964
-0.03738697 0.078246586 0.047837004 -0.0014700327 0.017603382 -0.010933545 0.04636505 0.07553169
00000000: a05c 5ebd eced 443d 9d9d 94bd e9a3 cb3c
00000010: 77fc 03bd df6e 68bd 87a8 9fbd e08d e8bc
00000020: 1423 19bd bf3f a03d bcf0 433d 1dae c0ba
00000030: f834 903c 9d22 33bc 47e9 3d3d 5cb0 9a3d

fc1.weight f4 [120, 1296]
-0.01609033 -0.024860885 -0.018486438 -0.011700263 0.00928597 -0.00071958423 0.019344615 -0.01983841
-0.00050622807 0.007950766 0.012100422 -0.011055224 0.02408698 -0.01843156 -0.023979276 -0.02471148
-0.024098257 0.0044767587 -0.026820514 -0.017440228 -0.003988676 0.01350257 -0.020679189 -0.010164913
0.013729544 0.0048260186 0.02729406 0.006986426 -0.0077839363 0.007608566 0.0005016159 -0.026494086
0.019760864 -0.005342884 0.006271123 -0.009862738 0.02752042 -0.007621849 0.017072054 0.00081684254
-0.012939406 0.0030906107 0.019794343 -0.015407731 -0.0034067587 -0.0123984115 -0.0058362046 0.0027518647
-0.017939173 -0.023241645 -0.025544444 -0.00891204 -0.010215154 -0.02276109 -0.022268474 -0.002001129
0.01834503 0.026024962 0.025238091 0.0020190943 0.001639707 0.0077264328 0.021477906 -0.0034949258
-0.016819464 0.024317073 -0.022807939 0.020091826 0.0025565661 -0.026012288 -0.004772842 0.019178277
0.025213288 0.020203045 -0.013198595 -0.011934983 -0.004287608 0.020560727 0.022403333 -0.027744548
0.0048767347 -0.0059084212 -0.01921924 -0.013362673 0.022344988 0.021380834 -0.026210008 0.00020065429
0.007330158 0.017987201 -0.02755695 0.015392273 0.0074127186 -0.002321509 0.019951155 0.01070708
0.012819398 -0.025301637 -0.0020650243 -0.018666474 0.01584054 -0.0019446751 -0.013836148 -0.018719796
0.027357232 1.8680596e-05 -0.0054689944 0.008647295 -0.021624293 -0.0010650194 -0.016595963 -0.009887589
-0.015888808 0.0021725083 0.011531153 -0.015347263 -0.012044422 -0.015901908 0.0076767113 0.025013143
-0.004901026 -0.02169096 0.020392863 -0.021579646 0.0019109388 -0.01327502 -0.017939277 -0.008318617
-0.0060550873 -0.018503165 -0.026193509 0.0015618785 -0.020439059 -0.020380372 0.023080809 0.010096533
-0.0115471305 -0.02543562 -0.0070414827 -0.022949636 -0.0021194057 -0.00016174717 -0.021946467 -0.022915456
0.01182195 0.011213819 0.008276791 0.0028543388 0.01784576 0.0107930675 0.0022633858 -0.010376828
0.008026956 -0.021547047 0.020637035 -0.015099557 -0.026784206 0.015311671 0.014298436 -0.0031304918
0.023387145 0.023444263 0.0062302286 0.0018861264 -0.015073788 -0.02423643 0.019493297 0.0142725
0.014241629 -0.018265909 -0.021834636 -0.02609874 0.023226984 -0.0051390645 -0.0028109418 -0.012076592
-0.0024441227 0.013947611 -0.011593994 -0.00915615 -0.023949116 -0.018568331 -0.021467071 0.010938529
-0.010364791 -0.014051533 0.0040551545 -0.004161856 -0.023317076 0.0027550268 -0.008602939 -0.016858745
-0.025457224 0.018392965 0.023939118 0.014248094 0.0031911472 -0.010796184 -0.02708057 0.02118801
-0.020934386 0.0021519547 -0.01744842 0.021499664 -0.010464886 -0.008135651 -0.020697152 0.0023173497
-0.012766445 0.012685323 0.00742386 0.008687729 -0.0057017505 -0.010308138 -0.015530445 -0.010675974
0.015240044 -0.018435152 0.008837122 -0.0073687406 0.0023329074 0.025388524 0.0012585637 -0.0262882
0.021698747 -0.024389688 -0.010669266 -0.012088042 -0.02762482 -0.01591444 0.022554649 0.025330514
-0.014254098 -0.02004947 -0.017073262 -0.018682968 0.009839686 0.022381732 -0.0022308268 0.022408923
0.0008419009 -0.026473157 -0.019274827 0.018381884 0.0037888403 -0.0060263337 -0.005186224 0.014377598
0.0236282 0.009959893 0.0074843992 -0.015508493 0.026236566 0.01953887 -0.015157118 0.027623896
00000000: decf 83bc 0ea9 cbbc df70 97bc 76b2 3fbc
00000010: 2e24 183c 7ba2 3cba 9978 9e3c 2984 a2bc
00000020: 64b4 04ba ee43 023c d940 463c f820 35bc
00000030: 0f52 c53c c8fd 96bc 3070 c4bc bb6f cabc
00000040: b569 c5bc c6b1 923b b2b6 dbbc cfde 8ebc
00000050: 70b3 82bb e239 5d3c 6767 a9bc bc8a 26bc
00000060: e2f1 603c 9423 9e3b cb97 df3c 64ee e43b
00000070: 6410 ffbb 4751 f93b e07e 033a 200a d9bc
00000080: 89e1 a13c 5c13 afbb fe7d cd3b 5297 21bc
00000090: 8172 e13c b4c0 f9bb b1da 8b3c 6021 563a
000000a0: cdff 53bc d88b 4a3b bf27 a23c b570 7cbc
000000b0: ed43 5fbb b522 4bbc a23d bfbb a158 343b
000000c0: 2cf5 92bc 4365 bebc 9542 d1bc ce03 12bc
000000d0: 765d 27bc 7775 babc 606c b6bc 6025 03bb
000000e0: 5148 963c 4d32 d53c 1dc0 ce3c c852 043b
000000f0: 70eb d63a 042e fd3b 6ff2 af3c 200b 65bb
00000100: f9c8 89bc 9934 c73c b7d7 babc 9d97 a43c
00000110: 108c 273b b917 d5bc 8065 9cbb c31b 9d3c
00000120: 198c ce3c db80 a53c eb3e 58bc f28a 43bc
00000130: 107f 8cbb f86e a83c 3287 b73c 8948 e3bc
00000140: 04cd 9f3b 6e9b c1bb ab71 9dbc 1def 5abc
00000150: d60c b73c dc26 af3c 5fb6 d6bc ba66 5239
00000160: d231 f03b e559 933c 1dbf e1bc df2f 7c3c
00000170: 64e6 f23b 7524 18bb 9b70 a33c c06c 2f3c
00000180: 7408 523c 6145 cfbc 5c55 07bb 6fea 98bc
00000190: 05c4 813c 78e4 feba 03b1 62bc 425a 99bc
000001a0: 461c e03c 46b4 9c37 4035 b3bb 62ad 0d3c
000001b0: 6e25 b1bc 1f98 8bba 42f4 87bc 8eff 21bc
000001c0: 3f29 82bc a460 0e3b 29ed 3c3c 1673 7bbc
000001d0: f855 45bc b844 82bc ec8c fb3b 5de8 cc3c
000001e0: c998 a0bb 3db1 b1bc ef0e a73c ccc7 b0bc
000001f0: 7778 fa3a 787f 59bc 64f5 92bc cf4a 08bc
00000200: c169 c6bb f393 97bc c593 d6bc f2b7 cc3a
00000210: d06f a7bc bdf4 a6bc f713 bd3c ee6b 253c
00000220: 2d30 3dbc 5d5e d0bc 3dbc e6bb e000 bcbc
00000230: bae5 0abb ad9a 29b9 14c9 b3bc 32b9 bbbc
00000240: dab0 413c 2aba 373c 619b 073c dc0f 3b3b
00000250: 4531 923c 68d5 303c 5055 143b 9203 2abc
00000260: 7e83 033c 6f83 b0bc 000f a93c 2264 77bc
00000270: 8d6a dbbc cedd 7a3c fd43 6a3c f028 4dbb
00000280: 6696 bf3c 2f0e c03c f226 cc3b e637 f73a
00000290: 0df8 76bc 7a8b c6bc 68b0 9f3c 34d7 693c
000002a0: b955 693c 63a2 95bc 8dde b2bc 06cd d5bc
000002b0: 8446 be3c 9965 a8bb c737 38bb e6dc 45bc
000002c0: 932d 20bb 8584 643c bcf4 3dbc ad03 16bc
000002d0: f030 c4bc 9d1c 98bc b6db afbc 8437 333c
000002e0: 16d1 29bc 6738 66bc 1ae1 843b 2e60 88bb
000002f0: 7403 bfbc ae8d 343b 57f3 0cbc 5a1b 8abc
00000300: ab8b d0bc d8ac 963c f81b c43c d670 693c
00000310: 9122 513b 7ae2 30bc 12d8 ddbc 7a92 ad3c
00000320: 977e abbc cf07 0d3b fdef 8ebc 1020 b03c
00000330: ea74 2bbc 654b 05bc 138d a9bc adde 173b
00000340: 5a2a 51bc 1ad6 4f3c da43 f33b fa56 0e3c
00000350: c0d5 babb 77e3 28bc 6873 7ebc 48ea 2ebc
00000360: 61b1 793c 5105 97bc 93c9 103c 7a75 f1bb
00000370: b1e3 183b 98fb cf3c 64f6 a43a 5a5a d7bc
00000380: 92c1 b13c e2cc c7bc 25ce 2ebc ec0c 46bc
00000390: 724d e2bc 005f 82bc 87c4 b83c f081 cf3c
000003a0: 058a 69bc c93e a4bc 3add 8bbc 060d 99bc
000003b0: a236 213c e559 b73c 1033 12bb eb92 b73c
000003c0: 03b3 5c3a 3cde d8bc 3ee6 9dbc 9b95 963c
000003d0: 314e 783b 8d78 c5bb 33f1 a9bb 0490 6b3c
000003e0: ed8f c13c d22e 233c b13f f53b 5617 7ebc
000003f0: 11ee d63c fb0f a03c 9055 78bc 824b e23c

fc1.bias f4 [120]
-0.019286511 -0.024853604 -0.020821813 0.015540966 0.013010449 0.011181051 0.016144564 -0.0026541082
-0.02239991 -0.0020967498 0.009924193 0.017086705 -0.021649119 -0.02007859 0.01565125 0.010163342
-0.024602728 -0.020257957 0.0058206143 0.023563834 -0.010720985 0.0065059974 -0.013145667 -0.011638287
0.018727614 -0.018906085 0.026345197 0.00533806 0.010092834 0.0017918593 0.018503759 -0.013486189
0.011738274 0.020750467 -0.0100879185 -0.0073289066 0.004320873 0.017930817 0.025319837 -0.018945336
-0.002360579 -0.00028701685 -0.005330451 0.011264086 -0.024118802 -0.012310181 0.02582431 0.020378165
0.021221666 -0.0042544976 -0.011007324 -0.017540047 0.0067889765 -0.024372851 0.009408327 -0.01761822
-0.016732471 -0.015545881 -0.026997132 -0.02657615 -0.0006330929 -0.005421212 -0.02001559 -0.02758465
0.020087028 0.015594976 -0.02537695 -0.012525658 0.027284157 -0.017141258 -0.017013643 -0.0055202213
0.007109035 0.01594013 -0.024770487 0.023937162 0.0050332285 -0.008957932 -0.026789013 -0.011603121
-0.024102641 -0.009459937 0.020144412 -0.014163019 -0.022778906 -0.02630258 -0.010278715 0.0020416656
-0.021999177 -0.019393522 0.015149649 0.01063062 -0.016021589 0.009770202 0.020284439 7.9099846e-05
-0.018793914 0.020795602 0.002482534 0.021801693 -0.010737615 0.007373145 -0.009353872 0.02452338
-0.00469275 -0.021693464 -0.002165854 0.018032163 -0.0090913605 -0.016099596 0.0045679 -0.016563077
0.010056535 -0.016821582 -0.00808526 -0.00040288447 0.0045733955 -0.008612176 0.024940075 0.02131758
00000000: bffe 9dbc c999 cbbc 8292 aabc 899f 7e3c
00000010: c729 553c ba30 373c 9b41 843c 8cf0 2dbb
00000020: 0480 b7bc a069 09bb 1599 223c 6bf9 8b3c
00000030: 7e59 b1bc db7b a4bc 0d37 803c 2584 263c
00000040: a98b c9bc 04f4 a5bc daba be3b f108 c13c
00000050: 12a7 2fbc 4330 d53b ec60 57bc 84ae 3ebc
00000060: a76a 993c efe0 9abc e2d1 d73c e5ea ae3b
00000070: 6a5c 253c d2dc ea3a 3295 973c 2df5 5cbc
00000080: e451 403c e2fc a93c cc47 25bc 5327 f0bb
00000090: 1c96 8d3b a6e3 923c 8c6b cf3c 4033 9bbc
000000a0: f2b3 1abb c07a 96b9 10ab aebb 008d 383c
000000b0: cb94 c5bc a4b0 49bc 818d d33c 1cf0 a63c
000000c0: 0fd9 ad3c 5069 8bbb 1058 34bc 25b0 8fbc
000000d0: 1076 de3b 93a9 c7bc 6225 1a3c 1654 90bc
000000e0: 8912 89bc 27b4 7ebc 1729 ddbc 3ab6 d9bc
000000f0: 25f6 25ba 6ca4 b1bb bcf7 a3bc 34f9 e1bc
00000100: 8d8d a43c 1282 7f3c 52e3 cfbc 6b38 4dbc
00000110: 0683 df3c d36b 8cbc 3260 8bbc f9e2 b4bb
00000120: e8f2 e83b e094 823c 7aeb cabc de17 c43c
00000130: c8ed a43b 4ac4 12bc a274 dbbc 041b 3ebc
00000140: e772 c5bc dafd 1abc e505 a53c 020c 68bc
00000150: d49a babc 8278 d7bc 0e68 28bc 77cd 053b
00000160: 9e37 b4bc 2adf 9ebc 3c36 783c 0d2c 2e3c
00000170: b53f 83bc 3313 203c 8d2b a63c 68e2 a538
00000180: b2f5 99bc 8a5b aa3c 02b2 223b 7799 b23c
00000190: d2ec 2fbc 6c9a f13b fc40 19bc 41e5 c83c
000001a0: a4c5 99bb 7eb6 b1bc 00f1 0dbb 30b8 933c
000001b0: eef3 14bc 4de3 83bc 53ae 953b 4aaf 87bc
000001c0: 2ac4 243c 6acd 89bc 0a78 04bc 3d3a d3b9
000001d0: 6cdc 953b 161a 0dbc 214f cc3c 35a2 ae3c

fc2.weight f4 [84, 120]
0.056563463 0.06842026 -0.052825224 0.07975258 0.035732254 -0.026229583 0.056033507 0.06436441
0.0189304 0.057655063 -0.025733842 -0.053204063 -0.005623063 -0.024541017 0.03572082 0.07557493
0.04747446 0.042269066 0.0446335 0.052425265 -0.0362143 0.051409937 -0.049805183 -0.074416675
-0.048040193 0.034619838 0.028060459 -0.08167313 -0.0009401962 -0.012299316 -0.07818365 0.08585211
-0.022386534 0.012065614 0.034916956 -0.06362245 0.05669117 -0.013690776 0.016382597 -0.050879486
0.07412993 -0.012954414 -0.018185798 0.07647812 -0.07597232 0.046012435 0.059306413 0.08818219
-0.0121667255 0.053057093 -0.041443005 0.08432613 0.056038816 0.034036253 -0.0018096411 0.04487647
-0.0712992 0.063471735 0.08054134 0.044694334 -0.08609744 0.062055506 -0.062262997 0.018495537
-0.050105274 0.06547347 -0.05981322 -0.04014478 0.04676202 0.016154211 -0.032175444 0.059845697
-0.07362727 0.055184085 -0.0427221 0.000537545 -0.015153262 0.015350141 -0.014604154 -0.026651828
0.021595895 -0.052363463 0.04801144 0.0012684274 0.082664415 0.0150601175 -0.07254787 0.031835325
-0.018184364 0.0019842088 -0.061822016 0.0310415 -0.0027149976 0.018706035 -0.086970344 0.07398088
-0.0076577095 0.079622015 -0.06055949 -0.049989074 0.035916477 0.07226077 -0.06482452 0.055251863
0.013948795 -0.025444617 -0.058673434 -0.010639835 0.023206986 0.080378674 -0.07821112 0.08224579
-0.034828614 0.086574584 -0.022165537 0.04245808 0.021180592 -0.07871182 -0.049516916 0.06381677
0.079537965 0.07623635 -0.07650095 0.033925667 -0.0031151155 0.003472983 -0.028003678 -0.072838105
-0.064132914 -0.037274554 -0.030863592 0.056951832 0.045508914 -0.07770759 0.02818432 -0.085219584
0.055323854 0.07123603 -0.044255767 0.0073961243 -0.0034685954 0.07045554 0.033917014 -0.052557964
0.02537936 -0.08175118 0.06544995 0.03768216 0.0217394 0.08094769 0.022203904 0.065044746
0.002646886 0.047624316 -0.02156523 0.012328934 0.032544382 -0.054433506 0.021936344 -0.04751482
0.010035282 -0.087368876 -0.07759005 -0.07877902 -0.017132929 -0.087904535 0.024929456 -0.04501226
0.08693701 -0.03389311 -0.02752847 0.02986307 -0.01308709 -0.038914572 0.056915175 -0.07600587
-0.027016014 0.028556332 0.014321196 -0.087898955 -0.025071023 -0.08316134 -0.03229954 0.018143922
-0.044661086 0.039663687 -0.087267995 0.061812043 0.009079015 -0.008672464 -0.038010146 -0.013451624
0.012759356 -0.072183155 -0.049753163 -0.033619843 -0.090281926 0.021262802 -0.089083634 0.06255597
0.053441938 -0.09135437 0.02526205 0.05094653 0.03610222 0.039812315 0.019216828 0.05653448
-0.06211237 0.063534155 -0.06727031 -0.051290065 0.038778037 -0.07343417 -0.0706369 0.0375352
-0.0014770388 0.024361098 0.020059336 -0.0034770295 0.07454112 0.054299515 0.0779545 -0.06266099
-0.07805222 0.06774857 -0.012379795 0.05771331 0.04289272 0.027888972 -0.05762452 -0.01104855
0.013326436 0.029569365 0.083630204 0.010372539 -0.03125121 -0.051014904 0.06060122 -0.049665716
0.047912743 -0.057600982 -0.07104294 -0.056438647 -0.044646885 -0.0087557295 -0.0873353 0.044217106
-0.047699623 -0.051034205 0.057122927 0.08025768 0.041273016 -0.046672605 0.05183825 -0.012788359
00000000: 17af 673d ec1f 8c3d 435f 58bd 5255 a33d
00000010: fc5b 123d 6cdf d6bc 6483 653d 7dd1 833d
00000020: ed13 9b3c b727 6c3d c7cf d2bc 81ec 59bd
00000030: ac41 b8bb 3e0a c9bc ff4f 123d 07c7 9a3d
00000040: 9474 423d 5422 2d3d 9ed1 363d e0bb 563d
00000050: 7255 14bd 3a93 523d 8500 4cbd c567 98bd
00000060: cbc5 44bd 88cd 0d3d 0cdf e53c 3e44 a7bd
00000070: 8077 76ba 1283 49bc c01e a0bd 3bd3 af3d
00000080: f763 b7bc daae 453c 1505 0f3d 7d4c 82bd
00000090: 0035 683d 474f 60bc cc34 863c 0267 50bd
000000a0: 6fd1 973d c03e 54bc 62fa 94bc 90a0 9c3d
000000b0: 6097 9bbd 8977 3c3d 48eb 723d dd98 b43d
000000c0: f256 47bc 6552 593d 24c0 29bd 2eb3 ac3d
000000d0: f588 653d 9969 0b3d 7b31 edba 64d0 373d
000000e0: 5105 92bd 78fd 813d dcf2 a43d 6811 373d
000000f0: db53 b0bd ea2d 7e3d 7c07 7fbd f483 973c
00000100: 303b 4dbd f416 863d b5fe 74bd da6e 24bd
00000110: 8889 3f3d d655 843c 66ca 03bd c320 753d
00000120: e5c9 96bd b508 623d 5efd 2ebd 09ea 0c3a
00000130: 6345 78bc 287f 7b3c 4346 6fbc ef54 dabc
00000140: e0e9 b03c 127b 56bd a5a7 443d 5c41 a63a
00000150: f64b a93d b6be 763c fa93 94bd c265 023d
00000160: 60f7 94bc 8009 023b 1539 7dbd be4a fe3c
00000170: 1aee 31bb 663d 993c 821d b2bd 4a83 973d
00000180: 86ed fabb de10 a33d 3a0d 78bd 58c1 4cbd
00000190: 281d 133d 74fd 933d b8c2 84bd c74f 623d
000001a0: 7d89 643c 3b71 d0bc 8e53 70bd b452 2ebc
000001b0: 941c be3c 939d a43d 272d a0bd 7b70 a83d
000001c0: 73a8 0ebd 044e b13d 8094 b5bc 86e8 2d3d
000001d0: ec82 ad3c aa33 a1bd 40d2 4abd 5eb2 823d
000001e0: cde4 a23d ce21 9c3d 88ac 9cbd a4f5 0a3d
000001f0: f726 4cbb fc9a 633b f867 e5bc 252c 95bd
00000200: 1e58 83bd 34ad 18bd a5d5 fcbc 5346 693d
00000210: 8e67 3a3d 2825 9fbd cee2 e63c 9b87 aebd
00000220: 449b 623d 32e4 913d 8945 35bd 305b f23b
00000230: 6051 63bb ff4a 903d 91ec 0a3d 0547 57bd
00000240: 60e8 cf3c 2a6d a7bd a00a 863d 9c58 1a3d
00000250: d416 b23c e7c7 a53d f6e4 b53c 2e36 853d
00000260: 6177 2d3b b711 433d 91a9 b0bc 4cff 493c
00000270: 424d 053d abf5 5ebd d9b3 b33c e69e 42bd
00000280: 066b 243c 74ee b2bd 88e7 9ebd e556 a1bd
00000290: 5b5a 8cbc 4b07 b4bd dc38 cc3c c75e 38bd
000002a0: 080c b23d 80d3 0abd 6383 e1bc 66a3 f43c
000002b0: 3c6b 56bc e364 1fbd e31f 693d f7a8 9bbd
000002c0: b050 ddbc f8ee e93c 73a3 6a3c 5e04 b4bd
000002d0: bf61 cdbc 7e50 aabd 864c 04bd 90a2 943c
000002e0: 8bee 36bd 6476 223d 90b9 b2bd a02e 7d3d
000002f0: 26c0 143c f316 0ebc 87b0 1bbd 3364 5cbc
00000300: 9e0c 513c c3d4 93bd f9c9 4bbd f6b4 09bd
00000310: bbe5 b8bd 542f ae3c 7b71 b6bd 581d 803d
00000320: efe5 5a3d 0018 bbbd 5cf2 ce3c 4fad 503d
00000330: ecdf 133d 3d12 233d 9c6c 9d3c b390 673d
00000340: 8a69 7ebd 321e 823d 04c5 89bd 8815 52bd
00000350: b8d5 1e3d a764 96bd 14aa 90bd 83be 193d
00000360: 3399 c1ba ed90 c73c 7a53 a43c e0de 63bb
00000370: 04a9 983d 2b69 5e3d 9ca6 9f3d 6854 80bd
00000380: d8d9 9fbd c3bf 8a3d a0d4 4abc cb64 6c3d
00000390: 47b0 2f3d 6a77 e43c b007 6cbd fa04 35bc
000003a0: 2057 5a3c 743b f23c 5046 ab3d 95f1 293c
000003b0: 4501 00bd 01f5 50bd fc38 783d 476e 4bbd
000003c0: 2740 443d 02ef 6bbd f67e 91bd 362c 67bd
000003d0: a7df 36bd 3174 0fbc dadc b2bd ff1c 353d
000003e0: ae60 43bd 3e09 51bd bbf9 693d 235e a43d
000003f0: e50d 293d c62b 3fbd 5854 543d 4486 51bc

fc2.bias f4 [84]
0.005389984 0.045585904 0.0070176786 -0.022593275 0.026853388 0.048062753 -0.047296878 0.018646775
0.03030502 0.08053655 -0.065765 0.07017409 0.08930973 0.060532168 0.014352547 0.030375285
-0.09057269 -0.03755602 -0.06594716 -0.08392749 0.060516145 0.07187019 -0.044853516 0.009602205
-0.03772232 -0.022970239 0.011795729 -0.007804745 0.08682025 -0.056729738 -0.029139288 -0.023820862
0.0691059 -0.036975656 -0.042570982 -0.026531823 0.06889921 0.049781084 -0.05886876 -0.08232435
-0.040830787 -0.06976792 -0.046118654 -0.08335691 0.03943025 0.046704985 -0.03343465 -0.032061547
0.065119445 -0.05535782 -0.031912364 -0.042000934 -0.028640319 0.0049022483 -0.090314955 -0.06647085
-0.011127688 -0.07278073 -0.03384896 -0.026703522 0.029296394 0.013317564 0.068910435 0.089514144
0.07950969 -0.05663248 0.08871558 0.023482652 -0.022446781 -0.08667775 0.067780524 0.004064812
-0.059498657 0.019083936 -0.033462085 -0.08679794 0.010971634 -0.058274083 0.0016069299 0.018959325
-0.054354597 0.089963935 -0.07198412 -0.0011511445
00000000: 779e b03b 49b8 3a3d 8ef4 e53b 8815 b9bc
00000010: a3fb db3c 73dd 443d 5fba 41bd 1fc1 983c
00000020: 3c42 f83c 59f0 a43d cdaf 86bd 6fb7 8f3d
00000030: 05e8 b63d 94f0 773d f226 6b3c 97d5 f83c
00000040: 2d7e b9bd 57d4 19bd 4e0f 87bd 2de2 abbd
00000050: c7df 773d ae30 933d 52b8 37bd 9152 1d3c
00000060: b882 1abd 152c bcbc e042 413c f2be ffbb
00000070: d1ce b13d 715d 68bd 84b5 eebc f823 c3bc
00000080: 6587 8d3d c973 17bd e95e 2ebd 4459 d9bc
00000090: 071b 8d3d 40e7 4b3d 5e20 71bd ab99 a8bd
000000a0: 2f3e 27bd 7ce2 8ebd eae6 3cbd 07b7 aabd
000000b0: 9d81 213d ba4d 3f3d c6f2 08bd f852 03bd
000000c0: 585d 853d e2be 62bd 8ab6 02bd 2c09 2cbd
000000d0: 1a9f eabc 0aa3 a03b 0cf7 b8bd de21 88bd
000000e0: e850 36bc 100e 95bd 35a5 0abd 58c1 dabc
000000f0: fefe ef3c e931 5a3c ea20 8d3d 3153 b73d
00000100: fad5 a23d 76f7 67bd 84b0 b53d b15e c03c
00000110: 50e2 b7bc 1b84 b1bd 84d0 8a3d 1d32 853b
00000120: ddb4 73bd ea55 9c3c 8a0f 09bd 1ec3 b1bd
00000130: 5ec2 333c ceb0 6ebd 9f9f d23a 9650 9b3c
00000140: eda2 5ebd 033f b83d 696c 93bd 00e2 96ba

fc3.weight f4 [2, 84]
-0.055433955 -0.09987752 -0.015512065 0.0005528927 0.056295168 0.103698306 -0.037239432 -0.055060834
-0.019803163 -0.044763412 -0.003961846 -0.005129123 -0.0020660975 0.04081387 -0.033061784 -0.06833233
-0.047456104 -0.038844064 0.010644324 0.040263154 -0.07002303 0.042393055 -0.049379952 0.019724932
0.022533061 0.030856594 0.00025892965 -0.018264769 0.081091605 0.10619032 -0.04107938 0.04404331
0.07026227 -0.104421884 0.006893523 0.07804587 -0.04787494 0.04212126 -0.08982623 -0.004091561
-0.065370604 0.03401833 0.014335379 -0.0467695 -0.08935228 -0.04283931 0.007353872 -0.05289639
0.10834057 -0.031895027 0.033128433 -0.045260906 0.08722345 0.09087944 0.089368366 0.03462831
-0.03096018 -0.008999236 0.055883802 -0.057793375 -0.049714185 -0.04901412 -0.055926494 0.081675254
0.101133026 -0.010072008 0.0336416 0.03294408 -0.045576766 0.0027575195 -0.057309415 0.06796911
-0.06042184 -0.05745062 -0.023625366 -0.030731022 -0.041866302 -0.08891581 -0.0790792 -0.069423355
0.0413341 0.07344049 0.055528305 -0.07013021 -0.006966454 0.03003227 -0.015999187 0.022846498
0.016398087 0.040026475 0.06087316 0.095402636 0.013223103 -0.046610568 0.04210306 -0.093901455
0.036641978 0.014812219 0.040146757 0.044211708 0.06747226 -0.04536836 0.095964424 -0.081391856
-0.017716326 0.09999359 -0.045801766 -0.09667441 0.037466135 -0.06981796 0.040034052 0.10070329
-0.06710054 0.035334773 0.0960375 -0.00064495206 0.036542933 0.037357576 -0.006818071 0.1022309
-0.0921775 0.03454721 0.06620761 -0.08496961 -0.0023783445 0.030936308 -0.07408654 0.009285413
0.082466625 0.06693369 0.014900692 -0.09820204 -0.08915691 -0.051271908 0.022733398 -0.08660207
0.027885549 -0.022871723 0.08160987 -0.009416796 0.052912317 0.037971385 -0.05401789 -0.10727228
0.10252059 0.088649385 0.053642806 0.08629545 0.0033187415 -0.10893147 0.08312688 0.012109546
0.09251862 -0.09599375 -0.0006435279 0.02926522 -0.04803177 -0.033895086 0.007609561 0.032265462
-0.05826769 0.018340357 -0.0799039 -0.060007613 0.031193517 0.016217373 0.082399465 0.047848903
00000000: b70e 63bd 968c ccbd 5126 7ebc 00f0 103a
00000010: c395 663d c75f d43d 6088 18bd 7887 61bd
00000020: 3e3a a2bc d759 37bd 60d2 81bb 3412 a8bb
00000030: 5d67 07bb 722c 273d cb6b 07bd d2f1 8bbd
00000040: 5561 42bd f41a 1fbd 8865 2e3c faea 243d
00000050: 3c68 8fbd 57a4 2d3d a242 4abd 2e96 a13c
00000060: 4197 b83c f8c6 fc3c f3c0 8739 ff9f 95bc
00000070: 5b13 a63d 4f7a d93d da42 28bd c266 343d
00000080: aae5 8f3d 24db d5bd 10e3 e13b 83d6 9f3d
00000090: 8318 44bd 5887 2c3d d1f6 b7bd 8012 86bb
000000a0: 06e1 85bd ce56 0b3d f0de 6a3c 6091 3fbd
000000b0: 54fe b6bd 4678 2fbd c0f8 f03b e3a9 58bd
000000c0: a9e1 dd3d 5ca4 02bd aeb1 073d 8063 39bd
000000d0: 35a2 b23d 001f ba3d c306 b73d 6ad6 0d3d
000000e0: 34a0 fdbc 8871 13bc 6ae6 643d bfb8 6cbd
000000f0: 1aa1 4bbd 08c3 48bd 2e13 65bd 5b45 a73d
00000100: d51e cf3d 1005 25bc c6cb 093d 5ff0 063d
00000110: b4ae 3abd 80b7 343b 47bd 6abd 6433 8b3d
00000120: e47c 77bd 5751 6bbd fc89 c1bc a0bf fbbc
00000130: 007c 2bbd 7e19 b6bd 47f4 a1bd d52d 8ebd
00000140: f24d 293d f867 963d a671 633d 6da0 8fbd
00000150: da46 e4bb 3c06 f63c ba10 83bc 9428 bb3c
00000160: 4855 863c cdf2 233d 2256 793d 7562 c33d
00000170: b7a5 583c b9ea 3ebd 4274 2c3d 684f c0bd
00000180: e615 163d f3ae 723c ed70 243d 5617 353d
00000190: e52e 8a3d 2cd4 39bd ff88 c43d c6b0 a6bd
000001a0: d421 91bc 70c9 cc3d a29a 3bbd 3cfd c5bd
000001b0: 1776 193d b8fc 8ebd bffa 233d 873d ce3d
000001c0: 026c 89bd 32bb 103d 4faf c43d 0012 29ba
000001d0: 0bae 153d 4204 193d 206a dfbb 6f5e d13d
000001e0: 8fc7 bcbd 6081 0d3d db97 873d 8c04 aebd
000001f0: 00de 1bbb 246e fd3c afba 97bd d821 183c
00000200: 43e4 a83d 8814 893d 0822 743c 271e c9bd
00000210: e697 b6bd 7e02 52bd 643b ba3c 6d5c b1bd
00000220: 3c70 e43c 7b5d bbbc 1323 a73d e848 1abc
00000230: 96ba 583d e287 1b3d dd41 5dbd 92b1 dbbd
00000240: 51f6 d13d cf8d b53d 8fb8 5b3d abbb b03d
00000250: 3e7f 593b 7617 dfbd 6d3e aa3d 1e67 463c
00000260: 677a bd3d 5f98 c4bd 6db2 28ba 9dbd ef3c
00000270: f6bc 44bd 93d5 0abd a059 f93b ca28 043d
00000280: 1aaa 6ebd 843e 963c a8a4 a3bd 8bca 75bd
00000290: 8c89 ff3c 4cda 843c 0dc1 a83d 36fd 433d

fc3.bias f4 [2]
-0.08384198 -0.10505191
00000000: 58b5 abbd 7525 d7bd
