명노아/model.pth (torch, 686008 bytes, 26 tensors)

conv1.weight f4 [6, 1, 5, 5]
0.20562598 -0.07751464 0.10976649 -0.09556692 -0.019320164 0.20912305 0.07323606 -0.025665117
0.05212458 -0.10348947 0.15180166 0.12333144 0.046931725 0.17184816 0.12934102 0.13350004
-0.0623913 -0.1973176 0.09567884 0.20554587 -0.18157856 0.018286996 0.19392093 -0.06771955
-0.026355777 0.15936285 -0.034496173 -0.16734332 -0.07016603 0.15839304 0.14905432 -0.0009236138
0.1057644 -0.032796394 -0.095953226 0.08549563 0.19354726 0.015362291 0.054766405 0.08177434
-0.1946875 -0.18555504 -0.1367475 -0.048592724 -0.0782171 0.114748456 0.03940437 -0.17724824
-0.09221084 -0.081446424 0.01648623 0.13874677 0.13548589 -0.057459056 0.064342566 0.09692395
-0.17349869 0.17230007 -0.17427512 -0.06884766 0.19097193 0.17702371 0.10368603 -0.15837072
0.10895843 0.050321296 -0.06608748 0.090581186 0.021368558 -0.041133966 -0.04510506 0.10131197
-0.0058205463 -0.024356885 0.19463503 0.10970661 -0.19450101 -0.089301676 -0.08132794 0.14427513
0.15171224 0.023456234 0.17188033 -0.20365617 0.14190198 0.12077 0.1601089 0.11195784
0.13259909 -0.109448746 -0.08331863 -0.18319838 -0.18598415 -0.06878897 -0.01519162 -0.03205674
-0.103308484 0.14107783 0.106697895 -0.082940094 -0.06010845 -0.052614275 -0.096248895 -0.14819814
-0.1969996 -0.060751177 -0.152797 -0.19095448 -0.07091802 0.12825915 0.11659816 0.14900783
-0.019076457 0.03882544 0.0032338954 -0.08993937 0.069500536 0.1354537 -0.1284516 -0.10641268
0.071941935 0.14374986 0.13108979 -0.11597951 0.13770418 -0.1597104 0.051856834 0.08386632
-0.014366148 -0.035195045 0.10749788 -0.045820165 0.0451945 0.20770814 -0.00083878665 -0.09567781
0.16467997 -0.1576953 -0.1544824 0.11936524 -0.03501164 -0.15603116 -0.013780243 -0.10492674
0.1302678 0.008406591 0.14694168 0.1352668 -0.032200094 0.124102585
00000000: 9e8f 523e ffbf 9ebd 41cd e03d 97b8 c3bd
00000010: 5245 9ebc 5a24 563e cafc 953d a73f d2bc
00000020: 9580 553d 4af2 d3bd e571 1b3e 3295 fc3d
00000030: 7b3b 403d f7f8 2f3e f971 043e 3cb4 083e
00000040: 058e 7fbd a00d 4abe 45f3 c33d 9e7a 523e
00000050: bbef 39be 9cce 953c 3593 463e 8cb0 8abd
00000060: 12e8 d7bc 0430 233e dc4b 0dbd 0c5c 2bbe
00000070: 35b3 8fbd c931 223e b2a1 183e ac1e 72ba
00000080: 019b d83d 8355 06bd 2083 c4bd 5518 af3d
00000090: 4131 463e 1eb2 7b3c bd52 603d 4e79 a73d
000000a0: 295c 47be 2402 3ebe 8907 0cbe 2a09 47bd
000000b0: 4930 a0bd 3d01 eb3d 7a66 213d 9080 35be
000000c0: 09d9 bcbd 62cd a6bd 210e 873c a213 0e3e
000000d0: d0bc 0a3e 305a 6bbd 09c6 833d 1080 c63d
000000e0: a4a9 31be 6e6f 303e 2d75 32be 0100 8dbd
000000f0: 258e 433e b445 353e 5759 d43d ef2b 22be
00000100: 9925 df3d b41d 4e3d df58 87bd a182 b93d
00000110: 1d0d af3c 177c 28bd 15c0 38bd a67c cf3d
00000120: 48ba bebb 1788 c7bc 684e 473e dcad e03d
00000130: 462b 47be cce3 b6bd 438f a6bd dcbc 133e
00000140: 745a 1b3e 4a27 c03c 6601 303e 3e8b 50be
00000150: c14e 113e 4356 f73d 96f3 233e 274a e53d
00000160: 0ec8 073e aa26 e0bd f5a2 aabd 5b98 3bbe
00000170: a172 3ebe 3be1 8cbd 46e6 78bc ee4d 03bd
00000180: 6693 d3bd b576 103e 6d84 da3d 7fdc a9bd
00000190: 4734 76bd 1182 57bd 241e c5bd 41c1 17be
000001a0: 43ba 49be 3ad6 78bd d176 1cbe 9289 43be
000001b0: 783d 91bd 5e56 033e 04cb ee3d 8295 183e
000001c0: 3b46 9cbc 6d07 1f3d c3ef 533b 2232 b8bd
000001d0: 4c56 8e3d 60b4 0a3e d188 03be e4ee d9bd
000001e0: 4b56 933d 2a33 133e 673c 063e aa86 edbd
000001f0: 5302 0d3e 208b 23be d567 543d 1bc2 ab3d
00000200: fe5f 6bbc ae28 10bd d927 dc3d edad 3bbd
00000210: de1d 393d 71b1 543e 05e2 5bba baf2 c3bd
00000220: dea1 283e e07a 21be a230 1ebe c375 f43d
00000230: 5e68 0fbd a2c6 1fbe 87c6 61bc d5e3 d6bd
00000240: ec64 053e ccbb 093c e177 163e 6183 0a3e
00000250: 3fe4 03bd 7f29 fe3d

conv1.bias f4 [6]
0.14044937 -0.16850245 0.19605874 -0.14379343 0.16229019 0.052226506
00000000: f6d1 0f3e e88b 2cbe 9fc3 483e 963e 13be
00000010: 662f 263e 76eb 553d

conv2.weight f4 [16, 6, 5, 5]
-0.010540932 -0.06044198 -0.010135465 0.073813245 0.08194398 -0.003582028 0.04450348 -0.01803403
-0.005213636 -0.03851559 -0.047193665 0.05112869 0.001356479 -0.0066615203 -0.06270375 0.06315429
0.006889578 0.03623481 0.02863957 0.007145899 0.04570835 0.07822944 0.046470318 -0.06425993
-0.014105406 0.0029690631 0.083227165 0.0746391 -0.0044559333 -0.06367279 0.059050757 0.017600205
-0.004009241 0.019744791 -0.0046957103 -0.038881604 -0.05671115 0.04830869 0.0035499234 0.050941337
0.038427915 0.04182267 0.047979254 0.07601771 -0.0020790691 0.050190076 0.051426053 0.020868503
0.06733719 0.0332284 0.00094079284 0.083262086 0.018060764 0.07277699 0.041975882 -0.08232872
-0.042527243 0.06227641 -0.056866847 -0.0051020514 -0.025516415 -0.075799935 0.068781026 0.038887642
-0.05423038 0.07340016 0.0144792 -0.052493535 -0.008006413 -0.025734585 0.060612533 0.031199552
0.035099044 0.03225893 -0.047159117 0.011825254 0.08470448 -0.01653567 -0.06329031 -0.040795445
-0.043081928 0.07829802 0.06132865 0.05297143 -0.030522536 -0.060850497 -0.085269675 -0.07949949
0.058910433 -0.03279719 0.05700613 -0.03328923 0.07280029 -0.046230324 0.0011838365 -0.021744376
0.03795185 -0.026158664 0.026500354 -0.048648205 -0.048251703 -0.045341723 0.040425126 -0.019503558
0.06843983 -0.059221838 -0.0036703867 -0.047193073 -0.022901615 -0.032510024 0.06730472 0.081004344
0.039197773 -0.004935621 -0.020812102 -0.039278496 -0.02486466 -0.053782947 0.019394018 0.004339555
0.011780455 0.089293405 -0.051508766 0.027453888 -0.022021543 0.058946554 -0.0674141 -0.029660974
-0.04439819 -0.007358898 -0.01614951 0.03016048 -0.04300075 0.071736574 -0.0523567 0.029959796
-0.06410257 0.025623217 -0.08984393 0.02022295 -0.04477917 -0.07246557 -0.056811668 -0.05068349
0.06167369 0.039846182 0.05731584 -0.049209 -0.07942684 0.05658905 -0.0786851 0.070496276
0.010226315 -0.0015717698 -0.039041907 0.067476235 0.051635392 0.00079194445 0.05848026 0.053505562
-0.041179083 0.06076506 0.021884738 -0.008579175 0.072471924 -0.006333296 -0.009454544 -0.06197159
0.060506668 -0.058930922 0.012090583 0.052332927 -0.0019860284 -0.06370281 -0.03645277 0.051995985
0.022575315 0.0018193992 -0.037515953 -0.08595308 -0.0036043522 -0.016315097 -0.040580526 -0.017623294
-0.021659434 -0.062455792 -0.0414585 -0.070738934 -0.02054166 -0.08114679 -0.033146426 -0.032664273
-0.07322397 -0.046349548 0.030211331 -0.011192974 -0.075103804 -0.08128299 0.07380924 0.06541736
-0.019141616 -0.0033282314 0.019309148 -0.009097896 0.047570568 0.015814772 -0.040998634 -0.06109377
-0.011667738 -0.031665068 -0.027417697 0.028345987 -0.089475416 0.053278312 -0.04277081 -0.039877966
-0.058883745 0.0459453 0.05751038 -0.0011443752 0.03537074 -0.03895713 -0.06471606 -0.021647038
-0.01799563 0.00590089 0.066525266 0.08142817 -0.028087081 -0.045717135 0.029988334 0.032847974
-0.0342527 0.006085 -0.011337049 0.04913726 0.05885263 -0.03949252 0.061338063 0.026895655
0.0099468585 0.016793268 0.069112144 -0.028259074 -0.08600097 -0.012016299 0.043829463 0.015951373
-0.040103275 -0.017040037 0.018155891 -0.012596818 -0.035056394 -0.02737044 -0.03559612 -0.03727297
00000000: e0b3 2cbc 0292 77bd 390f 26bc 662b 973d
00000010: 3fd2 a73d 75c0 6abb 4849 363d 1abc 93bc
00000020: 26d7 aabb 86c2 1dbd 254e 41bd 516c 513d
00000030: e2cb b13a e248 dabb d36a 80bd 0957 813d
00000040: f8c1 e13b f46a 143d 889d ea3c 2528 ea3b
00000050: ae38 3b3d c236 a03d a957 3e3d b69a 83bd
00000060: 5c1a 67bc 9d94 423b 0173 aa3d 62dc 983d
00000070: 1403 92bb e166 82bd 35df 713d 4e2e 903c
00000080: f35f 83bb d4bf a13c 79de 99bb 5142 1fbd
00000090: f349 68bd 55df 453d d5a5 683b dda7 503d
000000a0: 9766 1d3d 3f4e 2b3d e585 443d 2caf 9b3d
000000b0: fe40 08bb 1c94 4d3d 20a4 523d 6cf4 aa3c
000000c0: 15e8 893d 811a 083d 8a9f 763a 5085 aa3d
000000d0: 2bf4 933c 1a0c 953d e7ee 2b3d f69b a8bd
000000e0: 0c31 2ebd 8d15 7f3d 36ed 68bd 1c2f a7bb
000000f0: cd07 d1bc ff3c 9bbd 11dd 8c3d a648 1f3d
00000100: ad20 5ebd d352 963d 2b3a 6d3c 7603 57bd
00000110: 542d 03bc 56d1 d2bc d944 783d 3496 ff3c
00000120: 04c4 0f3d f121 043d eb29 41bd b6be 413c
00000130: 8b79 ad3d d075 87bc 5a9e 81bd 2019 27bd
00000140: ad76 30bd b65a a03d c033 7b3d 92f8 583d
00000150: 660a fabc 5f3e 79bd dea1 aebd a1d0 a2bd
00000160: 114c 713d 5956 06bd 437f 693d 4a5a 08bd
00000170: 5218 953d 025c 3dbd f62a 9b3a 4321 b2bc
00000180: 6673 1b3d b24a d6bc 4517 d93c 5743 47bd
00000190: 94a3 45bd 3eb8 39bd d194 253d edc5 9fbc
000001a0: 2e2a 8c3d 9992 72bd df8a 70bb 864d 41bd
000001b0: 2b9c bbbc 3b29 05bd 0fd7 893d 9be5 a53d
000001c0: d88d 203d fdba a1bb 247e aabc 7de2 20bd
000001d0: f9b0 cbbc 824b 5cbd 34e0 9e3c d332 8e3b
000001e0: cf02 413c 76df b63d dbfa 52bd fae6 e03c
000001f0: 8666 b4bc f171 713d 6710 8abd 92fb f2bc
00000200: e0da 35bd e922 f1bb fa4b 84bc 1c13 f73c
00000210: 8e21 30bd a0ea 923d fb73 56bd 3f6e f53c
00000220: 3548 83bd c8e7 d13c 1800 b8bd 9aaa a53c
00000230: 5d6a 37bd d468 94bd 5ab3 68bd 7e99 4fbd
00000240: 8d9d 7c3d c035 233d 04c4 6a3d 608f 49bd
00000250: 8aaa a2bd ebc9 673d a725 a1bd 5a60 903d
00000260: 468c 273c d803 ceba 68ea 1fbd fb30 8a3d
00000270: a27f 533d 7e9a 4f3a ff88 6f3d a628 5b3d
00000280: 66ab 28bd c9e4 783d 9f47 b33c ab8f 0cbc
00000290: 296c 943d 8a87 cfbb 3be7 1abc ecd5 7dbd
000002a0: d7d5 773d 8d61 71bd 9517 463c 0d5b 563d
000002b0: 0728 02bb 9e76 82bd 804f 15bd bef9 543d
000002c0: deef b83c e878 ee3a 54aa 19bd 2b08 b0bd
000002d0: ff36 6cbb 3da7 85bc c437 26bd ba5e 90bc
000002e0: 206f b1bc a5d1 7fbd 63d0 29bd 93df 90bd
000002f0: fc46 a8bc 4a30 a6bd 8cc4 07bd f9ca 05bd
00000300: 73f6 95bd 06d9 3dbd c17d f73c bc62 37bc
00000310: 06d0 99bd b277 a6bd 4c29 973d 89f9 853d
00000320: e1ce 9cbc 751e 5abb 382e 9e3c 570f 15bc
00000330: 5bd9 423d fb8d 813c 2fee 27bd 763d 7abd
00000340: 0a2a 3fbc 3bb3 01bd 149b e0bc d835 e83c
00000350: e33e b7bd 5c3a 5a3d 7230 2fbd 1457 23bd
00000360: 1530 71bd 2431 3c3d 0190 6b3d dcfe 95ba
00000370: e9e0 103d 8391 1fbd db89 84bd 2155 b1bc
00000380: 926b 93bc 415c c13b 663e 883d d0c3 a63d
00000390: e116 e6bc e441 3bbd 18aa f53c 998b 063d
000003a0: 8f4c 0cbd ae64 c73b 08bf 39bc 2744 493d
000003b0: 750f 713d e9c2 21bd 9f3d 7b3d 4754 dc3c
000003c0: 26f8 223c 0992 893c ab8a 8d3d 937f e7bc
000003d0: 4721 b0bd 03e0 44bc 8686 333d 74ac 823c
000003e0: 5543 24bd 8c97 8bbc aabb 943c e262 4ebc
000003f0: 4b97 0fbd f937 e0bc 3dcd 11bd 8bab 18bd

conv2.bias f4 [16]
0.07390947 -0.022875505 0.07109695 -0.081892066 0.046560667 0.06489508 -0.040693585 -0.008254418
-0.036713786 0.021976795 -0.028023073 -0.07556358 -0.048044804 -0.02992871 -0.041108888 0.03501908
00000000: d95d 973d 6965 bbbc 479b 913d 07b7 a7bd
00000010: 66b6 3e3d b6e7 843d 51ae 26bd 8a3d 07bc
00000020: 3261 16bd ae08 b43c a590 e5bc 14c1 9abd
00000030: a1ca 44bd 0e2d f5bc cb61 28bd 2b70 0f3d

fc1.weight f4 [120, 1296]
-0.0122056445 0.0058874073 0.00015581683 0.0087112505 -0.00819449 0.013283447 0.00024137282 -0.016982753
-0.010113261 -0.022609765 0.013610816 -0.026348555 0.011697128 0.015876874 0.012214828 0.020342946
0.0029072848 0.0060355435 -0.017205024 0.0033132117 0.00496732 -0.014716411 0.017722782 0.0071917265
-0.043213453 0.0103978645 -0.0025594449 0.012811427 -0.034533273 -0.03144204 -0.0052059228 0.025859326
-0.0059773903 0.018938199 0.0048802188 0.014150962 -0.010684238 -0.011813416 -0.0016326637 -0.024671184
0.0027089517 0.034491394 -0.002954785 0.0040051728 -0.0040618093 0.010437711 -0.009578723 0.03402697
0.00088198925 0.020982057 0.025206497 -0.010418858 0.012240701 0.01595741 -0.02182605 -0.03137194
0.006435846 -0.009179521 -0.0095250355 -0.019040087 -0.022117078 -0.025694046 -0.009064245 0.021396145
-0.00014346176 -0.008523826 -0.02370773 -0.030234123 -0.0053143864 0.009696457 -0.0062686116 -0.013786393
0.019126827 0.0060518924 -0.0031672637 -0.0019829462 0.012190333 0.0145824775 -0.027929068 -0.016576864
-0.0045115226 -0.011841671 -0.0066182795 -0.033942025 0.025603333 0.0024673135 -0.020039199 0.013550006
-0.018160418 0.0014320943 -0.0043844823 0.011544184 0.017390013 -0.029017026 -0.025338633 0.024600554
0.022577185 0.0097811045 0.02233737 -0.0020352416 -0.012566832 -0.027426807 0.027806014 -0.028910186
-0.01638677 -0.0038631824 0.012133906 -0.02662153 -0.0011125888 0.021849323 -0.030716693 0.024168814
0.02662025 0.0013135924 0.029237527 0.004209836 0.014782022 0.011594634 -0.012973513 -0.023075266
-0.03246748 0.01723671 0.030020548 -0.015611436 -0.0213485 0.013136361 -0.022995504 -0.008943492
0.014507582 0.012752561 0.0024692349 -0.024825972 0.025714967 -0.016940027 0.043528125 -0.0061993203
0.036040936 -0.004894953 -0.015145788 0.02292773 -0.00035602698 0.0063379826 0.0068052346 0.014645021
0.015826134 0.015813952 -0.021779642 0.026456952 0.024900591 -0.014044374 0.002257598 0.0075201676
0.01322829 -0.017602682 0.008251398 -0.009411261 0.023740185 0.016258726 -0.0102483295 -0.025261255
0.018100435 0.029596666 0.012740922 0.0064688837 0.014981867 0.0057282257 -0.0026259017 -0.012033479
0.037000712 -0.011437961 -0.0072328025 -0.007477108 -0.027514046 0.00033485302 -0.018933576 -0.012483944
-0.0029483908 -0.006557682 -0.011452736 -0.010098889 -0.009238098 -0.00024288881 0.019503368 0.02023881
0.03938747 -0.006687317 0.017300198 0.028637704 -0.02116263 -0.027140938 -0.00070642715 0.0068860226
-0.0067704697 0.0051521263 -0.030339342 -0.013687685 -0.019466946 -0.006751049 0.016790045 -0.014848418
0.010055365 -0.02198364 -0.01727991 0.026858803 0.024306305 0.0042528734 0.0050975345 -0.029724494
-0.030883852 -0.013091951 0.0014678994 -0.006750701 0.022830103 0.0061570453 -0.02936152 0.003960945
0.018038252 -0.0015871291 -0.009028819 -0.014387267 0.0049425107 0.002778267 0.026977638 -0.02038752
0.021229055 -0.0031429336 -0.02510395 0.0018749496 0.021712711 -0.030039841 0.037566267 0.011158887
0.003939551 -0.028519195 -0.0046765883 -0.013862852 -0.012483192 0.0043894425 -0.024425717 -0.0036755
-0.023769954 0.00797652 0.01835544 0.0085130725 -0.0047323178 0.0018208321 0.013090996 0.017565848
-0.010750576 0.012411982 0.020937324 -0.016817544 -0.024437187 0.016662132 0.009829577 0.019459983
00000000: 2ffa 47bc 27eb c03b c362 2339 a2b9 0e3c
00000010: 2f42 06bc d1a2 593c 0619 7d39 6a1f 8bbc
00000020: 17b2 25bc 1d38 b9bc e6ff 5e3c edd8 d7bc
00000030: 50a5 3f3c 3810 823c b420 483c 40a6 a63c
00000040: 2588 3e3b cfc5 c53b 8df1 8cbc 7822 593b
00000050: e6c4 a23b 1a1d 71bc 5e2f 913c 93a8 eb3b
00000060: 9700 31bd ce5b 2a3c 5cbc 27bb 05e7 513c
00000070: c372 0dbd 5ec9 00bd 7296 aabb f0d6 d33c
00000080: fcdd c3bb 4824 9b3c 3eea 9f3b 70d9 673c
00000090: f10c 2fbc 0f8d 41bc 1aff d5ba 391b cabc
000000a0: ab88 313b d946 0d3d 11a5 41bb d33d 833b
000000b0: ed18 85bb ef02 2b3c 14f0 1cbc dd5f 0b3d
000000c0: 4c35 673a 90e2 ab3c db7d ce3c dcb3 2abc
000000d0: 398d 483c 1db9 823c 8bcc b2bc dd7f 00bd
000000e0: cae3 d23b b465 16bc e50e 1cbc f5f9 9bbc
000000f0: e02e b5bc 527c d2bc 3382 14bc f846 af3c
00000100: 396e 16b9 84a7 0bbc b736 c2bc 8dad f7bc
00000110: 4e24 aebb e3dd 1e3c ed68 cdbb 53e0 61bc
00000120: ddaf 9c3c f44e c63b de91 4fbb 51f4 01bb
00000130: f6b9 473c 58eb 6e3c 80cb e4bc 34cc 87bc
00000140: 65d5 93bb 9103 42bc 27de d8bb cb06 0bbd
00000150: 15be d13c a7b2 213b 3f29 a4bc d800 5e3c
00000160: 28c5 94bc 1cb5 bb3a b4ab 8fbb d123 3d3c
00000170: 8075 8e3c 1db5 edbc f792 cfbc 1a87 c93c
00000180: caf3 b83c ed40 203c dcfc b63c b061 05bb
00000190: 1de5 4dbc 2fae e0bc 70c9 e33c 0ed5 ecbc
000001a0: 8c3d 86bc 722d 7dbb 4acd 463c 6515 dabc
000001b0: 49d4 91ba 5afd b23c 93a1 fbbc adfd c53c
000001c0: b612 da3c d92c ac3a 8a83 ef3c aaf2 893b
000001d0: 4b30 723c 6bf7 3d3c dc8e 54bc 5708 bdbc
000001e0: 9ffc 04bd 0034 8d3c a7ed f53c 1cc7 7fbc
000001f0: 0de3 aebc e439 573c 1161 bcbc b987 12bc
00000200: 36b1 6d3c 1ef0 503c e3d2 213b d65f cbbc
00000210: 32a8 d23c d0c5 8abc 8c4a 323d ab23 cbbb
00000220: a99f 133d d865 a0bb 0a26 78bc efd2 bb3c
00000230: 22a9 bab9 daae cf3b 72fe de3b acf1 6f3c
00000240: cfa5 813c 438c 813c 386b b2bc 40bc d83c
00000250: 53fc cb3c 601a 66bc 36f4 133b bd6b f63b
00000260: 78bb 583c 8033 90bc df30 073c b131 1abc
00000270: c77a c23c 0531 853c 9ce8 27bc b1f0 cebc
00000280: 5d47 943c b574 f23c 4dbf 503c eef8 d33b
00000290: 8176 753c d7b3 bb3b 5217 2cbb 1228 45bc
000002a0: 0f8e 173d 4966 3bbc 2501 edbb 8702 f5bb
000002b0: 2365 e1bc 368f af39 961a 9bbc 7589 4cbc
000002c0: ca39 41bb d3e1 d6bb 42a4 3bbc cf75 25bc
000002d0: 645b 17bc f8af 7eb9 87c5 9f3c dccb a53c
000002e0: c154 213d 4821 dbbb 25b9 8d3c 9e99 ea3c
000002f0: 405d adbc ac56 debc 862f 39ba 25a4 e13b
00000300: d1da ddbb 2bd3 a83b 368a f8bc 5042 60bc
00000310: 2579 9fbc e737 ddbb 478b 893c c746 73bc
00000320: 42bf 243c 0917 b4bc 998e 8dbc fe06 dc3c
00000330: 041e c73c b05b 8b3b 3809 a73b c880 f3bc
00000340: 2200 fdbc 9f7f 56bc 8866 c03a fc34 ddbb
00000350: 3206 bb3c 0ac1 c93b 9287 f0bc d1ca 813b
00000360: f5c4 933c 3707 d0ba 9ded 13bc 92b8 6bbc
00000370: c9f4 a13b 9613 363b 3500 dd3c ba03 a7bc
00000380: 8ee8 ad3c adf9 4dbb cda6 cdbc dec0 f53a
00000390: dbde b13c 1d16 f6bc 16df 193d c4d3 363c
000003a0: 5917 813b 16a1 e9bc 113e 99bb 0421 63bc
000003b0: 4d86 4cbc 50d5 8f3b 7118 c8bc a8e0 70bb
000003c0: 35b9 c2bc f3af 023c 265e 963c 6a7a 0b3c
000003d0: 8f11 9bbb fda8 ee3a 9e7b 563c 41e6 8f3c
000003e0: 2f23 30bc a05b 4b3c c084 ab3c f2c4 89bc
000003f0: 7f30 c8bc 067f 883c 3c0c 213c 8b6a 9f3c

fc1.bias f4 [120]
-0.0017895568 0.012807152 -0.024141593 0.013884264 -0.020478796 0.021947656 0.0112431785 -0.0113618905
-0.0042044353 -0.00660044 0.0083452575 0.0015087795 -0.020425417 0.0023670073 0.0047124173 -0.007668994
0.0011142446 0.014829234 -0.016337771 0.0015962798 -0.017522166 0.014598871 -0.0047144657 0.028401574
-0.014927101 -0.022049744 0.004451362 0.027354581 0.0021922227 -0.019523378 0.00820433 -0.006893879
0.0015593906 -0.0016543261 -0.015577526 -0.02727307 0.019471314 0.026114807 0.0073644845 -0.02329746
0.017652994 -0.0003023906 -0.021988008 0.011439919 0.023496281 0.003819889 0.0015085584 0.0001671747
0.004619641 -0.024052015 0.009400099 -0.021379998 0.005168816 -0.00091204833 0.012378949 0.004049505
-0.015678719 0.015122323 0.005321967 -0.012397902 0.014863081 0.010452571 -0.017625852 -0.023860749
-0.019791782 -0.014275557 -0.022831917 0.009288919 -0.003722063 -0.0166077 0.012857976 -0.022326777
0.011059006 0.018827183 -0.019242581 -0.007897067 0.009093571 0.01258417 -0.009356467 -0.0091831405
-0.014936428 0.009417544 0.0024137485 -0.006292691 -0.011540525 0.021088365 0.0051017413 -0.0024370146
0.01095374 0.0049398593 0.022276506 -0.022180526 -0.0034666292 0.0031366542 0.011853126 0.006922159
0.0006534977 -0.0030924308 -0.006228108 0.0222462 0.021425206 -0.0116836615 -0.015595316 -0.0008010249
2.9663624e-05 0.018448068 -0.026145846 -0.0018959325 -0.0073878975 -0.011945487 0.017562466 0.01681414
-0.013224045 0.02500141 0.017481063 0.0007666555 -0.017079035 0.013802754 0.017845433 0.013929519
00000000: 908f eaba 17d5 513c 97c4 c5bc d37a 633c
00000010: 26c3 a7bc 92cb b33c 4f35 383c 3927 3abc
00000020: 5cc5 89bb 8148 d8bb 8cba 083c 3dc2 c53a
00000030: 3453 a7bc cb1f 1b3b 9f6a 9a3b 2f4c fbbb
00000040: d80b 923a 51f6 723c cad6 85bc 433a d13a
00000050: a58a 8fbc 1a30 6f3c ce7b 9abb 6baa e83c
00000060: cd90 74bc aaa1 b4bc bbdc 913b b716 e03c
00000070: 65ab 0f3b 7eef 9fbc 746b 063c 0ce6 e1bb
00000080: 7764 cc3a f9d5 d8ba e138 7fbc c66b dfbc
00000090: 4e82 9f3c b8ee d53c c651 f13b 51da bebc
000000a0: 039d 903c 2e8a 9eb9 3220 b4bc 7f6e 3b3c
000000b0: 467b c03c 1a57 7a3b d2ba c53a 9e4b 2f39
000000c0: 5c60 973b bb08 c5bc df02 1a3c 1b25 afbc
000000d0: 2c5f a93b 8716 6fba 13d1 4a3c b6b1 843b
000000e0: a870 80bc 9fc3 773c e563 ae3b 9220 4bbc
000000f0: 4884 733c 4341 2b3c 1764 90bc 9e77 c3bc
00000100: 6022 a2bc 07e4 69bc 000a bbbc 8d30 183c
00000110: dbed 73bb df0c 88bc 43aa 523c a5e6 b6bc
00000120: d530 353c 773b 9a3c 9ea2 9dbc b362 01bc
00000130: 34fd 143c d62d 4e3c de4b 19bc e274 16bc
00000140: ebb7 74bc 0b4c 1a3c fb2f 1e3b eb32 cebb
00000150: 7814 3dbc 82c1 ac3c 822c a73b 52b6 1fbb
00000160: 5177 333c 8bde a13b 387d b63c efb3 b5bc
00000170: 6330 63bb 5390 4d3b 9d33 423c 47d3 e23b
00000180: 7d4f 2b3a 61aa 4abb 2815 ccbb aa3d b63c
00000190: ea83 af3c d46c 3fbc 7f83 7fbc dffb 51ba
000001a0: 26d6 f837 6720 973c d02f d6bc f080 f8ba
000001b0: 2d16 f2bb 01b7 43bc 29df 8f3c cfbd 893c
000001c0: aaa9 58bc c2cf cc3c 7234 8f3c 61f9 483a
000001d0: 55e9 8bbc f224 623c 9630 923c a338 643c

fc2.weight f4 [84, 120]
0.08135654 0.07458153 0.070604 0.03736416 0.07511946 0.03373116 0.031796023 -0.018782916
0.045145344 0.09209555 0.08201693 -0.020283785 -0.05235498 -0.059968166 -0.03327325 -0.02534134
-0.05603651 -0.08679505 -0.013975 0.006422259 -0.046673052 0.035357762 0.036121216 0.02365866
-0.07215431 -0.06743859 -0.0034605893 -0.066729985 0.034291156 0.05087093 0.023374982 -0.06670478
0.06114397 0.005699902 0.06632801 0.079184465 -0.07493785 -0.053026535 -0.0041099787 0.04846333
0.039007895 0.03192198 0.08195938 -0.03089352 0.09513263 0.07790754 0.020498965 0.040684137
-0.053869065 0.029782645 -0.070590876 -0.042919375 -0.04098774 -0.07189149 0.048039265 0.056874394
0.07156329 -0.04918583 -0.051518653 -0.05764896 0.009787288 0.067412995 0.02472167 0.024504086
0.051258303 0.070967466 -0.059942555 0.01090538 0.05048402 -0.056819115 -0.020009223 -0.059862345
0.07209553 0.07602217 0.0017325405 -0.035778802 0.026893407 0.06801726 0.0080003375 0.08646787
-0.08341777 -0.06564493 0.07262625 0.05842025 0.0732808 0.08778976 0.056533325 0.039989036
0.009499678 -0.084312186 -0.051583618 0.018109623 0.10059034 0.03634705 0.028443007 -0.068283476
-0.00020315935 0.07894129 -0.066560805 0.088165514 -0.06559055 -0.067986764 -0.06181247 -0.0037792288
0.013274032 -0.047264487 0.055307478 0.08920518 0.037449088 -0.008398401 -0.02600648 -9.521033e-05
-0.0490943 -0.059010353 0.054534364 -0.0070466325 0.0011804779 -0.02817465 -0.012078415 -0.012868299
-0.03838256 -0.0022636228 -0.044963546 0.03111298 -0.087222055 0.039203778 0.0429606 -0.045849096
0.07053413 0.08330975 0.016143931 0.06575656 -0.057214398 -0.018176297 -0.043440465 0.01779299
-0.033952083 0.099003926 -0.08210233 0.03963681 0.06802892 -0.019107068 0.03987159 0.038572513
-0.073246226 0.015350148 -0.05586106 -0.03622774 0.025714954 -0.041899044 -0.06731707 -0.0012025482
-0.07057139 -0.07421 -0.068496905 -0.043165185 0.08745313 0.05667122 -0.014216808 0.030529246
0.020897835 -0.090879135 0.05487789 -0.027451795 -0.059103265 0.012041035 -0.04390157 -0.09035751
0.0633637 0.025764445 -0.032276418 0.08054359 0.07795911 0.019886674 0.08122062 0.027231224
-0.08154785 0.06734421 -0.090077326 0.04478573 0.041919325 0.04476186 0.009515043 0.07754506
0.08563378 0.08866175 -0.056673437 0.04021926 0.0011507152 -0.0071844226 -0.017858092 -0.005841454
0.056286518 0.0020602406 -0.061741352 -0.0499671 0.07408989 0.023867289 0.046882696 -0.030728033
-0.08954935 -0.076893896 -0.014689911 -0.039211676 0.041279875 -0.014146237 0.05762312 0.032760743
-0.025066674 -0.07533657 -0.092095636 -0.025609732 -0.00041300955 0.07669917 -0.06257762 0.079830155
0.024725614 0.03876606 -0.04267031 0.033142313 -0.07354566 0.045759477 -0.013664535 0.03638137
-0.088375024 0.05210253 -0.013279527 -0.047768023 0.087582774 -0.040475544 0.016199717 0.03299817
-0.08561573 -0.05559964 0.07173627 0.081007876 0.070111714 0.015493671 -0.014844646 0.024344416
0.027755512 -0.0075128474 -0.014689223 0.07383789 -0.0024533498 0.007527172 0.027635042 -0.05402014
0.0794136 -0.077118725 -0.036070064 0.039033018 -0.06766211 0.039184105 0.03497712 -0.005092601
00000000: 429e a63d 34be 983d d498 903d 290b 193d
00000010: 3bd8 993d af29 0a3d 8c3c 023d a1de 99bc
00000020: 53ea 383d 979c bc3d 7ef8 a73d 2e2a a6bc
00000030: 2d72 56bd 2ea1 75bd 8849 08bd a498 cfbc
00000040: 8a86 65bd 9ac1 b1bd 66f7 64bc d071 d23b
00000050: 3e2c 3fbd 4dd3 103d d7f3 133d cecf c13c
00000060: a4c5 93bd 3e1d 8abd 0ecb 62bb bba9 88bd
00000070: e274 0c3d 095e 503d e47c bf3c 849c 88bd
00000080: 1972 7a3d 3ec6 ba3b fbd6 873d 772b a23d
00000090: 0479 99bd 5a32 59bd 00ad 86bb 7c81 463d
000000a0: bec6 1f3d 9fc0 023d 52da a73d 6814 fdbc
000000b0: e5d4 c23d fd8d 9f3d 72ed a73c 69a4 263d
000000c0: cfa5 5cbd bcfa f33c f391 90bd 3acc 2fbd
000000d0: c3e2 27bd d83b 93bd d2c4 443d 20f5 683d
000000e0: c68f 923d 1577 49bd 3905 53bd 5121 6cbd
000000f0: dc5a 203c d30f 8a3d 1a85 ca3c cbbc c83c
00000100: 3af4 513d 6457 913d 5386 75bd 7bac 323c
00000110: 55c8 4e3d 29bb 68bd 62ea a3bc 3832 75bd
00000120: d2a6 933d 83b1 9b3d 6a16 e33a cb8c 12bd
00000130: 904f dc3c a24c 8b3d d913 033c 1116 b13d
00000140: f0d6 aabd d970 86bd 12bd 943d 124a 6f3d
00000150: 3e14 963d 1ecb b33d 7d8f 673d 8bcb 233d
00000160: 8aa4 1b3c deab acbd 5849 53bd a25a 943c
00000170: 4f02 ce3d a5e0 143d 4f01 e93c 35d8 8bbd
00000180: 2c07 55b9 f9ab a13d 0851 88bd 1f90 b43d
00000190: 5754 86bd a53c 8bbd 132f 7dbd f0ac 77bb
000001a0: 537b 593c 6898 41bd 188a 623d 35b1 b63d
000001b0: 3764 193d 7299 09bc 8b0b d5bc a8ab c7b8
000001c0: 1b17 49bd d7b4 71bd 6d5f 5f3d 70e7 e6bb
000001d0: 44ba 9a3a 86ce e6bc 8be4 45bc 8fd5 52bc
000001e0: 0837 1dbd 4a59 14bb b22b 38bd a6e0 fe3c
000001f0: 7aa1 b2bd 2494 203d 74f7 2f3d 43cc 3bbd
00000200: 3374 903d 4d9e aa3d 4740 843c 60ab 863d
00000210: a559 6abd 75e6 94bc a1ee 31bd 9bc2 913c
00000220: 5711 0bbd 92c2 ca3d 4425 a8bd 355a 223d
00000230: bf52 8b3d 6d86 9cbc 6450 233d 36fe 1d3d
00000240: 1e02 96bd 307f 7b3c 91ce 64bd 8a63 14bd
00000250: 2ba8 d23c 559e 2bbd 88dd 89bd d29e 9dba
00000260: bc87 90bd 6afb 97bd 1b48 8cbd facd 30bd
00000270: a01a b33d 1520 683d 9ded 68bc 7818 fa3c
00000280: f031 ab3c d71e babd a3c7 603d 96e2 e0bc
00000290: 4416 72bd c347 453c 22d2 33bd 5c0d b9bd
000002a0: d4c4 813d f50f d33c 4734 04bd 0af4 a43d
000002b0: 07a9 9f3d 61e9 a23c ff56 a63d 0414 df3c
000002c0: 8f02 a7bd c3eb 893d 767a b8bd 3e71 373d
000002d0: 99b3 2b3d 3658 373d fce4 1b3c f2cf 9e3d
000002e0: c360 af3d 4b94 b53d 6822 68bd f3bc 243d
000002f0: 98d3 963a 4e6b ebbb 224b 92bc ab69 bfbb
00000300: b18c 663d 1a05 073b 80e4 7cbd 4daa 4cbd
00000310: 71bc 973d 5585 c33c 1208 403d 5bb9 fbbc
00000320: a665 b7bd 8c7a 9dbd f4ad 70bc 6c9c 20bd
00000330: 1615 293d 9ec5 67bc 3806 6c3d 2130 063d
00000340: a058 cdbc 0f4a 9abd a39c bcbd 80cb d1bc
00000350: 3489 d8b9 7414 9d3d b228 80bd fe7d a33d
00000360: 5f8d ca3c 29c9 1e3d 10c7 2ebd 3cc0 073d
00000370: 1b9f 96bd 4a6e 3b3d 37e1 5fbc a204 153d
00000380: f7fd b4bd 7669 553d 6092 59bc 67a8 43bd
00000390: 995e b33d afc9 25bd 45b5 843c 1729 073d
000003a0: 4d57 afbd 73bc 63bd 77ea 923d 75e7 a53d
000003b0: bb96 8f3d 2bd9 7d3c f536 73bc f16d c73c
000003c0: 875f e33c 552e f6bb 11ab 70bc 5238 973d
000003d0: 61c8 20bb 7fa6 f63b e262 e23c 3944 5dbd
000003e0: 99a3 a23d 6cf0 9dbd 34be 13bd 16e1 1f3d
000003f0: 6f92 8abd 837f 203d 2b44 0f3d d5df a6bb

fc2.bias f4 [84]
-0.06103623 0.04553984 0.011069326 0.01415902 -0.08268864 -0.028227413 0.080914855 0.024581134
-0.005202725 -0.044668145 -0.03491259 0.08626288 -0.00972616 0.015002038 -0.030038806 -0.035065923
0.05329725 0.013130568 0.056490198 0.02836812 0.016757742 0.082232825 0.08279963 0.045933373
0.01317924 0.038955856 0.037745405 -0.029555907 -0.0046181516 -0.04747828 0.04398036 -0.038956977
0.017241785 -0.011017965 -0.088008545 -0.059031308 0.07543469 -0.010030867 0.004612479 0.026866034
0.03578578 -0.024847284 0.04724886 0.061009243 0.08503274 0.020727003 0.07826233 -0.07259701
-0.08725281 0.041999195 -0.0472839 -0.06306727 0.06601152 0.018208448 -0.03232827 -0.072118714
-0.062283948 0.0052901586 -0.051555786 0.07285921 0.0873456 0.057875793 0.04672493 -0.09065894
-0.024328222 0.07311986 -0.053325344 -0.06373722 -0.008250613 0.035021707 0.08925803 0.005787114
0.02013282 0.025875974 -0.0056648417 0.016285725 0.064854294 -0.002914106 -0.005008992 -0.026787763
0.04196114 -0.056492228 -0.06752321 0.062052324
00000000: 2001 7abd fc87 3a3d 1e5c 353c 3cfb 673c
00000010: a958 a9bd 2d3d e7bc b0b6 a53d 605e c93c
00000020: 9f7b aabb f2f5 36bd 8100 0fbd 98aa b03d
00000030: 795a 1fbc 1ccb 753c f113 f6bc 49a1 0fbd
00000040: 384e 5a3d 9821 573c 4462 673d 4264 e83c
00000050: 8847 893c af69 a83d da92 a93d a224 3c3d
00000060: bded 573c 2d90 1f3d ed9a 1a3d 3b1f f2bc
00000070: dd53 97bb 9678 42bd c024 343d 5a91 1fbd
00000080: a53e 8d3c b284 34bc d33d b4bd d0ca 71bd
00000090: 817d 9a3d 8158 24bc 4724 973b 2816 dc3c
000000a0: 1c94 123d 888c cbbc 0588 413d d4e4 793d
000000b0: a525 ae3d adcb a93c 0048 a03d bead 94bd
000000c0: 9ab1 b2bd 5907 2c3d c3ac 41bd 6a29 81bd
000000d0: 0c31 873d e229 953c a66a 04bd fab2 93bd
000000e0: 741d 7fbd 1159 ad3b 292c 53bd 3637 953d
000000f0: 40e2 b23d 2b0f 6d3d a462 3f3d 65ab b9bd
00000100: fb4b c7bc ddbf 953d ad6b 5abd a988 82bd
00000110: 942d 07bc ec72 0f3d eacc b63d d5a1 bd3b
00000120: 95ed a43c daf9 d33c 23a0 b9bb a469 853c
00000130: 54d2 843d 96fa 3ebb 7822 a4bb 0372 dbbc
00000140: 72df 2b3d 6564 67bd 9c49 8abd 942a 7e3d

fc3.weight f4 [2, 84]
0.015718356 -0.017586155 0.023352109 -0.016941488 0.008924713 -0.039015606 -0.05348641 0.019295689
-0.110614456 0.10750676 0.07597485 0.0058145034 0.015927305 -0.08424979 -0.08292764 -0.07024198
-0.008052512 0.00075762445 -0.06199272 0.09733001 0.08313321 0.066755384 0.06042569 0.041489772
-0.004488366 -0.048039474 -0.035649553 -0.027347108 -0.008674355 -0.09601582 0.07043057 -1.2245906e-05
0.09375708 0.054774657 0.021354456 -0.02530411 0.028799314 0.021937074 -0.030662702 0.0825371
-0.09391026 0.105146915 -0.03767842 -0.07109101 -0.056309596 -0.06055981 -0.04842239 0.028695555
-0.07822113 -0.106344566 0.08767765 -0.002482929 -0.06171176 0.06971792 0.093752705 -0.05300764
0.08854477 0.031854182 -0.05313964 0.06814102 -0.11281018 -0.060439892 0.08021605 -0.0994334
0.083852015 0.04581306 0.076291524 0.0005930918 0.046135988 -0.01621697 0.0010867353 0.09172302
0.06531353 -0.063583516 0.040443048 0.07434921 0.09027232 0.06794535 -0.06036041 0.0791371
-0.06710384 0.08880758 0.015242104 0.03730203 -0.00456608 0.10726745 -0.048395697 0.115934156
-0.09374899 0.024140483 -0.034175485 0.01350748 0.037821367 0.011702793 0.070616335 -0.026683684
-0.012537901 0.0295733 0.04875689 -0.033706978 -0.0106407795 0.045656484 -0.020663382 -0.10085841
-0.06749094 0.01771753 -0.090433955 -0.050538287 -0.02234205 -0.035230495 -0.10751637 -0.041401133
0.09621714 -0.031304136 -0.08455095 -0.083592266 0.0725899 -0.020615397 -0.038274474 0.10332917
0.051684245 0.026175315 0.035111602 -0.013766166 0.06232675 -0.09708413 -0.047282968 -0.03098343
0.028807385 -0.0040167007 -0.021698616 -0.09469276 -0.023706768 -0.025807703 0.05360054 -0.021787614
0.0075260857 0.09942547 0.07581723 0.08890342 0.09572225 0.06568262 0.104423195 0.08895276
0.019298693 -0.05204975 0.028906379 -0.10361944 -0.0332472 -0.05658164 0.015341368 -0.096976325
-0.008536868 0.014834774 -0.02861129 0.041616555 0.08000371 -0.054853495 -0.005679311 0.02572778
0.006494573 0.07917772 -0.02943711 0.05309069 0.10522331 -0.085191116 0.009189893 -0.045469902
00000000: c8c3 803c d710 90bc ec4c bf3c e0c8 8abc
00000010: f638 123c d4ce 1fbd 9114 5bbd fe11 9e3c
00000020: d589 e2bd 812c dc3d b498 9b3d 9787 be3b
00000030: fb79 823c 278b acbd f7d5 a9bd 07db 8fbd
00000040: afee 03bc 519b 463a 14ec 7dbd f554 c73d
00000050: bf41 aa3d 0cb7 883d ee80 773d 2ef1 293d
00000060: 2513 93bb 0ac5 44bd 4405 12bd 0b07 e0bc
00000070: e21e 0ebc f1a3 c4bd e73d 903d c473 4db7
00000080: b603 c03d 645b 603d 8aef ae3c 914a cfbc
00000090: 8aec eb3c 61b5 b33c 5930 fbbc 3609 a93d
000000a0: 0654 c0bd 4457 d73d b054 1abd 2a98 91bd
000000b0: e4a4 66bd 900d 78bd 8e56 46bd f112 eb3c
000000c0: 6632 a0bd 2ecb d9bd 5790 b33d a3b8 22bb
000000d0: 78c5 7cbd 45c8 8e3d 6b01 c03d 8a1e 59bd
000000e0: f656 b53d 8879 023d f3a8 59bd 858d 8b3d
000000f0: 0609 e7bd d28f 77bd 5048 a43d bda3 cbbd
00000100: 9bba ab3d 7aa6 3b3d bb3e 9c3d b879 1b3a
00000110: 17f9 3c3d 73d9 84bc c970 8e3a 47d9 bb3d
00000120: 1ac3 853d 1338 82bd 9ca7 253d 6644 983d
00000130: b2e0 b83d ef26 8b3d 7a3c 77bd a212 a23d
00000140: bd6d 89bd c0e0 b53d 05ba 793c 03ca 183d
00000150: 0e9f 95bb 09af db3d 913a 46bd e36e ed3d
00000160: 78ff bfbd 43c2 c53c 98fb 0bbd 7a4e 5d3c
00000170: 94ea 1a3d 12bd 3f3c 4c9f 903d be97 dabc
00000180: c56b 4dbc b543 f23c 4eb5 473d 5410 0abd
00000190: aa56 2ebc 4b02 3b3d 4146 a9bc db8e cebd
000001a0: b138 8abd 5a24 913c 7035 b9bd 3c01 4fbd
000001b0: ad06 b7bc da4d 10bd 8b31 dcbd 3c94 29bd
000001c0: 7e0d c53d c438 00bd 0c29 adbd 6c32 abbd
000001d0: 03aa 943d 9fe1 a8bc b2c5 1cbd 3e9e d33d
000001e0: dcb2 533d 9d6d d63c 2fd1 0f3d 7c8b 61bc
000001f0: 564a 7f3d 0bd4 c6bd c9ab 41bd f6d0 fdbc
00000200: 77fd eb3c 879e 83bb 4cc1 b1bc 47ee c1bd
00000210: b234 c2bc ad6a d3bc 3d8c 5b3d f07b b2bc
00000220: 629d f63b 959f cb3d 1046 9b3d ff12 b63d
00000230: 070a c43d 9c84 863d d4db d53d dd2c b63d
00000240: 4b18 9e3c 1e32 55bd 12cd ec3c 6e36 d4bd
00000250: 372e 08bd 26c2 67bd 5c5a 7b3c 869b c6bd
00000260: 38de 0bbc 8d0d 733c 3962 eabc 1f76 2a3d
00000270: fcd8 a33d 0fae 60bd 8419 babb 11c3 d23c
00000280: 6dd0 d43b ee27 a23d 1826 f1bc a075 593d
00000290: 527f d73d ae78 aebd 3491 163c a63e 3abd

fc3.bias f4 [2]
-0.09246865 -0.07527915
00000000: 3460 bdbd f42b 9abd

batchnorm1.weight f4 [6]
0.99912524 1.0011511 1.0020458 0.9952488 1.0022374 0.9968616
00000000: acc6 7f3f b825 803f 0943 803f a0c8 7e3f
00000010: 5149 803f 5232 7f3f

batchnorm1.bias f4 [6]
0.009244872 0.005058313 0.0015148551 -0.016647696 0.0043983506 0.002175081
00000000: ce77 173c 34c0 a53b 1a8e c63a c060 88bc
00000010: 0a20 903b ce8b 0e3b

batchnorm1.running_mean f4 [6]
0.76355356 -0.30756184 0.69301486 -0.094752185 -0.052588932 0.23910014
00000000: 3f78 433f bf78 9dbe 6c69 313f 6f0d c2bd
00000010: 7e67 57bd abd6 743e

batchnorm1.running_var f4 [6]
0.10167612 0.07508843 0.08255008 0.06939116 0.084155075 0.05023897
00000000: 923b d03d f6c7 993d 0410 a93d f41c 8e3d
00000010: 7f59 ac3d 61c7 4d3d

batchnorm2.weight f4 [16]
1.00478 1.0027034 1.0048264 0.98140883 0.99136233 1.0021254 0.9984348 1.0053943
0.9943474 0.9978114 1.0123494 1.0102482 0.99467975 0.9964556 1.0121801 0.99884635
00000000: a29c 803f 9658 803f 279e 803f 9c3d 7b3f
00000010: ecc9 7d3f a545 803f 6c99 7f3f c3b0 803f
00000020: 8d8d 7e3f 9170 7f3f aa94 813f d04f 813f
00000030: 55a3 7e3f b717 7f3f 1e8f 813f 65b4 7f3f

batchnorm2.bias f4 [16]
0.0008047879 0.00844212 -0.0029128299 -0.0099357115 -0.0035459371 0.0032422938 -0.004008336 -0.008816454
0.0024424137 0.0065620295 0.009187226 0.017827343 0.0043541463 -0.0064479555 0.014687343 -0.0123753585
00000000: 67f8 523a d150 0a3c 2de5 3ebb 65c9 22bc
00000010: f462 68bb aa7c 543b 5c58 83bb e372 10bc
00000020: e710 203b 4b06 d73b 0586 163c a60a 923c
00000030: 3aad 8e3b 5f49 d3bb 2ea3 703c 04c2 4abc

batchnorm2.running_mean f4 [16]
0.5165865 -0.4338831 -0.17058349 0.40158394 -0.647851 0.6578246 0.70521253 -0.8599249
-0.9692376 0.88680744 0.18158013 -0.43841603 0.11585163 0.473542 0.10228281 0.7648642
00000000: 033f 043f ed25 debe 70ad 2ebe 699c cd3e
00000010: 90d9 25bf 3167 283f cf88 343f 0a24 5cbf
00000020: f51f 78bf d005 633f 24f0 393e 1178 e0be
00000030: 9f43 ed3d 1974 f23e a679 d13d 24ce 433f

batchnorm2.running_var f4 [16]
0.19388126 0.1576906 0.19036146 0.17600816 0.18085857 0.15668458 0.2275747 0.20084213
0.15975502 0.16210036 0.16120887 0.16345519 0.167848 0.18206431 0.14723068 0.15494372
00000000: cf88 463e a579 213e 1dee 423e 7c3b 343e
00000010: fd32 393e ec71 203e 5809 693e 8fa9 4d3e
00000020: d296 233e a3fd 253e f013 253e cc60 273e
00000030: 59e0 2b3e 116f 3a3e a4c3 163e 91a9 1e3e

batchnorm3.weight f4 [120]
0.9895276 1.0092753 1.008045 1.0035516 0.9954018 0.9884413 1.01381 0.99203867
0.9966411 0.9983033 0.98539144 1.0002309 1.0102532 1.0138546 0.99391073 1.0066087
1.0058646 0.9988479 1.0009149 0.99882054 1.0060601 1.0009236 0.98341036 0.99998015
0.9905823 0.9982868 1.0077012 1.0003902 0.99037665 1.0196757 1.0047687 0.9864048
1.0004672 1.0006477 1.0140955 0.9971678 0.99900275 1.008237 0.998902 0.99501806
1.008633 1.0157294 1.0146555 1.006085 0.99428546 0.9995156 1.0029594 0.99191844
0.99409866 0.98727983 1.0054429 0.99071264 0.9941383 1.0039092 0.9953243 1.0000428
1.0171784 1.0057257 0.99967927 1.0062666 0.9860403 0.9876356 0.99629587 1.0037025
0.99903935 1.0121683 1.0063851 0.9886543 1.0100664 0.98984164 0.9874467 0.9910516
1.0061086 1.0042454 0.9916598 0.9895024 0.99325013 0.9946567 0.98589826 0.9979795
1.0091794 0.9987967 1.0059156 1.0081859 0.9947715 0.9886308 1.0027146 0.9923962
0.99307865 0.9999904 0.99448216 1.0047237 0.9854345 0.9875996 1.0037612 1.0068997
0.99873686 0.9976989 0.99680895 0.9915859 0.9882915 1.0165242 0.9918779 1.0036412
1.0089009 1.0032122 1.0046333 1.0002729 1.0223142 1.0064465 0.9803991 0.9994981
0.9861456 1.0080699 0.99464273 0.99152404 1.0031676 1.0127217 0.9845789 0.9959261
00000000: ae51 7d3f ef2f 813f 9e07 813f 6174 803f
00000010: a7d2 7e3f 7d0a 7d3f 87c4 813f 3ff6 7d3f
00000020: df23 7f3f ce90 7f3f 9d42 7c3f 9107 803f
00000030: fa4f 813f fdc5 813f ef70 7e3f 8ed8 803f
00000040: 2cc0 803f 7fb4 7f3f fb1d 803f b4b2 7f3f
00000050: 94c6 803f 441e 803f c8c0 7b3f b3fe 7f3f
00000060: cd96 7d3f b98f 7f3f 5afc 803f c90c 803f
00000070: 5389 7d3f bc84 823f 439c 803f 0685 7c3f
00000080: 4f0f 803f 3915 803f e2cd 813f 6446 7f3f
00000090: a5be 7f3f e90d 813f 0bb8 7f3f 81b9 7e3f
000000a0: e31a 813f 6c03 823f 3be0 813f 65c7 803f
000000b0: 7e89 7e3f 41e0 7f3f f960 803f 5eee 7d3f
000000c0: 407d 7e3f 5fbe 7c3f 5ab2 803f 589f 7d3f
000000d0: d97f 7e3f 1980 803f 93cd 7e3f 6701 803f
000000e0: e732 823f 9fbb 803f fbea 7f3f 58cd 803f
000000f0: 236d 7c3f b0d5 7c3f 3f0d 7f3f 5379 803f
00000100: 0bc1 7f3f bb8e 813f 3ad1 803f 7318 7d3f
00000110: db49 813f 4366 7d3f 4fc9 7c3f 8fb5 7d3f
00000120: 2bc8 803f 1d8b 803f 6bdd 7d3f 0750 7d3f
00000130: a445 7e3f d2a1 7e3f d463 7c3f 967b 7f3f
00000140: ca2c 813f 24b1 7f3f d8c1 803f 3c0c 813f
00000150: 58a9 7e3f e816 7d3f f458 803f ad0d 7e3f
00000160: 673a 7e3f 5fff 7f3f 6296 7e3f c99a 803f
00000170: 6f45 7c3f 54d3 7c3f 3f7b 803f 17e2 803f
00000180: 38ad 7f3f 3269 7f3f df2e 7f3f 93d8 7d3f
00000190: ac00 7d3f 771d 823f b6eb 7d3f 5177 803f
000001a0: aa23 813f 4269 803f d397 803f f108 803f
000001b0: 31db 823f 3dd3 803f 6ffb 7a3f 1cdf 7f3f
000001c0: 0a74 7c3f 6f08 813f e8a0 7e3f 85d4 7d3f
000001d0: cc67 803f dda0 813f 5d0d 7c3f 03f5 7e3f

batchnorm3.bias f4 [120]
-0.0059738634 0.006719513 0.011847931 0.0040443125 0.0003266969 -0.002266126 0.013479221 -0.0015812814
-0.0029731905 -0.0020661314 -0.006564652 -0.008074825 0.016921172 0.01583322 -0.0051188907 0.0023268803
0.0034924021 -0.0016085496 0.0011195972 -0.0032840823 -0.00621559 0.0068036327 -0.017719274 0.0037045323
-0.008455517 0.0031095208 0.0116900485 0.01389663 -0.0048204795 0.013645819 0.001971111 -0.019733738
-0.008242976 0.0017764693 0.014200665 0.00029889258 -0.0051858556 0.011012325 0.0018554544 0.0008521654
0.0032098643 0.009795395 0.015940078 -0.006141789 -0.00021573994 0.00238147 0.004102868 -0.010911099
-0.0039916285 -0.0051006395 0.008500565 -0.001480605 -0.0056498777 0.00060415245 -0.0026663383 0.009542098
0.0069920532 0.008783664 -0.0030553837 0.0034154535 -0.0117424 0.001638917 -0.0064257947 -0.0010918338
0.001985795 0.013622737 0.0024576052 0.00078343047 0.013376533 -0.0052240393 -0.009269338 -0.006478353
0.00492241 0.010596958 -0.0035507337 -0.010891137 -0.0033954333 0.0061163944 -0.014807292 0.006775976
0.023096181 0.0035392977 0.0013915267 0.012743523 -0.0041633323 -0.0036333117 0.0014159275 -0.008031078
-0.0023441175 -0.006081502 -0.0032628647 0.003998388 -0.0054358565 -0.010463797 0.002501474 0.008521704
-0.002079593 0.005738075 -0.0056014736 -0.0103869885 -0.0048843645 0.010469635 -0.01324388 0.0056387135
0.0023975603 0.0041582393 0.0042300452 -0.0018976626 0.015928369 0.00360259 -0.014034412 -0.009428107
-0.0077616884 0.013269755 -0.0057865283 -0.00014857194 0.004974257 0.0035805285 -0.0114968745 0.016941443
00000000: 66c0 c3bb 5c2f dc3b d31d 423c 2786 843b
00000010: 8448 ab39 4983 14bb f3d7 5c3c 0043 cfba
00000020: dcd9 42bb ef67 07bb 4b1c d7bb 454c 04bc
00000030: 459e 8a3c abb4 813c 5ebc a7bb 937e 183b
00000040: c9e0 643b f8d5 d2ba 73bf 923a c239 57bb
00000050: 26ac cbbb 02f1 de3b 0328 91bc bdc7 723b
00000060: 0289 0abc 1ac9 4b3b 9e87 3f3c b1ae 633c
00000070: 1df5 9dbb b792 5f3c c12d 013b a6a8 a1bc
00000080: 8c0d 07bc 6bd8 e83a e8a9 683c afb4 9c39
00000090: 1cee a9bb 0a6d 343c b832 f33a da63 5f3a
000000a0: 965c 523b dd7c 203c c494 823c 0f41 c9bb
000000b0: 4038 62b9 7012 1c3b 5a71 863b 77c4 32bc
000000c0: 35cc 82bb 4423 a7bb f445 0b3c dc10 c2ba
000000d0: 9c22 b9bb fc5f 1e3a bcbd 2ebb 7656 1c3c
000000e0: 981d e53b 5be9 0f3c d53c 48bb cdd5 5f3b
000000f0: 3263 40bc eed0 d63a 798f d2bb dd1b 8fba
00000100: 1d24 023b e631 5f3c c60f 213b 215f 4d3a
00000110: 3f29 5b3c 6b2e abbb 6cde 17bc 5d48 d4bb
00000120: 2b4c a13b dd9e 2d3c 6db3 68bb bd70 32bc
00000130: eb85 5ebb 096c c83b 499a 72bc 0209 de3b
00000140: 3434 bd3c 90f3 673b e363 b63a 36ca 503c
00000150: 906c 88bb db1c 6ebb a596 b93a c894 03bc
00000160: c49f 19bb 5647 c7bb c9d5 55bb e904 833b
00000170: 451f b2bb 5870 2bbc c5ef 233b 9e9e 0b3c
00000180: c849 08bb 7606 bc3b 918c b7bb 302e 2abc
00000190: 050d a0bb d588 2b3c dcfc 58bc f5c4 b83b
000001a0: 6320 1d3b d741 883b 319c 8a3b feba f8ba
000001b0: 367c 823c 6e19 6c3b 97f0 65bc 5978 1abc
000001c0: c355 febb 6369 593c eb9c bdbb fac9 1bb9
000001d0: 18ff a23b 4da7 6a3b 635d 3cbc c8c8 8a3c

batchnorm3.running_mean f4 [120]
0.11499449 1.1305937 1.3454763 1.3715912 -0.8378754 -1.357505 2.1814933 -0.99991703
1.2754617 1.2373669 -1.602681 1.0904262 -1.4610169 -0.21595512 0.84357077 1.2561009
-0.9168995 -0.18310077 -1.5650795 1.0024662 0.9427917 0.3003901 -2.276831 0.6814368
0.31406906 1.591822 -1.9511843 1.9900362 0.40958259 0.34958282 1.2097574 0.5307769
-0.47775826 1.73144 0.35861483 -1.5478251 1.5554191 -0.1653353 -1.5918294 0.7628024
0.6394139 0.3781396 -0.23065993 -0.27349487 -1.7511269 -0.10170381 -0.8616502 -2.5274558
-0.46883938 0.8705362 -0.6400252 -1.3095518 1.2868487 -0.74058247 -0.85444254 -2.6540346
-2.5517416 -0.5728598 0.21583453 -2.280275 -0.7350956 1.370539 0.9811312 0.6224885
-1.3615872 0.30042645 -0.7310925 -0.83217126 -0.42696738 -0.3545248 2.4535763 -0.110158905
-1.6802108 -0.0034015635 0.05631322 -0.8710403 1.5186745 -0.32636392 1.2710762 1.2413565
0.7573158 -0.7831275 -0.64369494 -2.3510675 -1.4899274 0.71731293 0.18609348 0.2844115
-1.9915994 1.1417248 0.3367824 -1.6632758 0.57614714 0.48246273 -1.4188809 -0.3385372
-2.3533993 0.35382152 -0.2956861 0.75056 0.2519451 -1.6982402 1.5131522 0.22187209
-1.4095101 -1.7725905 0.040284745 0.5062552 -2.4473412 0.93753904 0.5591762 1.8310845
0.56387633 1.2717642 1.2911308 1.4558094 1.1184975 -2.055819 -0.2310299 -0.8325494
00000000: 3b82 eb3d 4bb7 903f 9138 ac3f 4d90 af3f
00000010: 017f 56bf b9c2 adbf 969d 0b40 90fa 7fbf
00000020: 5442 a33f 0a62 9e3f a724 cdbf 1693 8b3f
00000030: 9a02 bbbf 5723 5dbe 41f4 573f eac7 a03f
00000040: edb9 6abf c57e 3bbe 8654 c8bf d050 803f
00000050: cc5a 713f bbcc 993e 99b7 11c0 a472 2e3f
00000060: a9cd a03e d3c0 cb3f 68c0 f9bf 82b9 fe3f
00000070: cfb4 d13e 85fc b23e 55d9 9a3f ffe0 073f
00000080: bb9c f4be d39f dd3f 5d9c b73e 221f c6bf
00000090: f917 c73f a84d 29be 11c1 cbbf 0547 433f
000000a0: a1b0 233f 839b c13e 1e32 6cbe 8507 8cbe
000000b0: ed24 e0bf 164a d0bd 1c95 5cbf d6c1 21c0
000000c0: b70b f0be 76db 5e3f b1d8 23bf 659f a7bf
000000d0: 75b7 a43f d096 3dbf bfbc 5abf b4db 29c0
000000e0: bc4f 23c0 f1a6 12bf ba03 5d3e 07f0 11c0
000000f0: 3a2f 3cbf d26d af3f 6a2b 7b3f 685b 1f3f
00000100: 7d48 aebf 7fd1 993e e128 3bbf 2d09 55bf
00000110: 789b dabe 4684 b5be 6507 1d40 fe9a e1bd
00000120: 2611 d7bf c4ec 5ebb b1a8 663d 7ffc 5ebf
00000130: ed63 c23f 2c19 a7be a0b2 a23f c5e4 9e3f
00000140: 73df 413f 0b7b 48bf 31c9 24bf e477 16c0
00000150: f1b5 bebf d2a1 373f 4a8f 3e3e 629e 913e
00000160: bbec febf 0a24 923f be6e ac3e 39e6 d4bf
00000170: 617e 133f 5b05 f73e e49d b5bf bf54 adbe
00000180: 189e 16c0 1828 b53e 2b64 97be b324 403f
00000190: f3fe 803e ef5f d9bf f9ae c13f 7032 633e
000001a0: d46a b4bf 3fe4 e2bf 9e01 253d f199 013f
000001b0: 3da1 1cc0 8f02 703f 2c26 0f3f fa60 ea3f
000001c0: 335a 103f 2bc9 a23f c643 a53f f657 ba3f
000001d0: ed2a 8f3f 8a92 03c0 1a93 6cbe f521 55bf

batchnorm3.running_var f4 [120]
0.50651914 0.57319653 0.39136276 0.26632175 0.31818917 0.544835 0.5286907 0.26887578
0.2829349 0.29447058 0.31376997 0.395354 0.29507485 0.55968165 0.45047805 0.6415902
0.64081794 0.28152904 0.5252305 0.2671698 0.2704217 0.25428906 0.30605972 0.3363791
0.4147103 0.2580439 0.3935473 0.2986622 0.35037437 0.29635897 0.40494248 0.3053974
0.29939044 0.4983516 0.45851433 0.32522509 0.37497634 0.22454667 0.25281316 0.47544718
0.46034825 0.54226166 0.32975236 0.48147905 0.39389974 0.23566608 0.68575263 0.33192098
0.6828488 0.23606087 0.23416288 0.5265668 0.42194667 0.3546599 0.45719326 0.42464057
0.3584941 0.29647368 0.3621527 0.524653 0.22568357 0.30611926 0.23482089 0.27862388
0.32500836 0.46208352 0.34072322 0.300453 0.40659937 0.33576578 0.48242503 0.21234831
0.9737758 0.6191884 0.3590386 0.33466163 0.25235686 0.27964678 0.25804958 0.5002512
0.6091944 0.31422946 0.49395835 0.7134001 0.2705797 0.2457475 0.37639672 0.26834854
0.25294724 0.26768386 0.31739172 0.37505996 0.2857823 0.31892273 0.59968346 0.36502132
0.276988 0.26591358 0.2693307 0.2630047 0.2467395 0.36343277 0.34848374 0.51670605
0.34783763 0.38627544 0.34119967 0.4244367 0.31518883 0.40518087 0.55670136 0.4421101
0.21380542 0.5297967 0.2894202 0.33998844 0.21367559 0.5750514 0.4177543 0.27340817
00000000: 3dab 013f 02bd 123f b360 c83e 535b 883e
00000010: b1e9 a23e 4e7a 0b3f 4658 073f 16aa 893e
00000020: d8dc 903e d9c4 963e 75a6 a03e d76b ca3e
00000030: 0d14 973e 4c47 0f3f 0fa5 e63e 413f 243f
00000040: a50c 243f 9324 903e 8275 063f 7bca 883e
00000050: b774 8a3e 2d32 823e dcb3 9c3e e239 ac3e
00000060: e954 d43e 541e 843e 087f c93e 40ea 983e
00000070: 4564 b33e 5dbc 973e 9f54 cf3e 0c5d 9c3e
00000080: b449 993e f127 ff3e 64c2 ea3e e783 a63e
00000090: e6fc bf3e 90ef 653e ba70 813e d06d f33e
000000a0: c4b2 eb3e a9d1 0a3f 4dd5 a83e 6c84 f63e
000000b0: 3aad c93e 7352 713e 7c8d 2f3f 8cf1 a93e
000000c0: 2ecf 2e3f f1b9 713e 65c8 6f3e 15cd 063f
000000d0: 6509 d83e fb95 b53e 3c15 ea3e 7d6a d93e
000000e0: 8a8c b73e 66cb 973e 146c b93e a94f 063f
000000f0: 9819 673e aabb 9c3e e374 703e caa7 8e3e
00000100: 7f67 a63e 3696 ec3e 4673 ae3e fad4 993e
00000110: cb2d d03e 7ee9 ab3e 6a00 f73e d671 593e
00000120: 5f49 793f 2283 1e3f e8d3 b73e c558 ab3e
00000130: eb34 813e dd2d 8f3e 131f 843e 7610 003f
00000140: 2af4 1b3f afe2 a03e 1ce8 fc3e 64a1 363f
00000150: 6c89 8a3e 3ca5 7b3e 12b7 c03e fb64 893e
00000160: 4d82 813e dc0d 893e 2b81 a23e dc07 c03e
00000170: 0f52 923e d749 a33e db84 193f 13e4 ba3e
00000180: 5fd1 8d3e d325 883e b7e5 893e 8da8 863e
00000190: 48a9 7c3e dc13 ba3e 766c b23e d946 043f
000001a0: c617 b23e e5c5 c53e b9b1 ae3e c44f d93e
000001b0: 6e60 a13e de73 cf3e fb83 0e3f 415c e23e
000001c0: cfef 5a3e c2a0 073f e22e 943e f712 ae3e
000001d0: c6cd 5a3e 9236 133f e4e3 d53e 28fc 8b3e

batchnorm4.weight f4 [84]
0.9987365 1.0063618 0.994112 1.016869 0.9903018 1.0059783 0.9981968 0.98453397
1.0033728 1.0014769 0.99020654 0.99801385 0.99722296 0.9912547 1.0126755 1.0072627
0.98789203 1.0071616 1.004441 1.0036731 0.98685545 0.9946886 0.99728024 0.99552584
0.9919782 1.0024428 0.9985263 0.99172777 1.0005556 1.009809 0.9906757 0.9886977
1.0004056 0.9875562 0.99244934 0.9986136 0.9908582 0.9893897 0.99812734 0.9938282
1.0005383 0.9979075 0.99150014 1.0150268 1.0137124 0.998197 1.0064344 0.98826224
1.0003176 1.0057726 0.99329406 0.9882572 1.0045836 0.99697065 0.99003226 1.0010787
0.9908591 0.996259 1.008746 0.9938168 1.0062288 0.9976784 0.9958043 0.9915113
1.0005033 0.99107504 0.9997957 0.99162644 1.0022683 1.0006415 0.9879993 0.99403644
0.9952477 0.995285 0.99193317 0.99358654 0.989168 0.99016064 1.001785 0.9913391
1.008452 0.99242914 0.9898375 0.9974245
00000000: 32ad 7f3f 77d0 803f 207e 7e3f c328 823f
00000010: 6b84 7d3f e6c3 803f d389 7f3f 6b0a 7c3f
00000020: 856e 803f 6530 803f 2d7e 7d3f d67d 7f3f
00000030: 014a 7f3f dec2 7d3f 5a9f 813f fced 803f
00000040: 7ee6 7c3f acea 803f 8691 803f 5c78 803f
00000050: 8fa2 7c3f e9a3 7e3f c24d 7f3f c8da 7e3f
00000060: 49f2 7d3f 0c50 803f 6b9f 7f3f dfe1 7d3f
00000070: 3512 803f 6c41 813f ec9c 7d3f 4b1b 7d3f
00000080: 4a0d 803f 7cd0 7c3f 2911 7e3f 24a5 7f3f
00000090: e2a8 7d3f a548 7d3f 4685 7f3f 866b 7e3f
000000a0: a411 803f de76 7f3f f4d2 7d3f 66ec 813f
000000b0: 54c1 813f d789 7f3f d8d2 803f c1fe 7c3f
000000c0: 680a 803f 28bd 803f 8548 7e3f 6dfe 7c3f
000000d0: 3296 803f 7839 7f3f c172 7d3f 5923 803f
000000e0: f1a8 7d3f d40a 7f3f 971e 813f c76a 7e3f
000000f0: 1bcc 803f da67 7f3f 08ed 7e3f afd3 7d3f
00000100: 7e10 803f 18b7 7d3f 9cf2 7f3f 3bdb 7d3f
00000110: 544a 803f 0515 803f 86ed 7c3f 2c79 7e3f
00000120: 8ec8 7e3f ffca 7e3f 55ef 7d3f b05b 7e3f
00000130: 1d3a 7d3f 2b7b 7d3f 7e3a 803f 66c8 7d3f
00000140: f514 813f d60f 7e3f fe65 7d3f 3657 7f3f

batchnorm4.bias f4 [84]
-0.004580851 0.004202266 -0.0069542183 0.011100628 -0.009591455 0.00984214 0.005301887 -0.01648562
0.0055076294 0.003900639 -0.0062960284 0.0002844182 -0.005894074 -0.0074070543 0.016221428 0.010104949
-0.009981867 0.010721091 0.007542745 0.0046437294 -0.009369954 -0.008367251 -0.0012740532 -0.0037150995
-0.008057441 0.003772872 0.0012404711 -0.011759735 6.106392e-05 0.012434048 -0.009222499 -0.010558732
-0.0050168536 -0.011122577 -0.012513296 0.0054759677 0.001480981 -0.0040807924 -0.0014854337 -0.0065390184
0.011294615 -0.0027020983 -0.0029261766 0.014988375 0.008593058 0.0068778787 0.00917003 -0.010112987
0.0063411575 0.009889055 -0.010574989 -0.009275055 0.0018790367 -0.0005721847 -0.009771958 -0.001608304
-0.0037965896 -0.0008125629 0.008810248 0.0044216104 0.003410783 0.005521602 -0.0056562903 -0.009839576
0.0032398058 -0.0027013964 -0.0052973297 -0.009214379 -0.0011897571 0.0081805 -0.0107010575 -0.0026789615
-0.00093814015 -0.0019517714 -0.004179794 -0.0040357206 -0.010304639 -0.000706299 0.006679577 -0.010301797
0.010058545 -0.010724085 -0.011824224 -0.0040704105
00000000: f71a 96bb 2ab3 893b 36e0 e3bb 69df 353c
00000010: 7a25 1dbc ed40 213c 74bb ad3b da0c 87bc
00000020: 5879 b43b dda1 7f3b ea4e cebb f71d 9539
00000030: 1423 c1bb e0b6 f2bb cde2 843c 3a8f 253c
00000040: fc8a 23bc 84a7 2f3c 2229 f73b 6d2a 983b
00000050: 6f84 19bc cb16 09bc 22fe a6ba 0779 73bb
00000060: 5b03 04bc 4a42 773b 4e97 a23a e7ab 40bc
00000070: 710f 8038 2db8 4b3c f719 17bc 88fe 2cbc
00000080: 6b64 a4bb 783b 36bc 9104 4dbc bf6f b33b
00000090: 7a1d c23a 2bb8 85bb e2b2 c2ba 4345 d6bb
000000a0: 0d0d 393c b015 31bb 19c5 3fbb cd91 753c
000000b0: e6c9 0c3c d45f e13b e53d 163c f1b0 25bc
000000c0: 7cc9 cf3b b405 223c b842 2dbc 66f6 17bc
000000d0: 024a f63a aafe 15ba 901a 20bc bacd d2ba
000000e0: 34d0 78bb 2c02 55ba dc58 103c 28e3 903b
000000f0: 7187 5f3b 8eee b43b 6758 b9bb 2c36 21bc
00000100: ec52 543b e909 31bb 3995 adbb e8f7 16bc
00000110: a0f1 9bba 8107 063c 7d53 2fbc 8491 2fbb
00000120: 85ed 75ba 95d2 ffba a7f6 88bb 143e 84bb
00000130: cad4 28bc ec26 39ba 5ae0 da3b dec8 28bc
00000140: 98cc 243c 13b4 2fbc 64ba 41bc 1461 85bb
