명노아/model.pth (torch, 677468 bytes, 10 tensors)

conv1.weight f4 [6, 1, 5, 5]
0	0x3db94bd3	0.090476654
1	0x3e2c8c56	0.16850409
2	0xbd1d5632	-0.03841228
3	0x3e1689b5	0.14700969
4	0xbd13e8f6	-0.03611084
5	0x3e1619f8	0.14658344
6	0xbe46e31f	-0.19422577
7	0xbe342410	-0.17591882
8	0xbe3070d8	-0.17230546
9	0x3d8d9b5f	0.069144
10	0xbe4e7bfe	-0.20164487
11	0x3d8e9a8a	0.0696307
12	0xbd79eca7	-0.061016705
13	0xbe0bb9a8	-0.13645041
14	0xbe6eac9d	-0.23308034
15	0x3b3c611e	0.002874441
16	0x3db50bfd	0.08840177
17	0x3d763a5f	0.06011426
18	0x3db4f39e	0.08835529
19	0xbd89b27d	-0.06723497
20	0x3c3beefc	0.0114705525
21	0x3db35e2a	0.08758195
22	0xbdc3e523	-0.09565189
23	0x3d5d15b2	0.05397577
24	0xbe09477a	-0.13406172
25	0x3d75cf51	0.060012165
26	0xbd78d150	-0.06074649
27	0x3dc88ff8	0.09793085
28	0xbdd324c5	-0.103097476
29	0xbe5a4afc	-0.21317667
30	0xbe109f12	-0.1412318
31	0x3e1ad391	0.15119769
32	0x3d73fa78	0.059565037
33	0xbd724f63	-0.05915774
34	0xbe53d4f4	-0.20686704
35	0xbe025c2a	-0.1273047
36	0x3cc96c3e	0.024587747
37	0x3dc6e614	0.09711853
38	0x3d6af77a	0.05736492
39	0xbe0510fa	-0.12994757
40	0xbca9e0fd	-0.020737166
41	0x3d97769b	0.07395669
42	0xbca43ad4	-0.020047583
43	0x3dac7def	0.084224574
44	0xbe7455a2	-0.23860791
45	0xbb83dcd4	-0.0040241275
46	0xbe46310d	-0.19354649
47	0x3da24a61	0.07924343
48	0x3e02f65f	0.12789296
49	0x3c42e2b9	0.011894875
50	0xbe00ec63	-0.12590174
51	0x3dc52669	0.09626467
52	0x3d509efd	0.050932873
53	0x3dc36b1f	0.09541916
54	0xbd8d1497	-0.06888693
55	0xbd2e8e82	-0.042616375
56	0xbde8ee40	-0.113735676
57	0x3cd26466	0.02568264
58	0x3e0b071e	0.13576934
59	0xbe2a31b7	-0.16620527
60	0x3dd5e6e4	0.104444295
61	0x3e03fc55	0.12889226
62	0xbd079872	-0.033104368
63	0x3dcf1b2a	0.10112603
64	0x3cc629f7	0.024189932
65	0xbd1c689a	-0.038185693
66	0xbd51c66c	-0.05121462
67	0x3e464851	0.19363524
68	0x3db49710	0.088178754
69	0x3e1c2ca3	0.15251403
70	0xbdcea64f	-0.100903146
71	0xbe33c9c6	-0.17557439
72	0x3c4d5dc7	0.012534565
73	0xbc4d9077	-0.01254665
74	0x3e285ddc	0.16442055
75	0x3e35226d	0.17688914
76	0x3e1f1837	0.15536581
77	0x3da313d1	0.07962764
78	0xbddb02ff	-0.10693931
79	0x3e0a87ed	0.13528414
80	0xbdcfdd71	-0.101496585
81	0xbdabdeb4	-0.083920866
82	0xbd882e87	-0.066494994
83	0x3e3ed089	0.18634237
84	0xbce487ef	-0.02789685
85	0x3d0bb477	0.03410765
86	0xbda53970	-0.08067596
87	0xbd977245	-0.07394842
88	0x3e493747	0.19649993
89	0x3df7155c	0.12064621
90	0xbdc5d8fa	-0.096605256
91	0x3d4866d6	0.048926197
92	0xbe041f2b	-0.12902515
93	0xbe058d18	-0.13042104
94	0xbde92acd	-0.11385117
95	0xbc9be675	-0.019030789
96	0xbe29b655	-0.1657346
97	0xbbdc16db	-0.006716592
98	0xbe3555a2	-0.17708448
99	0xbe43a2e7	-0.19105111
100	0x3e06b7d8	0.13156068
101	0xbe588c79	-0.21147336
102	0x3de7c373	0.11316576
103	0x3e25fe6c	0.16210335
104	0xbe011695	-0.1260627
105	0x3d3f8bbf	0.04676413
106	0xbe608a9e	-0.21927878
107	0xbd18696a	-0.037209906
108	0x3e2e5483	0.17024426
109	0xbd8ccff1	-0.06875599
110	0x3dfc97ec	0.12333664
111	0x3dcb61d2	0.09930767
112	0x3e09dddf	0.13463543
113	0xbe185b5c	-0.14878601
114	0xbd7000cd	-0.058594514
115	0xbd7138d5	-0.05889209
116	0x3d899c3e	0.06719254
117	0x3e1520a3	0.14563231
118	0xbe719b69	-0.2359444
119	0xbde5817a	-0.11206336
120	0x3d2c6cd3	0.04209597
121	0xbde826bf	-0.11335515
122	0x3da78c57	0.081810646
123	0xbddd7f80	-0.10815334
124	0xbe2f44fc	-0.17116159
125	0x3d83c33e	0.06433724
126	0xbd877882	-0.06614782
127	0x3e2b89b2	0.16751745
128	0xbd6f9223	-0.058488976
129	0x3c9acc48	0.018896237
130	0xbe3f4d12	-0.18681744
131	0xbe4f0e3c	-0.20220274
132	0x3d0ff462	0.03514517
133	0x3d755ca5	0.059902806
134	0xbd6ec5ce	-0.05829411
135	0xbb592b12	-0.0033137244
136	0xbd89cfe9	-0.06729109
137	0x3df17f3d	0.11791847
138	0x3e32a343	0.17445092
139	0xbd81512d	-0.06314311
140	0x3cab68bb	0.020923963
141	0xbb5e51e2	-0.0033923318
142	0xbe32052b	-0.17384784
143	0xbd7810bf	-0.060562845
144	0x3d6925ac	0.056920692
145	0xbe2384d4	-0.15968639
146	0xbe5c55c3	-0.2151709
147	0xbd8bab80	-0.068198204
148	0x3e2f175a	0.17098752
149	0x3d2b4b83	0.04182006

conv1.bias f4 [6]
0	0xbdd16e2a	-0.1022609
1	0x3e100520	0.14064455
2	0x3e311dab	0.17296474
3	0xbc1480a3	-0.0090638725
4	0x3d574bd1	0.05256254
5	0x3e2ef157	0.17084251

conv2.weight f4 [16, 6, 5, 5]
0	0xbd934a7f	-0.071919434
1	0xbd393c7c	-0.045223698
2	0xbd61e46f	-0.055149492
3	0x3d7ec4c7	0.06219938
4	0xbd1d79a1	-0.038446072
5	0xbd670d4f	-0.056409176
6	0x3d12a247	0.03579929
7	0x3d033195	0.032029707
8	0x3d120621	0.035650376
9	0x3d248b78	0.04017207
10	0xbd837268	-0.06418306
11	0x3b94dcdd	0.0045429305
12	0x3d58f64e	0.05296927
13	0xbc0cd9c7	-0.008596844
14	0x3d37c769	0.044867907
15	0xbd612bbf	-0.05497336
16	0x3e003b61	0.12522651
17	0xbd5d1dbb	-0.05398343
18	0x3d77ce6d	0.060499597
19	0xbd323960	-0.04351175
20	0x3c835e26	0.016036104
21	0x3d902815	0.07038895
22	0x3cfa702b	0.030571064
23	0xbd53eb23	-0.051737916
24	0x3d428a93	0.047495436
25	0xbcf6e79a	-0.030139733
26	0xbcb9ecae	-0.022695865
27	0x3b2026cd	0.002443719
28	0x3d382fe9	0.044967566
29	0x3cb2f5d8	0.021845743
30	0x3c64d7df	0.013967483
31	0x3dbaafda	0.09115572
32	0xbdad4e12	-0.08462156
33	0x3c175157	0.0092357015
34	0xbd897d7a	-0.06713386
35	0xbc93fa75	-0.018063763
36	0x3db2d1ec	0.08731446
37	0x3d903dd2	0.07043041
38	0xbd171cda	-0.03689275
39	0x3d7c47ad	0.061591793
40	0xbdb9a2bf	-0.090642445
41	0xbd939502	-0.07206155
42	0x3d6b3ca2	0.05743087
43	0x3d922270	0.07135475
44	0x3d1a416d	0.03766005
45	0xba0371fe	-0.00050142396
46	0x3d287ba9	0.041133557
47	0xbd93990a	-0.07206924
48	0x3de25145	0.11050657
49	0x3de381a8	0.11108714
50	0x3b830bf1	0.0039992263
51	0x3d9983da	0.07495852
52	0x3beaaff6	0.0071620895
53	0x3cdb819a	0.026795197
54	0x3d828d2b	0.06374582
55	0x3ccb60b5	0.024826387
56	0xbd9b2417	-0.07575243
57	0xbdb29177	-0.087191515
58	0x3d1714f6	0.036885224
59	0xbc2dbffc	-0.010604855
60	0xbcd8776b	-0.02642413
61	0xbd5be9ef	-0.053689893
62	0x3d3c0cd9	0.04591069
63	0xbd3178b8	-0.043328017
64	0x3d542a0a	0.051797904
65	0xbd76c65e	-0.06024777
66	0xba04a874	-0.0005060502
67	0xbcae9296	-0.021310132
68	0x3d1272a3	0.035753857
69	0xbd77f38d	-0.060535002
70	0x3d56fc32	0.052486606
71	0xbd8fb767	-0.07017403
72	0xbd3d4171	-0.046204988
73	0xbcd405a4	-0.025881596
74	0x3db47c07	0.08812719
75	0xbdcaf9e6	-0.099109456
76	0xbd95c1f6	-0.07312386
77	0xbdd99c79	-0.10625548
78	0xbc131046	-0.008976048
79	0x3d4616d7	0.048361626
80	0xbd372fc7	-0.0447233
81	0x3dbc43e3	0.09192636
82	0xbc31ed2d	-0.01085977
83	0x3d3ed3e8	0.04658881
84	0x3cdb90d2	0.026802454
85	0x3decb9a0	0.11558843
86	0x3d84528a	0.064610556
87	0x3d656287	0.056002166
88	0x3ba3815e	0.004989787
89	0x3cb95e8d	0.022628093
90	0x3cf0e70a	0.029407043
91	0xbd395750	-0.045249283
92	0xbd9b8fb6	-0.0759577
93	0xbd76fbfe	-0.060298912
94	0xbce92f94	-0.02846507
95	0xbd2a8bb3	-0.041637134
96	0xbdb09805	-0.086227454
97	0x3da9c99d	0.08290408
98	0xbcab91dc	-0.020943575
99	0x3d5e8b18	0.05433187
100	0xbd1fb637	-0.038992133
101	0x3c1a5776	0.009420266
102	0x3ce1684e	0.027515557
103	0x3b125900	0.002233088
104	0xbda89d5a	-0.082331374
105	0x3ce79858	0.028270885
106	0xbceb899b	-0.028752139
107	0xbc904fb7	-0.017616136
108	0x3d14ad86	0.036298297
109	0xbd218425	-0.039432663
110	0xbcd4d714	-0.025981463
111	0x3be3626f	0.0069392244
112	0xbcf783e6	-0.030214261
113	0x3dba0892	0.09083666
114	0x3d390388	0.045169383
115	0xbc9628ba	-0.018329967
116	0x3d624185	0.055238266
117	0xbca96425	-0.020677635
118	0xbd91e959	-0.07124586
119	0x3a66e430	0.00088078063
120	0x3d41085f	0.047127124
121	0xbc899695	-0.016795436
122	0x3d70a05e	0.058746688
123	0x3d81d9fb	0.063404046
124	0x3b67690a	0.003531041
125	0xbd574915	-0.05255993
126	0x3d9eb00e	0.077484235
127	0x3ce5f81f	0.028072415
128	0xbd93a267	-0.0720871
129	0x3de2ebf6	0.11080162
130	0xbd8ba1a3	-0.06817939
131	0x3d62f5a9	0.05541006
132	0xbda4dfcf	-0.080505006
133	0xbc0c76a5	-0.008573209
134	0x3d90e694	0.07075229
135	0x3cc503a0	0.02404958
136	0xbd89dbec	-0.067314
137	0xbdae8930	-0.0852226
138	0xbb125a9d	-0.0022331842
139	0xbda79a53	-0.08183732
140	0x3cf8a11d	0.030350262
141	0x3d384ff5	0.044998128
142	0xbd1c9f95	-0.038238127
143	0xbd6be399	-0.0575901
144	0xbd57f586	-0.052724384
145	0xbd0147f1	-0.03156275
146	0xbd137ea0	-0.03600943
147	0xbcd9b01a	-0.02657323
148	0x3da24a1d	0.07924292
149	0xbd8d1ed5	-0.06890646
150	0x3d839c30	0.06426275
151	0xbd4bc21c	-0.049745664
152	0xbd6644e9	-0.05621806
153	0x3d93ef92	0.07223429
154	0xbc0d4838	-0.008623175
155	0x3caa9f0c	0.020827793
156	0xbd8570ce	-0.065156564
157	0xbd094d6f	-0.033521112
158	0x3d997c92	0.07494463
159	0x3b0ed1a0	0.0021792427
160	0x3d1fc188	0.039002925
161	0xbc0eb308	-0.008709677
162	0x3cc844f7	0.024446948
163	0x3d7e3e08	0.062070876
164	0xbd9883d8	-0.07447022
165	0x3c7280e8	0.014801241
166	0xbd23296f	-0.039834436
167	0x3d454e5d	0.048170436
168	0x3d6f2bb8	0.058391303
169	0x3ca2fa10	0.01989463
170	0xbd252ece	-0.04032784
171	0xbd9b49fc	-0.07582471
172	0xbce438d0	-0.027859122
173	0xbcb22aee	-0.021748986
174	0xbc5745c0	-0.013139188
175	0x3d9ea5b4	0.07746449
176	0xbb8618e0	-0.004092321
177	0x3da00b1c	0.07814619
178	0xbd1920b0	-0.03738469
179	0x3d94ecc2	0.072717205
180	0xbccf80d4	-0.025329985
181	0x3c5aa571	0.013345108
182	0x3c4270c0	0.011867702
183	0x3d19504e	0.0374301
184	0xbd78e68d	-0.060766745
185	0xbd45ce51	-0.04829246
186	0x3adaed00	0.0016702712
187	0xbc7acc80	-0.015307546
188	0x3c922650	0.017840534
189	0x3da3cc8a	0.07997997
190	0xbd8c5157	-0.06851452
191	0x3c4fb098	0.012676381
192	0x3c908e7c	0.017646067
193	0xbca4dd90	-0.02012518
194	0x3aa4eb00	0.0012582242
195	0xbb657370	-0.0035011433
196	0x3d1ce344	0.038302675
197	0x3d8f31d0	0.06991923
198	0x3ab85e30	0.0014066156
199	0xbccae800	-0.02476883
200	0xbbc47450	-0.005995311
201	0x3d97fc1c	0.07421133
202	0x3d6e1d2c	0.05813329
203	0xbd403012	-0.046920843
204	0xbd98f9d8	-0.07469529
205	0xbda46475	-0.08026973
206	0x3d07cc18	0.033153623
207	0xbd601013	-0.05470283
208	0xbd0922d0	-0.033480465
209	0x3c4eea78	0.012629144
210	0xbaaf9910	-0.0013397057
211	0xbd8ce125	-0.068788804
212	0xbd401ab1	-0.046900455
213	0xbd99249a	-0.07477684
214	0xbd1a237b	-0.037631493
215	0xbda65935	-0.08122484
216	0xbc99fbdc	-0.018796854
217	0x3d9668a8	0.0734418
218	0xbda61935	-0.081102766
219	0xbd704a88	-0.05866483
220	0xbbcc6840	-0.0062380135
221	0xbd65aefe	-0.05607509
222	0xbcb820a6	-0.022476505
223	0xbd52bd2c	-0.05144994
224	0x3d414758	0.04718718
225	0x3d6e6819	0.058204744
226	0xbd0bf24e	-0.034166627
227	0xbd36190a	-0.044457473
228	0x3d2b5414	0.04182823
229	0x3c689348	0.014195271
230	0x3d3a99fb	0.045557003
231	0xbc48a128	-0.012245454
232	0x3c8c4fa8	0.017127827
233	0xbc0a18c0	-0.008428752
234	0xbc3f6218	-0.011681102
235	0x3d865fac	0.06561217
236	0xbbeaac70	-0.0071616694
237	0xbc88d064	-0.01670093
238	0xbc7873e8	-0.015164353
239	0xbd1c9248	-0.038225442
240	0xbcfd17f6	-0.030895215
241	0x3cd27968	0.025692657
242	0xbd83c605	-0.064342536
243	0x3c434c50	0.01192005
244	0xbb83a50d	-0.0040174783
245	0x3d5aa2ba	0.053377844
246	0x3d315831	0.043296997
247	0xbd6af58c	-0.057363078
248	0xbc300fa8	-0.01074592
249	0xbb9860e0	-0.0046502203
250	0x3d4f0888	0.050545245
251	0x3b54f9a0	0.003249742
252	0xbca80b44	-0.020513184
253	0xbd9f510f	-0.077791326
254	0xbd9e0ffa	-0.07717891
255	0xbc9a62b8	-0.0188459

conv2.bias f4 [16]
0	0x3d9cf62f	0.07664143
1	0xbd52611e	-0.05136215
2	0xbb61d3cc	-0.0034458516
3	0x3d29ce31	0.041456405
4	0xbd8498ab	-0.064744316
5	0x3c46d0a8	0.012134708
6	0x3d3f7418	0.046741575
7	0xbd849ea2	-0.06475569
8	0x3d2b0671	0.04175419
9	0xbd3420d0	-0.043976605
10	0xbcd1c84c	-0.025608204
11	0x3d2c20bc	0.042023405
12	0x3d107e57	0.035276737
13	0x3cdf4dbe	0.02725875
14	0xbcd0fc37	-0.02551089
15	0x3b41b556	0.0029557548

fc1.weight f4 [120, 1296]
0	0xbc3adac0	-0.011404693
1	0x3cd78c0c	0.026311897
2	0x3cbb4bd6	0.02286331
3	0x3c1ab114	0.009441633
4	0x3cbc50c1	0.022987725
5	0xbccf9c2a	-0.02534302
6	0xbb303950	-0.002688963
7	0x3c97bf28	0.018523768
8	0xbbf808bc	-0.0075694006
9	0xbcd896c0	-0.02643907
10	0xbc3a0c7c	-0.011355516
11	0x3c6194e6	0.01376841
12	0x3c5b5342	0.013386549
13	0x3c4b284e	0.012399746
14	0xbc65cbd6	-0.014025649
15	0xbae00c7f	-0.0017093568
16	0x3c91c04e	0.017791893
17	0x3ae1f380	0.0017238706
18	0xbc980442	-0.018556718
19	0x3c983103	0.018578058
20	0xbccb28ac	-0.024799667
21	0x3ca230ac	0.0197986
22	0x3c8a93d7	0.016916199
23	0xbc6b6af1	-0.014368759
24	0xbaa978e0	-0.00129297
25	0x3b43b5c2	0.0029862975
26	0xbcc288be	-0.023746844
27	0xbc42f168	-0.011898376
28	0xbcce2eb9	-0.025168763
29	0xbcbe0c96	-0.02319936
30	0xbb9e45be	-0.0048300913
31	0x3ce508d8	0.027958319
32	0xbc5d3cf5	-0.013503303
33	0x3cd33dc5	0.02578629
34	0xbc54a6b6	-0.0129792
35	0xbc94d376	-0.018167239
36	0x3c1f57ba	0.0097255055
37	0x3c82ea98	0.015981004
38	0x3c88e3e0	0.016710222
39	0xbc475b50	-0.012167767
40	0xbaf20bf5	-0.0018466698
41	0x3bc48b82	0.005998076
42	0xbc8d286a	-0.017231185
43	0x3acbecbd	0.0015558224
44	0x3c50dc6e	0.012747867
45	0xbce2d146	-0.02768768
46	0xbcbaf94d	-0.022823954
47	0x3b802335	0.003910447
48	0xbbb2995b	-0.0054504103
49	0xbad12e10	-0.0015959162
50	0x3b6a51f6	0.003575442
51	0x3b7898b8	0.0037932824
52	0x3c99d30f	0.018777398
53	0x3b5d48f4	0.0033765407
54	0x3913bd4f	0.00014089535
55	0x3c37d99e	0.011221318
56	0x3c81bccf	0.015837101
57	0xbcc2be75	-0.023772458
58	0xbc62cb00	-0.013842344
59	0xbc0da8ac	-0.008646172
60	0xbd09f8cc	-0.033684537
61	0xbc4e6681	-0.012597681
62	0xbc2a8401	-0.010407449
63	0x3cd08aeb	0.025456866
64	0x3c6312eb	0.013859491
65	0x3c73c606	0.014878755
66	0x3b1fa91a	0.0024362267
67	0xbc556c8c	-0.013026368
68	0xbc37d62d	-0.011220497
69	0x3c742f30	0.0149038285
70	0xbd049080	-0.03236437
71	0xbb269830	-0.00254203
72	0xbcf076b3	-0.029353475
73	0x3c826465	0.015917012
74	0x3c591998	0.013250731
75	0x3c9b29c7	0.01894082
76	0xbb699701	-0.0035642984
77	0xbb3a8d84	-0.0028465698
78	0x3c0760e4	0.008262847
79	0x3c32c9cd	0.010912371
80	0x3be3d74e	0.0069531566
81	0x3c35935e	0.011082498
82	0x3c849875	0.016185978
83	0xbc64e0e0	-0.01396963
84	0x3cc6ddf3	0.024275756
85	0x3b14fb38	0.0022732746
86	0x39974190	0.00028849812
87	0x3cda4979	0.026646363
88	0x3ca0ec71	0.019643994
89	0x3c49ff76	0.012328973
90	0xbc378d94	-0.011203188
91	0x3ccc7a37	0.02496062
92	0x3c7b3062	0.01533136
93	0xbc3c0fec	-0.011478405
94	0x3cd682b1	0.026185365
95	0xbbc4dba0	-0.0060076267
96	0x3cc8c7af	0.024509279
97	0xbb59a148	-0.0033207703
98	0x3c3eb18a	0.011639008
99	0x3c99e69d	0.018786723
100	0x3c5dfbb2	0.013548778
101	0x3c9c7df1	0.019103022
102	0xbcc70979	-0.02429651
103	0x3cd236a1	0.025660815
104	0xbca76c5e	-0.020437416
105	0x3c57e60a	0.013177404
106	0x3c939a47	0.018017901
107	0x3cc3b3a0	0.023889363
108	0x3c4e4f3a	0.012592131
109	0x3bada774	0.005299503
110	0xbcaa2a8b	-0.02077224
111	0x3c226872	0.009912597
112	0xbbcf7b00	-0.0063318014
113	0x3c4870b6	0.012233904
114	0xbcacb50e	-0.021082427
115	0xba151580	-0.00056871027
116	0xbce12377	-0.027482731
117	0xbb201990	-0.00244293
118	0x3cad6e43	0.021170741
119	0xbc303e98	-0.010757111
120	0xbbe5a0d8	-0.0070076995
121	0x3c5c3392	0.01344003
122	0xbc807e09	-0.015685098
123	0x3b9ed46c	0.0048471
124	0x3900da30	0.00012288312
125	0xbc75c51d	-0.015000609
126	0x3ca93ea3	0.02065975
127	0xbc7e67a9	-0.015527644
128	0xbc9eb02a	-0.019371111
129	0x3c7b36aa	0.015332857
130	0xbc721854	-0.014776308
131	0x3ca4b4ed	0.020105803
132	0xbbc86c08	-0.006116394
133	0xbc70a3ce	-0.014687492
134	0x3c1966a6	0.009362852
135	0xbc7b4a70	-0.0153375715
136	0xbc4e225b	-0.012581433
137	0xbcc89d97	-0.024489207
138	0x3c2c71ae	0.01052515
139	0xbc9ef8b7	-0.019405706
140	0xbb87bde8	-0.0041425116
141	0xbaec6b10	-0.0018037278
142	0xbccd7c70	-0.02508375
143	0x3cc1e4a9	0.023668604
144	0x3cab0ff9	0.02088164
145	0x3b20fff0	0.0024566613
146	0x3c457a06	0.012053018
147	0xbaed4080	-0.0018100888
148	0x3caa3a0d	0.020779634
149	0xbc782665	-0.015145873
150	0xbcd2929c	-0.025704674
151	0x3cc9caa3	0.024632758
152	0xbbce3043	-0.0062923743
153	0xbbdea5fc	-0.006794689
154	0xbc892f56	-0.016746204
155	0x3c988da5	0.018622229
156	0x3b09eb60	0.0021044835
157	0xbbfea6fc	-0.007771371
158	0x3a404ce0	0.0007335674
159	0xbc963062	-0.018333618
160	0xbcbbee7d	-0.022940869
161	0x3c96d3ef	0.018411605
162	0x3c3ad4b6	0.011403253
163	0x3c02bab1	0.007979081
164	0xbc47ef33	-0.012203026
165	0x3c625fd6	0.013816794
166	0x3cae03b8	0.021242008
167	0xbcc0d46b	-0.023538789
168	0x3c6cede6	0.014461016
169	0x3bfd44e4	0.0077291597
170	0xbb6259c1	-0.003453836
171	0xbcec6316	-0.028855842
172	0xbc812e0a	-0.015769023
173	0x3cac839e	0.021058854
174	0xbcfcb8b5	-0.030849794
175	0xbcf61795	-0.030040542
176	0x3bcc2185	0.006229582
177	0xbc852c11	-0.016256364
178	0xbc811179	-0.015755402
179	0xbcc3e724	-0.023913927
180	0x3c0bb798	0.008527659
181	0x3c340cdf	0.010989397
182	0x3c3ef8b1	0.011655972
183	0xbca4a040	-0.020095944
184	0xbcc53c53	-0.024076616
185	0x3c9e1f00	0.019301891
186	0xbc3bd6ec	-0.011464816
187	0x3b7a07d3	0.0038151636
188	0x3a0b8fbc	0.0005323847
189	0x3c7ce3b1	0.015435145
190	0xbb02334e	-0.0019867006
191	0xbcdf01ad	-0.027222479
192	0xb980bd1c	-0.0002455496
193	0xbbfc64a4	-0.007702427
194	0xbbfc8227	-0.007705945
195	0x3cfbc761	0.03073472
196	0x3a4ca2a9	0.00078062207
197	0x3c961da8	0.018324688
198	0xbcf18687	-0.029483093
199	0xbcd13a10	-0.025540382
200	0x3c5d1f30	0.013496205
201	0xbc75502d	-0.014972729
202	0xbcac5eae	-0.02104124
203	0x3c526923	0.012842449
204	0x3c2d8613	0.010591048
205	0xbcabd6f8	-0.020976529
206	0xbca06e40	-0.019583821
207	0xbcc71eef	-0.024306742
208	0xbbdd7868	-0.0067587383
209	0x3b8de25a	0.0043299617
210	0x3bc3c508	0.0059744157
211	0x3c5d8eb6	0.0135227945
212	0x3c8eaace	0.01741543
213	0xbcd776ac	-0.026301704
214	0xbb90dbaa	-0.0044207172
215	0xbd016836	-0.031593524
216	0xbc70a18f	-0.014686956
217	0x3bc58703	0.0060280575
218	0xbc7d845c	-0.015473451
219	0x3ca8a9b0	0.020588726
220	0x3cae5082	0.021278623
221	0xbc8eb8b7	-0.017422063
222	0xbce43afb	-0.027860155
223	0xbaef0f43	-0.0018238801
224	0x3ae24d83	0.0017265532
225	0xbbe12792	-0.006871172
226	0xbcb4e79a	-0.022083092
227	0x3c176975	0.0092414515
228	0xbca1b907	-0.019741548
229	0xbc174885	-0.009233599
230	0x3c74464c	0.014909338
231	0xbcade9a6	-0.021229576
232	0xbc155b0b	-0.009115945
233	0xbc81905e	-0.01581591
234	0x3c03ad08	0.008036859
235	0xbcdb52f9	-0.026772963
236	0x3ca86744	0.020557053
237	0xbce8493c	-0.028355233
238	0xbd05f6d7	-0.032706108
239	0xba8b361e	-0.0010620987
240	0xbc078f13	-0.008273858
241	0xbca46a8a	-0.020070333
242	0x3aa1d4c5	0.0012346735
243	0xbcf13038	-0.029441938
244	0xbd01c5cc	-0.031682774
245	0x3ca54c46	0.020177972
246	0x3c7cb38a	0.015423665
247	0xbc9b53a0	-0.018960774
248	0x3ba57880	0.005049765
249	0x3ba4f747	0.0050343606
250	0xbd0552c9	-0.032549653
251	0xbc63b8b1	-0.013899014
252	0x3c776be6	0.015101409
253	0x3c55ffc1	0.013061465
254	0x3caa3c78	0.020780787
255	0xbc1483d2	-0.009064632

fc1.bias f4 [120]
0	0xbba66b50	-0.0050787106
1	0xbbbe058f	-0.0057990025
2	0xbbfee234	-0.0077784304
3	0x3c236106	0.009971863
4	0xbcd85f8f	-0.026412753
5	0x3a8bf118	0.001067671
6	0xbbdea7cc	-0.0067949053
7	0xbbd73a5a	-0.0065682353
8	0x3c1287f3	0.008943546
9	0x3c6297e4	0.013830159
10	0xbc6e47fe	-0.014543531
11	0x3c99e7ad	0.01878723
12	0xbb602a8a	-0.0034205043
13	0x3c7003fe	0.014649389
14	0x3c4e022a	0.012573758
15	0xbc0731c9	-0.008251616
16	0xbc4490ab	-0.011997382
17	0x3cb3442e	0.021883097
18	0x3cdfd3f5	0.027322749
19	0xbc2ac267	-0.010422326
20	0xbcaae55b	-0.020861318
21	0x3c4f1df4	0.012641419
22	0x3c92a76c	0.017902099
23	0xbbaa5633	-0.005198264
24	0xbcbfe183	-0.023422962
25	0xbc95a2cc	-0.018266104
26	0x3c718f82	0.014743688
27	0x3c5dee0d	0.013545525
28	0xbc8dc2cd	-0.017304802
29	0x3c9615ee	0.018321004
30	0x3d1655e4	0.036703005
31	0x3c655598	0.013997458
32	0x3bc1e202	0.005916835
33	0xbbc9089c	-0.0061350595
34	0xbcc27338	-0.023736581
35	0xbcb6a33b	-0.022294631
36	0xbb5009ea	-0.003174419
37	0xbc866c0d	-0.016408945
38	0xbcd17a52	-0.025571022
39	0xbc330838	-0.0109272525
40	0xbc63d6e5	-0.013906215
41	0x3ca51ce7	0.020155383
42	0xbc8a5cb3	-0.016889906
43	0xbaf76807	-0.0018875607
44	0x3c81a471	0.015825482
45	0xb89a8e6a	-7.369819e-05
46	0xbbfda9cb	-0.007741188
47	0x3c91348e	0.017725255
48	0x3cbb3720	0.022853434
49	0xbcec30b4	-0.028831817
50	0xb9c61d8d	-0.0003778752
51	0xbd0fd487	-0.03511479
52	0xbcea907c	-0.028633349
53	0xbc8ef599	-0.017451094
54	0xbcb06f56	-0.021537464
55	0x3b8d2409	0.0043072742
56	0x3c6b22b3	0.014351535
57	0xbb5dfedc	-0.0033873832
58	0xbcfe27fd	-0.031024927
59	0xbbffe0ec	-0.007808795
60	0xbbcaf44e	-0.006193674
61	0x3c0377b2	0.008024143
62	0xbbadc941	-0.0053035324
63	0x3b9b0df0	0.004731886
64	0xbc12c060	-0.008956999
65	0xbc9b126f	-0.018929688
66	0x3b337159	0.0027380793
67	0x3c7ce3c2	0.015435161
68	0x3b5497eb	0.0032439183
69	0x3c782312	0.01514508
70	0xbaf15f91	-0.0018415322
71	0xbc8c1e88	-0.017104402
72	0xbccd3daf	-0.025053827
73	0xbc9ba05e	-0.018997367
74	0x3bc4fd1f	0.0060116197
75	0xb8830a42	-6.2484774e-05
76	0x3b999a85	0.0046876096
77	0xbb3aff41	-0.002853349
78	0xbc06c4e2	-0.008225651
79	0xbc88069a	-0.01660471
80	0xbc550fa4	-0.013004217
81	0x3c2b368b	0.010450016
82	0x3bbdcc65	0.005792188
83	0xbc0daefe	-0.008647678
84	0x3ccc2025	0.024917671
85	0xbb334617	-0.002735501
86	0x3aac582b	0.0013148835
87	0xbb8ea5dd	-0.0043532685
88	0x3c4527a5	0.012033378
89	0x3b066ff6	0.0020513511
90	0xbbdec96e	-0.0067989146
91	0xbbb16e79	-0.0054147807
92	0xbc42559f	-0.011861234
93	0xbc39d794	-0.011342902
94	0x3bc2fc1c	0.005950464
95	0xbd00eab4	-0.03147383
96	0xbcac3ebd	-0.02102601
97	0xbcab9daa	-0.020949204
98	0xbcfc2fb2	-0.030784462
99	0xbbdea610	-0.0067946985
100	0xbb9962df	-0.004680976
101	0x3c34a0cd	0.011024666
102	0x3c889c38	0.016676053
103	0x3bcd684f	0.006268538
104	0x3c7985cb	0.015229653
105	0x3b6aef28	0.0035848115
106	0xbb596c9d	-0.003317631
107	0xbcb235d7	-0.021754188
108	0x3c6c1d40	0.014411271
109	0x3c16b901	0.009199382
110	0xb99b8632	-0.00029663887
111	0xbc36469e	-0.011125235
112	0x3c8e6a0d	0.017384553
113	0xbc83bf8a	-0.016082544
114	0xbc497faa	-0.012298504
115	0xbca51bbe	-0.02015483
116	0xbc4fed93	-0.012690919
117	0xbce1b66b	-0.027552804
118	0xbcd875cb	-0.026423356
119	0xbca705f4	-0.02038858

fc2.weight f4 [84, 120]
0	0xbd508393	-0.05090673
1	0xbd62cc95	-0.055370886
2	0xbd8999ae	-0.06718765
3	0xbcff6e38	-0.031180486
4	0xbd83ffa3	-0.06445243
5	0xbd4cf668	-0.05003968
6	0x3d1bbc05	0.038021106
7	0xbd8ad9c5	-0.067798175
8	0xbd7685e2	-0.060186274
9	0x3dc7ba48	0.09752327
10	0xbd9d2e6f	-0.07674872
11	0xbd014004	-0.03155519
12	0x3cc68e51	0.024237784
13	0x3e00b2ff	0.12568282
14	0x3df1c06c	0.1180428
15	0x3de56086	0.11200051
16	0xbd6b12a3	-0.05739082
17	0xbd4060f3	-0.046967458
18	0xbc91d3f4	-0.017801262
19	0x3d820f99	0.06350631
20	0x3c0accbd	0.008471665
21	0x3ba19990	0.004931636
22	0x3d0ef79c	0.034904107
23	0x3d3f8620	0.04675877
24	0xbd85c31b	-0.06531354
25	0xbdb7d569	-0.08976252
26	0x3da780a0	0.0817883
27	0xbca860df	-0.020554004
28	0x3b9a709f	0.0047131325
29	0x3d72ccf8	0.059277505
30	0xbd0c15c3	-0.03420044
31	0x3d929319	0.07156963
32	0x3caac585	0.020846138
33	0x3d001642	0.031271227
34	0x3bdae9f8	0.0066807233
35	0x3aac24a7	0.0013133482
36	0xbd24eee7	-0.040266898
37	0xbd924db8	-0.0714373
38	0x3c7cdf7c	0.015434142
39	0x3c0f8780	0.008760333
40	0x3d0599a4	0.032617226
41	0x3d646ccb	0.055767816
42	0x3d63092d	0.055428673
43	0xbcbaf050	-0.022819668
44	0x3ceb9190	0.028755933
45	0x3d71d271	0.059038583
46	0xbbd64033	-0.006538415
47	0x3da2e817	0.07954424
48	0xbcda48c0	-0.026646018
49	0x3d879e0a	0.066219404
50	0xbd099519	-0.033589456
51	0x3d781502	0.06056691
52	0x3c161c20	0.009161979
53	0xbcdc7e81	-0.02691579
54	0xbd651141	-0.055924658
55	0xbd3adcab	-0.0456206
56	0x3d1159d1	0.035486046
57	0xbd2cc071	-0.042175714
58	0x3cc199b7	0.023632867
59	0x3d53fee1	0.051756743
60	0x3da36c80	0.07979679
61	0xbd719250	-0.058977425
62	0xbda749aa	-0.08168347
63	0x3da60db9	0.08108086
64	0x3d9676fd	0.07346914
65	0x3cc09b69	0.023511605
66	0xbd6cd106	-0.057816528
67	0xbda49ca2	-0.08037688
68	0x3d1ba8c5	0.038002748
69	0xbd2597a8	-0.040427834
70	0xbda59dad	-0.08086715
71	0xbdbf520c	-0.09341821
72	0x3cdb5415	0.026773492
73	0xbd800cda	-0.06252451
74	0x3dc1d907	0.09465223
75	0xbdafe170	-0.08587921
76	0xbd147b98	-0.03625068
77	0x3997d61a	0.00028960482
78	0xbdc07e6c	-0.09399113
79	0x3cda9730	0.02668342
80	0x3d5f5a9e	0.05452978
81	0x3e02b4ad	0.12764235
82	0xbbbb8461	-0.005722568
83	0xbd149c0a	-0.036281623
84	0xbda54ead	-0.08071647
85	0x3dcbb8b6	0.0994734
86	0xbd2e8623	-0.04260839
87	0xbd897927	-0.06712561
88	0xbca9edcc	-0.020743273
89	0xbd72e225	-0.0592977
90	0x3ccc3223	0.02492625
91	0x3d87a358	0.06622952
92	0x3d2dc75a	0.042426445
93	0x3cf8d34b	0.03037419
94	0x3b021a24	0.0019852007
95	0xbb908d20	-0.0044113547
96	0xbd1848c4	-0.03717877
97	0x3d96ebdb	0.073692046
98	0x3d92e0b8	0.07171768
99	0xbadb582d	-0.0016734652
100	0xbda53af0	-0.08067882
101	0xbd34f445	-0.044178266
102	0xbdc027fc	-0.093826264
103	0x3cb4041e	0.02197462
104	0x3d86d1de	0.06582998
105	0x3d82622e	0.063663825
106	0xbc061358	-0.008183323
107	0x3bd22dc3	0.0064141466
108	0x3cc9a8cc	0.024616621
109	0xbdbdefc9	-0.09274251
110	0xbd3b8e0d	-0.045789767
111	0x3d403230	0.046922863
112	0xbcf6e4eb	-0.030138453
113	0x3d460719	0.048346613
114	0x3d22543f	0.039631125
115	0x3d9222fb	0.07135578
116	0x3d62122c	0.05519311
117	0xbda10905	-0.078630485
118	0xbd3bbe53	-0.045835804
119	0xbd5e05b7	-0.05420467
120	0xbd55c3d1	-0.0521887
121	0x3d1a9526	0.037739895
122	0xbb9731f0	-0.0046141073
123	0x3c8c8e6e	0.01715776
124	0x3d92bd6a	0.07165034
125	0x3c7fe9d8	0.015619718
126	0xbcb0a018	-0.021560714
127	0x3d806b9e	0.06270526
128	0xbd8e6b71	-0.069540866
129	0xbcd24484	-0.025667436
130	0x3d273e44	0.040830866
131	0xbda5ac65	-0.08089522
132	0xbcd81358	-0.026376411
133	0xbd8eb789	-0.069686
134	0xbd5e2eeb	-0.054243963
135	0xbdaf2be9	-0.08553297
136	0x3d9570a4	0.07296875
137	0xbb8afa38	-0.004241254
138	0x3d8232a8	0.06357318
139	0x3d7e1587	0.06203225
140	0xbce95986	-0.02848507
141	0xbb3224b0	-0.0027182512
142	0xbd729f3a	-0.05923388
143	0xbda755cb	-0.081706606
144	0x3d4b6bdb	0.049663406
145	0x3cb028c7	0.02150382
146	0xbd60af07	-0.05485442
147	0xbdcd5868	-0.10026628
148	0xbcb71988	-0.022351041
149	0xbc971a8c	-0.018445276
150	0xbc9174ee	-0.017755952
151	0x3cd6f1a8	0.026238278
152	0x3d44b56c	0.04802458
153	0x3d285560	0.041097045
154	0xbd3c4d77	-0.045972314
155	0xbcde6828	-0.027149275
156	0xbd6094da	-0.054829456
157	0x3933b285	0.00017137274
158	0x3d6ba600	0.057531357
159	0xbd8a489a	-0.06752129
160	0xbdc219dd	-0.09477589
161	0x3d5e2fcc	0.0542448
162	0xbd2fac69	-0.042889033
163	0x3d72b3ee	0.059253626
164	0xba4d70cd	-0.0007836938
165	0x3cc8e3d4	0.0245227
166	0xbbaf2d3a	-0.0053459676
167	0x3cb639a5	0.022244284
168	0xbb3162c6	-0.002706693
169	0xbccdabd0	-0.02510634
170	0x3d8bbd5e	0.06823228
171	0x3d5a1be0	0.05324924
172	0xbd09356b	-0.03349821
173	0x3d0bcc41	0.03413034
174	0xbc5d299d	-0.013498691
175	0x3db49c64	0.08818892
176	0xbb3d1fa0	-0.0028857961
177	0xbb291070	-0.002579715
178	0x3d33ac4a	0.04386548
179	0xbc7339dc	-0.014845338
180	0x3d0afac7	0.033930566
181	0xbd8ae6e5	-0.06782321
182	0xbd0441c5	-0.032289285
183	0x3d98b1af	0.074557655
184	0xbd936293	-0.07196536
185	0x3d7d3911	0.061822
186	0xbd38cbb7	-0.045116153
187	0x3c3c9413	0.011509913
188	0xbd127b14	-0.035761908
189	0xbd549935	-0.051903922
190	0x3d06da24	0.03292288
191	0x3c743032	0.014904069
192	0x3cb333f8	0.021875367
193	0xbcc87939	-0.024471866
194	0xbcf94362	-0.030427638
195	0x3c933104	0.017967708
196	0xbd6805e6	-0.05664625
197	0xbd1da920	-0.03849137
198	0x3da53a3a	0.080677465
199	0x3d7f14a5	0.062275548
200	0x3d31f3de	0.04344546
201	0x3beabbd5	0.0071635046
202	0x3dae1dc6	0.085017726
203	0x3cc308f7	0.023807986
204	0xbd157689	-0.036489997
205	0x3d8e3315	0.06943337
206	0x3d225545	0.0396321
207	0x3db1011c	0.0864279
208	0x3d09832a	0.033572353
209	0x3d3e6e38	0.04649183
210	0xbd9b3e53	-0.07580247
211	0x3c322650	0.010873392
212	0x3c34205e	0.010994045
213	0x3d53af6c	0.051680967
214	0xbb15652a	-0.0022795894
215	0x3d043388	0.032275707
216	0xbd429958	-0.04750952
217	0x3ca1d488	0.019754663
218	0xbdb84d3c	-0.08999106
219	0x3d463e34	0.048399165
220	0xbd8df75e	-0.06931947
221	0xbc854b12	-0.016271148
222	0x3d8e83d8	0.06958741
223	0x3da9fe23	0.08300426
224	0xbc7e52f3	-0.015522706
225	0xbd0360a0	-0.03207457
226	0xbc102568	-0.008797981
227	0x3d8526e5	0.06501559
228	0x3d2de982	0.04245902
229	0xbd05f6c7	-0.03270605
230	0x3d2caeb9	0.042158816
231	0xbd9e4244	-0.07727483
232	0xbd50b6cd	-0.050955582
233	0x3d9d5b2e	0.07683407
234	0xbd2e16f0	-0.042502344
235	0x3ccb1733	0.024791336
236	0xbda9321a	-0.08261509
237	0x3c118bc8	0.008883424
238	0xbd819bf0	-0.06328571
239	0x3d89aafa	0.06722064
240	0x3d8e3048	0.06942803
241	0x3cb12c14	0.021627463
242	0xbd14f52d	-0.03636663
243	0xbac93214	-0.0015350007
244	0x3c8ecc84	0.017431505
245	0x3cfe590b	0.031048318
246	0x3d0f5568	0.03499356
247	0xbcf421b6	-0.02980123
248	0x3d0908e4	0.033455744
249	0xbc21b92d	-0.0098708095
250	0x3bc0a252	0.005878725
251	0xbd3001cf	-0.042970475
252	0x3da12688	0.078686774
253	0x3ce348da	0.0277447
254	0x3c82da86	0.01597334
255	0x3d705654	0.05867608

fc2.bias f4 [84]
0	0xbc02fd96	-0.00799503
1	0xbdd6435e	-0.10462068
2	0xbd8debf5	-0.06929771
3	0x3d30f714	0.043204382
4	0x3da38951	0.079851754
5	0x3d00ee90	0.03147751
6	0xbd78a059	-0.060699794
7	0xbc9fe81c	-0.019519858
8	0x3acf7434	0.0015827478
9	0xbca3db30	-0.020001978
10	0xbda699c7	-0.081347995
11	0xbaf8dfef	-0.0018987636
12	0xbcb477f1	-0.022029849
13	0xbd9d9b78	-0.07695669
14	0xbd39e26c	-0.04538195
15	0x3d8d6137	0.06903308
16	0xbdd031fd	-0.101657845
17	0xbd6e0e14	-0.058118895
18	0x3d9603fa	0.07324977
19	0x3c32f75d	0.010923234
20	0xbc79f533	-0.015256214
21	0xbd4aee39	-0.049543593
22	0x3d4fdee4	0.050749674
23	0xbbd30310	-0.006439574
24	0x3d3d160b	0.0461636
25	0x3c7bd17e	0.015369771
26	0xbd08f2d0	-0.03343469
27	0x3d8c4d66	0.068507
28	0xbd9984c6	-0.07496028
29	0xbcb7f484	-0.022455461
30	0xbd94b2b1	-0.07260645
31	0xbcb1aa76	-0.021687727
32	0x3d76f6d4	0.060293987
33	0xbc811d18	-0.015760943
34	0x3d0c237b	0.034213524
35	0xbdc6efe1	-0.09713722
36	0xbd0c5ea9	-0.034269962
37	0xbceb673d	-0.028735751
38	0x3d39cfe8	0.04536429
39	0xbcc78e3d	-0.024359817
40	0xbd2efa6e	-0.042719297
41	0xbcfe7ebf	-0.031066297
42	0x3dd04939	0.10170216
43	0xbd8e3265	-0.06943206
44	0x3d409903	0.047020923
45	0x3da3806a	0.079834774
46	0xbd023d0a	-0.031796493
47	0xbc925ed0	-0.017867476
48	0x3c573607	0.01313544
49	0xbd35aea5	-0.044356007
50	0xbaeff0c0	-0.0018306002
51	0x3dc4194f	0.0957514
52	0xbab7b558	-0.0014015837
53	0xbc87b696	-0.016566556
54	0x3d8b9f48	0.0681749
55	0xbd5ba195	-0.053620894
56	0x3dd15074	0.10220423
57	0xbc98a22e	-0.01863202
58	0xbcfeeaec	-0.031117879
59	0xbcf93823	-0.030422276
60	0xbc01a470	-0.00791274
61	0xbd3e8160	-0.0465101
62	0xbd01d266	-0.031694792
63	0xbd6599c7	-0.056054857
64	0xbc8624d3	-0.016374981
65	0x3d2546e5	0.040350813
66	0xbd6bb25c	-0.057543144
67	0x3d967ee5	0.07348422
68	0x3c19bacd	0.009382916
69	0x3cbd03b0	0.023073047
70	0x3c1023d2	0.008797603
71	0xbd9a1e30	-0.07525289
72	0xbd542a90	-0.051798403
73	0x3d0ef0ec	0.03489773
74	0x3d0a7208	0.033800155
75	0xbbfde3cd	-0.0077481032
76	0xbda438d8	-0.080186546
77	0xba7a250c	-0.00095422636
78	0xbca62f55	-0.020286242
79	0x3dac6dee	0.08419405
80	0x3d1af91d	0.03783523
81	0xbd760c71	-0.06007046
82	0xbcef1582	-0.02918506
83	0x3d8b8ca2	0.06813933

fc3.weight f4 [2, 84]
0	0x3d89f9f0	0.06737125
1	0x3d117687	0.035513427
2	0xbdce5d2e	-0.10076366
3	0xbd44cb9d	-0.048045743
4	0x3d8eff13	0.06982245
5	0xbd221c55	-0.0395778
6	0xbc1b2784	-0.0094698705
7	0x3dad68df	0.08467268
8	0xbd6631ae	-0.056199722
9	0xbcca8227	-0.024720265
10	0xbd99afac	-0.0750421
11	0xbd8e1b30	-0.06938779
12	0x3dc79513	0.097452305
13	0xbd665c8f	-0.056240615
14	0x3d840949	0.064470835
15	0xbd8e6a5e	-0.06953882
16	0x3b25f3d0	0.0025322326
17	0xbc450ab2	-0.012026476
18	0x3db822ec	0.08991036
19	0x3d00c6e1	0.031439666
20	0xbe187d43	-0.14891534
21	0xbd070ba9	-0.032970104
22	0xbd883321	-0.06650377
23	0x3d58a26a	0.052889265
24	0x3dbb24ce	0.09137879
25	0xbd288818	-0.041145414
26	0xbbe794dd	-0.0070673064
27	0x3c807ea8	0.015685394
28	0x3db00f36	0.08596651
29	0xbd39d756	-0.045371376
30	0xbd1d0f5f	-0.038344737
31	0xbcc010b0	-0.023445457
32	0x3d5da54f	0.05411273
33	0xbd2a88a1	-0.041634206
34	0x3dd52e9b	0.1040928
35	0x3d6a4900	0.057198524
36	0xbca971c0	-0.020684123
37	0x3d67deee	0.056609087
38	0x3d14e22c	0.036348507
39	0x3da6b1a4	0.08139351
40	0xbdbcb6e3	-0.092145704
41	0xbd88e660	-0.066845655
42	0x3d9f59ca	0.07780798
43	0xbd9d5abc	-0.07683322
44	0x3dc0c98d	0.09413443
45	0xbd234bfc	-0.039867386
46	0x3d8d532f	0.06900632
47	0xbdcbc9fb	-0.09950634
48	0x3da00e93	0.0781528
49	0xbd4a1549	-0.049336705
50	0xbd2e6d35	-0.042584617
51	0xbd435f16	-0.047698103
52	0x3be28a0a	0.006913428
53	0x3d33746d	0.043812204
54	0x3cec60e1	0.02885479
55	0x3d89aae8	0.06722051
56	0xbda2c889	-0.07948405
57	0x3dafd016	0.08584611
58	0xbd89e986	-0.06733994
59	0xbdf711ed	-0.12063966
60	0x3ceb1fb5	0.028701643
61	0x3d99028b	0.07471188
62	0x3d822511	0.06354726
63	0x3d34d534	0.04414864
64	0xbd6c1d7b	-0.057645302
65	0xbdaee67c	-0.08540055
66	0x3d1b7e0b	0.037962
67	0xbde1edcf	-0.110316865
68	0x3a80d6b8	0.0009829616
69	0x3d53713e	0.051621668
70	0xbd05cddc	-0.032667026
71	0xbd4f0785	-0.05054428
72	0xbd7c2c3a	-0.061565615
73	0xbdbfbd6a	-0.093623
74	0xbdede1ff	-0.11615371
75	0xbd2048cd	-0.03913193
76	0xbd25c9f5	-0.040475804
77	0xbc960977	-0.01831506
78	0xbc95587e	-0.018230673
79	0x3dbf976d	0.09355054
80	0x3d66ee36	0.05637952
81	0x3c9610ab	0.018318495
82	0xbd7a9f46	-0.06118705
83	0xbdadc0ea	-0.08484061
84	0xbe0e8ee4	-0.13921696
85	0xbd962915	-0.073320545
86	0xbde875bc	-0.11350581
87	0x3c6c760d	0.014432442
88	0xbda3523d	-0.0797467
89	0x3d85329f	0.06503796
90	0x3d5a029a	0.053225137
91	0xbd14a7b4	-0.036292747
92	0xbc16fff7	-0.0092163
93	0xbccee3ed	-0.025255168
94	0x3cc0b7c2	0.023525123
95	0x3d680511	0.056645457
96	0xbd9de3de	-0.07709478
97	0x3d887c43	0.06664326
98	0xbd657b31	-0.056025688
99	0xbbbfec03	-0.005856992
100	0x3d5daf01	0.054121975
101	0xbb2af828	-0.0026087854
102	0xbd5cb157	-0.053880062
103	0x3d91599b	0.07097169
104	0x3db6f1e9	0.089328595
105	0xbd8700b4	-0.06591931
106	0xba86ac9f	-0.0010274834
107	0x3cae4833	0.021274662
108	0x3da5ca15	0.08095185
109	0x3da8771f	0.082258455
110	0xbd126cd9	-0.035748336
111	0xbe0bdb39	-0.13657846
112	0x3d81eba0	0.0634377
113	0xbc830650	-0.015994221
114	0x3c5a32fb	0.013317819
115	0xbd6c86cb	-0.057745736
116	0xbce41e29	-0.027846413
117	0x3d8a24d8	0.06745309
118	0x3d1dba69	0.038507853
119	0x3a5faa58	0.0008532158
120	0x3d5a84e3	0.053349387
121	0xbe1509c7	-0.14554511
122	0x3c090d91	0.008365051
123	0xbdbd4b5f	-0.092428915
124	0xbd47b93b	-0.048760634
125	0x3d451c67	0.04812279
126	0xbe110b8f	-0.14164566
127	0x3a3bfda1	0.00071712775
128	0x3da00a09	0.07814414
129	0xbd6c0b0d	-0.057627726
130	0xbd7432ec	-0.059618875
131	0x3dead05d	0.114655234
132	0xbd07a4b0	-0.033116043
133	0x3db6ae87	0.08920007
134	0x3ce852e3	0.028359836
135	0x3d5796eb	0.05263416
136	0x3ddeddc2	0.10882141
137	0x3d1ef777	0.03881022
138	0xbe07f374	-0.13276464
139	0xbdd8dbfa	-0.10588832
140	0x3dfb7b93	0.12279429
141	0xbe05f9c5	-0.13083561
142	0x3dbea7ae	0.09309326
143	0x3d99a2f1	0.07501782
144	0xbd99eaa1	-0.07515455
145	0xbde00d35	-0.10940019
146	0xbcd4554e	-0.025919583
147	0x3de07273	0.109593295
148	0x3da597ee	0.08085619
149	0xbcd0e3fd	-0.025499338
150	0x3d50c009	0.05096439
151	0x3c8a1db7	0.016859872
152	0x3d3033ac	0.04301803
153	0xbd1bcdbf	-0.03803801
154	0x3d7bbad6	0.061457478
155	0xbdf58f0e	-0.11990176
156	0x3db845d5	0.089976944
157	0x3e0f1cbf	0.1397581
158	0x3d6d41de	0.057924144
159	0x3d648012	0.0557862
160	0x3cecdcd3	0.028913891
161	0x3e06c766	0.13162002
162	0x3dc4abb8	0.09603065
163	0x3cc7ba5d	0.024380857
164	0xbdd7f89c	-0.10545465
165	0xbd802412	-0.0625688
166	0x3d8cde4f	0.068783395
167	0x3d6132cf	0.054980095

fc3.bias f4 [2]
0	0xbc35b837	-0.0110912835
1	0xbd018546	-0.03162124
