명노아/model.pth (torch, 689592 bytes, 26 tensors)

weight f4 [6, 1, 5, 5]
00000000: fd38 1dbc 01bc 89bd 4322 d73d da35 003e
00000010: 4dd1 603d 093a a53d 2704 373e e89b 023e
00000020: 0c9d 51bc 657a 85bd 9047 0e3e cb0f dcbb
00000030: bb6c cfbc eaea 863d b0a8 a0bd 6847 703d
00000040: 01c7 bb3c 9a31 f73d 985b 0bbd 0c05 ac3d
00000050: 0315 ab3d 2ce7 6ebd 0dfd 20bd 24fd 0cbd
00000060: ec32 b6bd 44a1 4ebe 74a8 333e b3a6 c3bd
00000070: d67d 013e 4584 2ebe 4bb7 1abe 40f3 b23d
00000080: 7a53 34bc 56fe 073e bbf9 103d 1cc8 02be
00000090: 9acf b7bd 2e0d 9fbd b60b bf3d 5f5b a53d
000000a0: a980 43be 96d0 9cbc 774c 313e 1df9 0b3e
000000b0: 5836 0fbd 3a40 acbd aa1a 45be eda7 143e
000000c0: 4f22 66bd 1194 283e 663a 2fbe 1755 cb3d
000000d0: 271f 5ebe 65ed ae3d be81 653d deb5 e4bd
000000e0: cc28 d43d 6d27 56be 619a 25ba a915 5abc
000000f0: 8406 143e 6009 d73d c3ed e1bd 0df7 733d
00000100: f934 b93d 532b e6bd 49a0 0e3e a6cc 3abe
00000110: 07d6 ecbd c263 2d3e 3d90 14be 9cb3 253d
00000120: c37a 573e f953 e83d d149 be3d 8ae1 39be
00000130: 207d 223e f96a 683e d893 76bb 89cd 3f3c
00000140: 7ad5 85bd 8ee6 15be 00e6 51bd f678 883c
00000150: f897 3d3d 3279 723d f6c3 3f3e 214e 063d
00000160: 4034 663e a7df 74bd 7371 c33d b649 3f3e
00000170: 5d5b da3d 88c9 9b3c 2f09 603e 7e01 143d
00000180: 2992 e0bd f936 39be fbe2 e53c e462 0fbe
00000190: 286a 25be df65 683e 3161 1fbe 2b3a 7d3d
000001a0: d237 02be 3430 e0bb 5cba 07be d9ee 453e
000001b0: 0af8 853d 99a4 27be 5bd3 a73b 462f db3c
000001c0: 3def 04be 63ae 1a3e 190c 453e ae07 143e
000001d0: 0046 1abc f2ba c7bd 1136 2a3e b5ff 8f3d
000001e0: 40d1 a83d c1b4 14bd 4879 1fbe ca38 d83d
000001f0: d37e 103e bbc2 3e3e 9ecb 193e d45a c03d
00000200: eef2 67bd 2a19 e3bc 3a97 23be d7b7 963d
00000210: ac3a 9f3d d040 c3bd cf0c 5f3e 2b91 44bb
00000220: 247a f2bd 98d0 81bd b6e4 453e ddfe 033d
00000230: 9411 073e 85ab e2bd 2dc1 813c a7aa 04be
00000240: e180 1abd 7ff5 0dbe a1ed 39be e8a9 00be
00000250: 1af5 45bd 2f41 023e
-0.009596107 -0.06725312 0.10504582 0.12520543 0.054887105 0.0806771 0.17872678 0.12754786
-0.012793791 -0.065174855 0.13894486 -0.00671575 -0.025320401 0.06587775 -0.078446746 0.05866185
0.02292204 0.120700076 -0.034022897 0.083994 0.08353617 -0.05832593 -0.039303828 -0.0344211
-0.08896431 -0.20178705 0.17544729 -0.0955328 0.12645659 -0.17042644 -0.15108983 0.087378025
-0.0110062305 0.13280615 0.03539441 -0.12771648 -0.08975144 -0.07766186 0.093284056 0.08074068
-0.19092049 -0.01914243 0.17314325 0.13669248 -0.034963936 -0.08410688 -0.19248453 0.14517184
-0.056185063 0.16462733 -0.17112121 0.09928339 -0.21691571 0.08541373 0.056031935 -0.11167501
0.10359344 -0.20913477 -0.0006317255 -0.013310828 0.1445561 0.10499835 -0.110316776 0.059561778
0.09043307 -0.11238732 0.13928331 -0.1824213 -0.1156426 0.16932586 -0.14508148 0.040454492
0.21042924 0.113441415 0.09291423 -0.18152443 0.15868044 0.22697057 -0.0037624743 0.011706718
-0.06534858 -0.14638731 -0.051244736 0.016659241 0.046287507 0.059197612 0.18727097 0.032789353
0.2248087 -0.059783604 0.09543123 0.18680462 0.106619574 0.019016996 0.21878503 0.036134236
-0.10965378 -0.18087377 0.028062334 -0.14002568 -0.16153777 0.2269511 -0.1556442 0.06182305
-0.12716606 -0.0068416838 -0.13254684 0.19329394 0.0654145 -0.16371383 0.005121631 0.02675594
-0.12981887 0.15105586 0.19242896 0.14456055 -0.009416103 -0.09752454 0.16622187 0.07031194
0.08243036 -0.036305193 -0.15573609 0.10557707 0.1411088 0.18628971 0.1501908 0.09392324
-0.05662816 -0.02772196 -0.15975657 0.073592834 0.07774863 -0.095338464 0.2178223 -0.0029993753
-0.11839703 -0.06338614 0.19325528 0.03222548 0.131903 -0.11067871 0.015839184 -0.12955724
-0.037720565 -0.1386318 -0.18157054 -0.12564814 -0.04832945 0.12720178

bias f4 [6]
00000000: 9da2 cabd 56d4 cbbd fcd7 88bc b85b d7bc
00000010: 1c22 edbd d575 fabd
-0.09894297 -0.09952609 -0.016704552 -0.026288852 -0.115787715 -0.12229506

weight f4 [16, 6, 5, 5]
00000000: 996f 003e ad7c f33d 1c9e 553b 49f4 6d3c
00000010: 1e6d 9e3d 7161 21bd f8b0 493d 4df0 1a3d
00000020: d409 adbd e73c 703d ae59 723d 4921 943c
00000030: 2a66 3ebc b611 ec3b ead1 f7bb 62f9 133d
00000040: 7bee 77bd 6c40 9bbc 9b86 0f3d 2a38 6d3c
00000050: 97c9 a73c cd88 053d a2f8 263c 99b9 aa3d
00000060: 7df5 c43b ea77 e93c b621 12bc 071c 16bc
00000070: b723 46bd 84c2 713c 9df9 c9bd fe27 a7bd
00000080: 280a 813d 2895 3e3d 26c5 8dbd 00e8 cf3c
00000090: a2cf 10bd 4e2d 2c3d 54d3 673d d1a0 29bd
000000a0: 0cfc 6d3d 2e73 313c 3c2a febb e860 af3c
000000b0: d573 183d 4ee0 143d 97f4 adbc 9a26 24bd
000000c0: d67d c53d eb4b 16bc b003 5f3d 83db 833d
000000d0: d481 da3d 9d86 c0bc fcca d8bc d632 57bd
000000e0: 63c3 69bd 7f03 4f3c de59 16bd e17a b2bd
000000f0: 7949 a23c 5062 ac3d 6575 b13c 6a1d 6c3c
00000100: c8ef d939 b252 00be 54a9 273d 068f b43b
00000110: a08b 0fbd 149f cabc 9fb7 13bd b278 ca3c
00000120: 892d 753b 7b10 8d3c 458b f63c eea9 e43d
00000130: 8b59 cc3c 9f82 443d 9883 8a3d 00b9 743d
00000140: 0d3c 4b3d 99b3 50bd 76f7 11bd 135c f13d
00000150: ad05 ce3d 1c7e c4bd 3024 8b3a 0775 ee3a
00000160: 9210 bbbb e17e 71bd a6ac 293d 1079 63bd
00000170: 9282 063d 991e 593d bc2f f63d 29a5 92bd
00000180: 3abf 9c3c 9506 f03d a3ac a9bd 9db8 e4bb
00000190: 2f80 fa3b ea8d 15bd 51c2 963c 461f cdbc
000001a0: 137b c53c 63ae e3bc 0bd6 bd3d e1a4 42bd
000001b0: 4c9a a0bc 6bfd 3bbc c0dc 98bd a109 813d
000001c0: 534b a63d c972 953c 039c 92bd 3ef8 ba3d
000001d0: e157 cb3d e662 f93c 9613 9ebd 1f75 e6bc
000001e0: 69ad cebb c75d 973c f047 0cbd d73e 83bd
000001f0: c5f2 61bd a37b ffbc 0d6e 35bd 4d80 b43c
00000200: 9e5e 663c 1e51 cc3d 804e fd3c 23f0 a83c
00000210: c734 ae3a b691 003e ee24 e53d 2b58 82bd
00000220: 00e6 593d 4d81 0dbd a66c c03d 50c9 263d
00000230: 5ab0 38bc c30e 5e3d 93b4 99bd 95b9 bdbb
00000240: d5fb b6bb 69ac 263d 178e 2fbd 999e c33d
00000250: 5c24 b33b f0e9 b7bd 5498 613d c0f5 e0bd
00000260: 8129 8f3d f103 a7bb 64f0 fdbc 5631 aabc
00000270: 67d3 e6bc aebd 1f3c c20e f63c 064e a9bd
00000280: 562a 88bd 4bf4 7a3d e52e 18bd 04a4 843c
00000290: 13a5 4bbd 1e10 f7bc 98a5 773c d433 4b3d
000002a0: b422 93bd 1ec5 1ebd 779e dcbd 4784 25bd
000002b0: 3c7a fa3c d405 f03b 6788 cdbd 63e9 1c3c
000002c0: 7c2b ce3d 3773 87bd 34d0 a5bc 7123 d4bc
000002d0: 201e 79bd 0c89 d3bc 08cb 13bd 60e6 dabd
000002e0: 8dd3 153d 68a8 b03d b8d3 0f3d e0a0 8abd
000002f0: 6537 b73c 1ab6 7a3d 7dd0 123c 73f7 4f3d
00000300: 4bb8 dfbd 3cbf e23d 006b 9bb9 7f5b 543d
00000310: 883b 2dbd 0408 ce3c 041b 2abd a218 bbbd
00000320: aba7 b6bd 530f 65bd f90c 5abd f6c1 ffbc
00000330: 44e6 5a3d 47c0 4fbd b04c eb3c 89ea 4abd
00000340: 50ca 9f3d a926 0e3d 55d9 6bbd b53b a63c
00000350: 3c72 d4bd 08fe a8ba 9266 5dbc a84f 5b3d
00000360: 5af4 cdbd 3102 8aba d533 0d3d 64a2 85bd
00000370: 4451 1abd af73 52bd 0e1c 39bd d5e1 37bd
00000380: 1b69 a63d 5315 b8bd 6936 b73c 4599 be3d
00000390: 488c aebd 2481 acbd 0dbb 7c3b bc0a ac3d
000003a0: 5220 e43d e9d1 f83c 844c e6bc e2c2 95bc
000003b0: 8ecd 8bbc 7a9e 40bd 4c6b 903c 85d7 09bc
000003c0: 3327 aabd 0973 1dbd ca90 9abc e2aa cfbb
000003d0: 7643 243d 39c2 203d 13f3 c6bd 2a58 88bd
000003e0: bb4b d4bb bda1 383c ece2 c33d ca57 723c
000003f0: 440b fabc 5a74 d9bb ad3a 633d 0b9e 4dbd
0.12542571 0.118890144 0.0032595461 0.014523574 0.07735656 -0.039399568 0.049241036 0.037826825
-0.0844914 0.05865183 0.059167556 0.018082278 -0.0116210375 0.0072042597 -0.0075628655 0.0361265
-0.060530167 -0.018951617 0.03504048 0.014478723 0.020481868 0.032601167 0.010191115 0.08336181
0.00601071 0.028499562 -0.00891917 -0.009161956 -0.048373904 0.014755849 -0.09862063 -0.08161925
0.06300765 0.046528965 -0.06922369 0.02537918 -0.035354264 0.042035393 0.056598023 -0.041413132
0.0581017 0.010830684 -0.0077564996 0.021408513 0.03721984 0.036346726 -0.021234794 -0.040075876
0.09643142 -0.009173374 0.054446876 0.06438353 0.10669294 -0.023501689 -0.026463978 -0.052538715
-0.0570711 0.012635111 -0.036706798 -0.087148435 0.019810425 0.08417189 0.021662423 0.01441131
0.00041568116 -0.12531546 0.04093297 0.005510214 -0.035045266 -0.024734057 -0.036063787 0.024715755
0.0037411174 0.017219773 0.030095706 0.11165224 0.024945041 0.047976132 0.06763381 0.059746742
0.049617816 -0.050952528 -0.035636388 0.1178514 0.10059676 -0.09594366 0.0010615643 0.0018192836
-0.0057087624 -0.05895889 0.041424416 -0.055535376 0.032839365 0.053007696 0.12020823 -0.07160408
0.019134153 0.117200054 -0.08284881 -0.0069800154 0.007644675 -0.036512293 0.018403204 -0.025039326
0.024106538 -0.027793115 0.09269341 -0.047520522 -0.019604824 -0.011473994 -0.0746398 0.06300665
0.08119836 0.01824321 -0.07158663 0.0912938 0.09928871 0.030442666 -0.077185795 -0.02813202
-0.006307293 0.018477334 -0.034248292 -0.0640847 -0.055163164 -0.031186884 -0.044294406 0.022033835
0.014060644 0.099764094 0.03092122 0.020622319 0.0013290875 0.12555584 0.111886844 -0.06364473
0.05319786 -0.03454714 0.09395723 0.04071933 -0.011272514 0.054213297 -0.07505145 -0.0057899454
-0.00558422 0.040691767 -0.042860117 0.095517345 0.005466981 -0.08980167 0.055076912 -0.10984373
0.06990338 -0.0050969054 -0.030998416 -0.020775478 -0.028176976 0.009749813 0.030036334 -0.08266835
-0.066487 0.061268132 -0.037154097 0.01619149 -0.049717974 -0.030159052 0.015115164 0.049609974
-0.071843535 -0.038762204 -0.10772412 -0.040409353 0.030575864 0.0073249135 -0.10035782 0.009577128
0.10066888 -0.06613772 -0.02024088 -0.025895806 -0.060819745 -0.025822185 -0.036082298 -0.10688472
0.036578704 0.08625871 0.03511402 -0.06768966 0.022365281 0.06120882 0.00896084 0.050773095
-0.10923823 0.11071631 -0.00029643625 0.05184507 -0.0422931 0.025150307 -0.04152967 -0.09135558
-0.08918699 -0.055922817 -0.053235028 -0.031220417 0.053442255 -0.05072048 0.02872309 -0.049540076
0.0780226 0.034704838 -0.05758031 0.020292142 -0.10373351 -0.001289309 -0.013513224 0.053542763
-0.10056372 -0.0010529218 0.03447326 -0.06525114 -0.037675157 -0.051379856 -0.04519277 -0.044893105
0.08125516 -0.08988442 0.022364812 0.093065776 -0.0852285 -0.08423069 0.003856364 0.08400485
0.11138977 0.03037353 -0.028112657 -0.018281404 -0.01706579 -0.047026135 0.017629288 -0.0084132
-0.08308258 -0.038439784 -0.018867869 -0.0063375095 0.0401034 0.039247725 -0.097143315 -0.06657441
-0.0064787543 0.01126903 0.09564766 0.014791438 -0.03052295 -0.0066361846 0.05547588 -0.05019955

bias f4 [16]
00000000: 3c78 35bd 3aec a03d 7fa0 2b3d 4f46 3d3d
00000010: 81eb b6bd 0dab c3bc ddc3 473d 5c16 ed3a
00000020: c0ea 59bc 7561 b03c 420f 53bd e511 853c
00000030: d697 4bbd 4bc9 a8bd 9653 48bd 58cf 973d
-0.044304118 0.07857557 0.041901108 0.04620963 -0.089316376 -0.023885274 0.048770774 0.0018088329
-0.013300598 0.021530846 -0.051528223 0.016243884 -0.04970535 -0.082415186 -0.04890784 0.074125946

weight f4 [120, 1296]
00000000: 5186 51bd 7412 26bd 4043 33bd 2f0d acbc
00000010: 033f d93c fbae 66bc 1641 9e3d 3962 f4bc
00000020: af5c c73c bec5 a1bc be22 fa3a 76f9 66bb
00000030: bac5 9aba 48fa 3fbc c53a 0abc 1554 fa3c
00000040: 893d df3c cd21 343d 86c3 0dbb 990e 43bc
00000050: 89f5 0fbd 9deb b3bc a619 213c d3d9 533d
00000060: 1953 acbc dba8 903d 56ac f1bc add5 80bb
00000070: 10b7 1c3c d659 503c 4415 2c3b 6708 26bd
00000080: 8765 0abc 5c4d 12bb db7e d6bb 248d a4bc
00000090: e4f9 513b 424a 753c 9e86 0dbc ebce 153d
000000a0: 01ba d5b9 2a48 023c fcde ef3b dffa 093d
000000b0: 0687 b13c 9d52 02bc ae1b 843d 6fbf 79bc
000000c0: e1e3 85bc b0b7 863c bbe3 fb3c 6370 cfbc
000000d0: 34f0 28bb f69d a63c b299 023d 9b7e 20bb
000000e0: 98e8 3f3c 8b82 9dbc 697c 08bd ef6e 2cbc
000000f0: 2cbc 483d f379 983b f222 933b 2bd1 613c
00000100: 51f0 203d 802d ca3c bbc2 093c caf1 873c
00000110: c132 1bbd 8b82 75bd 20b4 91bd 263e babc
00000120: 2765 cf3c a692 d43c d680 773c dd6a 4bbc
00000130: 4c42 b0ba d390 5b3c ec96 d63a 2fe2 1abd
00000140: c2ac 03bd 586b 0ebd 0e6d 853c 93f8 8abc
00000150: 2325 973c 33ef ad3c 6414 8b3c f88b 89bc
00000160: f606 b5bc 3449 903b 7c83 d2bc 4bc3 b23c
00000170: 0d0d 8cbd 7d19 1d3d 237f 82bc 5a66 5c3b
00000180: 8a86 ba3c f9bb 2bbd 0e79 0cbb b00b 2ebd
00000190: c5e7 3c3b ff52 e8bb e2c4 063d c881 bb3c
000001a0: 46f4 0bbd 8ecd 3a3d 3f71 0cbd d7f9 23bc
000001b0: e651 8c3c ae61 70bd dd8d c5bc efaa 0ebd
000001c0: f352 703d 7e85 de3c 6acd a2bc a65f 28bc
000001d0: 1af5 073c a58c c53c e748 11bc 6b73 623d
000001e0: 10dd fe3b a6ab 6d3d f985 1f3d 0456 213d
000001f0: e327 503b 6397 b4b9 fe2c 01bd 397d 0bbd
00000200: 16fe 62bc 462d bb3b 9a84 c7bc 82d9 b0bc
00000210: 9e09 853d f1a7 4abd 0ec1 89bd c4a4 f83b
00000220: 5662 803c 034c a73c a13f 41bd ecf6 1bbc
00000230: 7082 f03c 0674 ad3b d782 90bb 2ce9 643c
00000240: 693f 033d 4b50 20bc dfe9 17bc 538f 7ebd
00000250: eefb 4f3c b811 febc d3c2 59bc 42c1 6abc
00000260: 876c a23c c166 753d 3d23 19bd ea1c 21bb
00000270: 3664 a2bc b595 3abc e67b 6f3a 5db3 363b
00000280: 513e 8a3c be84 483b 7773 223b 72c5 4b3d
00000290: 6842 233d 3c2d 8ebb 6959 04ba ad41 413d
000002a0: 9ca6 4abb 5a19 18bd ff6c 8f3c 125c b63c
000002b0: 8731 7fbc ce09 fabc cd92 e83c 48ad 6f3d
000002c0: 8f77 263d 2ba7 003c a470 0d3d 80ff 22bd
000002d0: 5446 f03c fad4 3b39 981c 38bc 338c 88bd
000002e0: 6cc4 1b3d b79c 4a3d 9834 b539 89de 993a
000002f0: 7369 80bc d929 e4bc a111 8ebc c6e5 1cbc
00000300: ac01 2e3d a856 f53c 7705 4bbd 710d 81bb
00000310: 3d8c 9dbc 27f4 d23c 9f3e 27bd d8d2 903c
00000320: 0cdf b9bb 43de fb3c 9800 bc3d 939a e5bc
00000330: 144e 203d d867 71bd 16bb f93c 4a69 b33b
00000340: cbc6 6f3d 1626 9dbc 9fb4 23bd bf74 9cbc
00000350: 41da 0a3c d905 723d a0ed 043d 378b a63b
00000360: c811 d33b 29cd 5a3d a656 c0bc f06b 903d
00000370: 6cae 473c 14a2 e0bc bc31 f33c 521c 853d
00000380: b2e4 933c 53ff c43d 48dd bb3a a94e ae3c
00000390: cacb 10bd 3f46 02bc 805b b03c 5355 d23c
000003a0: b1ce 6d3d 3e29 993c 3e46 fbbc 4b64 77bc
000003b0: 7765 abbb 80ac d43c 9cb3 a03c 2560 0abd
000003c0: 2e86 15bd 9df4 c93b c9fe 25bd bb00 9dbc
000003d0: 6e60 15bd 7e06 dabc 272a 093d 7c20 82bd
000003e0: 8f94 41bb 8af1 16bd 84d2 5b3d 7dc4 243d
000003f0: 3fa2 303d ae95 1d3c 2ba1 2a3b 596d a93d
-0.051153485 -0.040544942 -0.043765306 -0.02100238 0.026519304 -0.0140798045 0.07727258 -0.029831992
0.024336187 -0.019747611 0.001908384 -0.0035243905 -0.0011808195 -0.011717387 -0.008436863 0.030557672
0.027251022 0.043977547 -0.0021631434 -0.011905336 -0.03514627 -0.021962935 0.009832775 0.051721405
-0.021035718 0.070634566 -0.029501121 -0.003931722 0.00956513 0.012716731 0.0026257792 -0.040535357
-0.008447058 -0.0022323942 -0.006545884 -0.020086832 0.0032039816 0.014971318 -0.008638052 0.036574285
-0.0004076511 0.007951776 0.007320283 0.033686515 0.02167083 -0.007954267 0.06450592 -0.015243395
-0.016344013 0.01644501 0.030748239 -0.025322145 -0.0025777938 0.020338994 0.031884857 -0.0024489525
0.0117131695 -0.019227287 -0.03332177 -0.0105244955 0.04900758 0.0046532094 0.00449025 0.01378278
0.039291684 0.0246799 0.008408244 0.016594786 -0.0378902 -0.05993895 -0.07114434 -0.022734713
0.025316788 0.025948834 0.0151064005 -0.012415615 -0.0013447492 0.013401228 0.0016371883 -0.03781336
-0.032147177 -0.03477034 0.016287353 -0.016964233 0.018450325 0.021232223 0.016977496 -0.016790375
-0.022098046 0.0044032577 -0.025697462 0.021821639 -0.06838427 0.038354386 -0.015929764 0.0033630342
0.022769231 -0.04192731 -0.002143446 -0.042491615 0.002882467 -0.007089972 0.032902606 0.022889033
-0.034168504 0.04560619 -0.034287687 -0.010008297 0.017128896 -0.058686905 -0.024115497 -0.034830984
0.058672857 0.027163263 -0.01987334 -0.010276711 0.008298183 0.024114916 -0.008867479 0.055285852
0.0077778175 0.058025025 0.038946126 0.03938867 0.0031762056 -0.00034445067 -0.03153705 -0.03405497
-0.013854524 0.005712184 -0.024355222 -0.02158809 0.06495975 -0.049476568 -0.067262754 0.007588001
0.01567189 0.020421987 -0.047179822 -0.00951932 0.029359072 0.005293372 -0.0044101286 0.013971608
0.032042895 -0.009784768 -0.009272068 -0.062148403 0.012694342 -0.031014308 -0.013291079 -0.014328303
0.01982714 0.059912447 -0.03738712 -0.0024583885 -0.019823175 -0.011388232 0.0009135589 0.0027877905
0.016875418 0.0030596699 0.002478806 0.049748845 0.03985825 -0.0043388885 -0.00050487235 0.047181774
-0.003092206 -0.037133552 0.017508028 0.0222607 -0.015575773 -0.030522253 0.028390313 0.058514863
0.040641364 0.007852356 0.03453125 -0.039794445 0.02933041 0.0001791305 -0.011237286 -0.06667366
0.03802912 0.04946586 0.00034562196 0.0011739294 -0.015675282 -0.027851986 -0.01734239 -0.009576267
0.042482063 0.029948547 -0.04956576 -0.00393837 -0.01923191 0.025751187 -0.040831205 0.017678663
-0.005672341 0.030745631 0.09179801 -0.028027808 0.03913696 -0.058936924 0.030484717 0.005475198
0.058539193 -0.0191832 -0.039967176 -0.019098638 0.008474887 0.059087608 0.03245318 0.0050825137
0.0064413287 0.053418312 -0.023478817 0.070518374 0.0121875815 -0.027421035 0.029686801 0.06499542
0.018053386 0.09619012 0.0014332915 0.021277742 -0.0353506 -0.007951318 0.021528006 0.025675451
0.058058444 0.018696424 -0.030673143 -0.015099595 -0.0052306014 0.02596116 0.019616894 -0.033783097
-0.036504917 0.0061631934 -0.040526185 -0.019165387 -0.036468916 -0.026614424 0.033487465 -0.06353852
-0.002953801 -0.036851443 0.05366756 0.04022645 0.04312348 0.009618206 0.0026036005 0.082728095

bias f4 [120]
00000000: f380 24bd fa08 05bc 0d54 393d 8710 09bd
00000010: d9aa 913c 7c5a 403c 6846 0abc a7bc 97bd
00000020: 6fd4 893b c283 09bd 0d4d 20bd d5a6 b53c
00000030: 8480 07bb cc17 8a3d 8e02 20bc ad54 743d
00000040: 01fd de3c fa59 86bc 39bd ce3c a99c 2a3d
00000050: 9596 5c3c e83c 7fbb 0bc6 f33c 93c2 2b3c
00000060: 222a 1abd 94cf d73c d467 0f3c f8ad 1e3c
00000070: 7c5b 10bd c6fe a3bb 463a 4d3d 744a 4a3d
00000080: 18cd d13b 557c dcbb e3e0 1f3d 1e9c 65bb
00000090: bd42 2d3d 5596 08bd 6951 923c b010 af3c
000000a0: 3248 c43c eee7 e13c 1ffd 36bc 078f 9abc
000000b0: cb71 583c 5a44 07bd bbcf 71bd 03c5 92bc
000000c0: 201e 32bd c70d dfbc cac5 3c3c ac09 1d3c
000000d0: 1501 02bc 491d 2e3d 0475 183b b273 0bbd
000000e0: 180c cb3b 0d5b 263c 2f31 943c c2aa d0bb
000000f0: 8da3 9db9 348e c6ba 1505 ebbc aa0b 0a3c
00000100: 7cf7 2eba 0ba4 803b fa1b 7fbc 99da 25bc
00000110: 807f d03c 91f3 82bd e8d6 c13b 04a2 a03c
00000120: 35a1 923c e9f7 02bd ce31 9fbb f6c7 b13c
00000130: e654 79bd 34e9 003c d3be 23bd f196 8dba
00000140: 1030 69bc 53b6 06bd 3a18 793c 6355 4bbd
00000150: 5f0b 563c 327d a13c 2f62 18bd 399a 0abd
00000160: 43cd 9a3c d2fe dbbc eaf6 9ebc aeb5 50bc
00000170: 7bdc c63b af6a 9b3d a3f1 88bd 2259 cf3c
00000180: 5ec8 b53c e0e9 ecbb d42f 113d 2a9b 863c
00000190: 3fea 863c f89a 31bb 4e60 1a3b 93cf fcbc
000001a0: 288c aabc ff41 45bc 64d6 b4bc 252a 9abc
000001b0: 414c 4b3d 750e d6bc 45a9 cb3a 7647 b33b
000001c0: e5b1 a73c 4770 543c 1777 d0b9 503c dc3c
000001d0: d695 6aba 2393 ffbc 2838 083a aeba 23bd
-0.040162038 -0.008119816 0.045246173 -0.033463027 0.017781662 0.011740323 -0.008439638 -0.074090295
0.0042062323 -0.03357292 -0.03913598 0.022174278 -0.0020675967 0.0674282 -0.009766234 0.059651066
0.027220251 -0.016400326 0.025236713 0.04165331 0.013463636 -0.0038946215 0.02975752 0.010483402
-0.037637837 0.026344098 0.008752782 0.009685032 -0.035243496 -0.0050047366 0.050104402 0.04938741
0.006402623 -0.0067286887 0.039032828 -0.003503568 0.042299975 -0.033346493 0.017861085 0.021370262
0.023960207 0.027576413 -0.011168747 -0.018867029 0.013210724 -0.03302417 -0.059035998 -0.017916208
-0.04348576 -0.02722825 0.011521766 0.0095848255 -0.007934828 0.042508397 0.0023263106 -0.034045883
0.00619651 0.010153544 0.018089859 -0.006368012 -0.00030067228 -0.0015148581 -0.028688947 0.0084256325
-0.0006674451 0.0039258054 -0.015570635 -0.0101229185 0.025451422 -0.06394113 0.0059155114 0.019608505
0.017899135 -0.031974707 -0.004858232 0.021701794 -0.06087198 0.0078681 -0.039976906 -0.001080243
-0.01423265 -0.03288872 0.01520353 -0.049641978 0.0130642345 0.019713018 -0.03720301 -0.033838484
0.018896705 -0.026854906 -0.019404847 -0.012738628 0.006068764 0.07588708 -0.066867135 0.025311057
0.02219027 -0.0072300285 0.035446003 0.01643141 0.01646912 -0.0027100425 0.0023555937 -0.030860698
-0.020818785 -0.0120396605 -0.022074886 -0.018818924 0.04963327 -0.02612994 0.0015538117 0.0054711653
0.020470569 0.012966222 -0.0003976158 0.026884228 -0.0008948719 -0.03119809 0.0005196356 -0.039972953

weight f4 [84, 120]
00000000: 0d3c f8bb 5b01 5ebc 5b67 cbbd 2d77 223d
00000010: e40c c3bd 1f59 30ba bddc 0cbd c02c c0bd
00000020: a070 58bd db49 9b3c 28b9 0f3d 5ad4 db3a
00000030: b00c 0dbc a1b2 14bd 5cc0 873d ac76 363d
00000040: 441e 9a3d 2ead 173d 69be 823d 3027 693d
00000050: e105 82bc 81b9 43bd 65e8 823d 44b0 c33d
00000060: afc2 0f3d adf1 783d a905 9bbc 5b01 89bd
00000070: bfaf d13d 7217 463d 22e7 7b3d de6a 873a
00000080: a43f f0b8 dcbe 85bc bd60 bdbd c3ec 05bd
00000090: ecd5 5a3d b262 47b8 2912 2bbc caa1 be3a
000000a0: ae59 683d 7f15 c8bd 9703 86bd 5d82 1c3c
000000b0: 035d fbbd 54e3 413d a2aa 0c3c 3eee 173e
000000c0: bec0 2f3c 55dd af3d 89d8 353d 0281 56bc
000000d0: 2e72 443e 90b3 b9bd 03af 2fbc 0df1 4b3c
000000e0: 393a 853d b5f0 ab3d 4113 11bd ffd6 7f3d
000000f0: 8c1e 743c c044 58bd b346 d8bd 9e55 aabc
00000100: 7ace 1c3d 3580 fdbd 73ff d43d 76a3 04bd
00000110: ddda fe3b 47da 593d 97cc f0bc 7503 8a3c
00000120: 1e22 84bd 5030 c93d 602e 38bd ea0b aebd
00000130: 9728 e83d fbe5 843d ddfd d7bd a453 c93c
00000140: 804c abba 3420 353c 35a4 d2bb e515 3a3d
00000150: f7d4 f03c 4c26 8d3c 1fa4 2ebc caf0 a13d
00000160: 4ecf 90bc f62d a73d 2ce8 4d3c b419 61bd
00000170: d044 263d c211 56bd 5bcb 8dbc c56e 0dbe
00000180: 1fcc f13c 754a a8bd a204 6e3d 3aa0 66bc
00000190: 34bf ca3d 918e f93c e138 f9bd e8d5 1f3d
000001a0: 79b2 6dbd daa3 7e3d 81b9 b93d 2472 0fbb
000001b0: 62d4 7dbc a2c0 b8bc e819 48bc e1fd 913c
000001c0: d52e 633d a77a 2abb b2b6 1ebd d18b cbbd
000001d0: 47c0 fbbc 5bba 6d3d 28fc b63d 8903 a7bd
000001e0: aba8 73bc 948e 863c a932 cd3c 4b0e 3ebd
000001f0: 082c 953d d52a 79bc 5d36 7c3c 6ef9 b0bd
00000200: 6791 51bd 395b 0b3d dbcf ce3c 2217 6e3d
00000210: 147b c0b7 6f58 453d 150b 0a3d 88e2 7cbb
00000220: 165f e5bc dbb8 abbc eb6f afbd 8271 563d
00000230: a241 87bd 7f47 c13a 0cdc 2cbd f5f8 7d3b
00000240: 93fd 11bd 82a9 8b3c 6b90 c63c 58ed d5bc
00000250: 8c28 abbd 4619 c03b d8d7 2b3d d823 93bd
00000260: 5d21 68bd 3312 aabd c015 703d e5ca 0b3c
00000270: 95ad fcbc 04da 083c 10ac c13c 5585 06bc
00000280: 4773 0c3c eb8b 44bd aa89 81bd 1451 8bbd
00000290: 5cda 513d 57da 0e3d 4c90 203d b996 d23c
000002a0: c64c 48bd da6a 8b3d 27fd 0b3c e0c1 80bd
000002b0: 69ba 84bd de1b c7bc b45c 0c3d ab48 84bc
000002c0: bb7b 0fbd a47a 1cbd f5e5 43bc 073b a5bc
000002d0: c4db 793d 3df3 88bd 5676 0c3e 617e 81bb
000002e0: e55a 0c3d e136 15bd 0a45 90bd e406 043d
000002f0: 8999 b13c 682b b5bd 9485 be3c 03a1 f93c
00000300: eed8 d53c ddf4 ccbd 9184 dbbd 7416 55bd
00000310: edec 523d e95c 873d 2b8e 28bd f2dd 77bd
00000320: 4ba1 23bd de32 3b3d 1195 94bd 7ad9 723d
00000330: b1ea 89bd d620 2ebd 76ec b8bd af66 90bd
00000340: b006 013b bc97 d1bc 6d3e c6bd 7160 b03b
00000350: bd18 4a3c 0e63 7a3d 6018 0a3c 8b5c eabc
00000360: 75ff 213d 9ecc d53d 5a86 4d3b bc21 d73d
00000370: 0be2 61bc 3695 a93d 83e0 b6bd a59d 553d
00000380: 26c0 bc3d c48b cd3c 9f5d d73b e0c4 f8bc
00000390: 00f7 4bbd ceb6 2b3d 0c91 5cbc 780e 7fbd
000003a0: 7627 843d b969 82bd 815f 873d 2142 903d
000003b0: 3270 853d 4444 bcbd 9675 1ebd 80ba c33d
000003c0: f004 bf3b b6c0 513d 1bc2 81bd d270 a2bc
000003d0: df29 a8bc 78aa c7bc f490 b23c 0394 27bd
000003e0: 95f8 073d 0293 39bd 2a45 553c 5026 85bd
000003f0: 0e4b 233d 9edd 08bd 2d1f 25bd 0c9e a93c
-0.007575518 -0.013550128 -0.09931823 0.039664436 -0.09523943 -0.0006727147 -0.0343902 -0.093835354
-0.052841783 0.018956115 0.035088688 0.001677166 -0.008608982 -0.036303166 0.066284865 0.044546768
0.07525304 0.03703039 0.06383974 0.056922138 -0.015871944 -0.047784332 0.06391982 0.095551044
0.035097774 0.060777355 -0.018923597 -0.06689712 0.10238599 0.048362203 0.061499722 0.0010331532
-0.00011455946 -0.01632636 -0.09246967 -0.032696497 0.053426668 -4.7537214e-05 -0.010441341 0.0014544067
0.05672615 -0.09769725 -0.065436535 0.009552565 -0.122736 0.047335938 0.008585604 0.14836976
0.010727106 0.085871376 0.044395957 -0.013092281 0.19184181 -0.09067452 -0.010722878 0.012447608
0.06505246 0.083955206 -0.035418753 0.062460896 0.014899861 -0.05279994 -0.1056036 -0.020792779
0.03828285 -0.12377969 0.104002856 -0.03238245 0.0077775554 0.05318668 -0.029394431 0.016847352
-0.0645182 0.09823668 -0.0449661 -0.08498366 0.11335867 0.06489178 -0.105464675 0.024576016
-0.0013069063 0.011055041 -0.0064282664 0.045431037 0.029398425 0.017230175 -0.010659247 0.07907255
-0.017676976 0.08163063 0.012567561 -0.054956153 0.04059297 -0.05226303 -0.017308882 -0.13811786
0.029516278 -0.082173266 0.058109887 -0.014076287 0.0989975 0.030463489 -0.12169052 0.039022356
-0.058031533 0.06216798 0.09068585 -0.0021888101 -0.015492531 -0.022552792 -0.012213208 0.017821254
0.055464584 -0.0026013048 -0.03874845 -0.09938777 -0.030731333 0.05803905 0.08934814 -0.08154971
-0.014871757 0.016425408 0.02504857 -0.04640035 0.07283789 -0.015207966 0.015393821 -0.08641325
-0.051164057 0.034022544 0.025245598 0.05812753 -2.2945496e-05 0.04818004 0.033701975 -0.0038587172
-0.027999442 -0.02096217 -0.085662685 0.052354343 -0.06604315 0.0014746039 -0.04220204 0.0038753126
-0.035642218 0.017048601 0.024238786 -0.02611415 -0.08357343 0.005862388 0.04195389 -0.07184571
-0.056672443 -0.083042525 0.058614492 0.008532261 -0.03084449 0.00835276 0.023641616 -0.0082105
0.008572406 -0.047985 -0.063250855 -0.06802574 0.051233634 0.034876194 0.039200112 0.025706636
-0.04890134 0.0680749 0.008544243 -0.06286979 -0.064808674 -0.02430528 0.034268096 -0.016147932
-0.035030108 -0.038202897 -0.0119566815 -0.020169748 0.0610006 -0.06687019 0.13717017 -0.003951833
0.03426637 -0.03642929 -0.07044418 0.032233134 0.021679657 -0.0884617 0.023257054 0.030472284
0.026104417 -0.100076415 -0.107186444 -0.052023366 0.05149548 0.06609518 -0.041151207 -0.060514398
-0.039948743 0.045702808 -0.07254995 0.059289433 -0.06734217 -0.042511784 -0.09029476 -0.07050835
0.0019687824 -0.025585048 -0.096798755 0.0053825905 0.012335 0.061129622 0.008428663 -0.028608581
0.039550263 0.10439418 0.0031360597 0.10504481 -0.013786803 0.08280413 -0.08929541 0.052152295
0.09216337 0.02509106 0.00657244 -0.030367315 -0.049796104 0.041922383 -0.013462316 -0.062269658
0.06452839 -0.06367821 0.06610013 0.07043863 0.0651554 -0.09192708 -0.038686357 0.095570564
0.005829446 0.051209174 -0.06335851 -0.019829188 -0.020527778 -0.024373278 0.021797635 -0.04091264
0.03319605 -0.045306213 0.013016978 -0.06501448 0.0398665 -0.033414476 -0.040312935 0.020705245

bias f4 [84]
00000000: 3de5 52bd 6b4c a2bd 93a9 73bd 0b34 a8bd
00000010: b7d2 923b f9fc 073d 10d7 1dbd d5d4 e93b
00000020: b17b 8bbb 57b5 963d 8c9f 213d 6320 3cbd
00000030: f69a b1bc db8b 1e3b 2c20 163b ffd1 28bd
00000040: aeb9 1d3d bb76 95bd cb9b 873d d9bd 823d
00000050: a69d 483c a551 863d e48b 9fbb 6ca1 b13d
00000060: 52a2 7bbd d472 533c 3186 7d3c 3c58 b83d
00000070: ae46 96bb 8e62 9e3c 062e 09bd 9a8b 7fbd
00000080: 2e36 6b3d f685 913d b4e6 abbd 57d6 72bd
00000090: cfbc 4bbc be45 69bc c146 8c3b cf94 08bd
000000a0: 5c63 8c3d f386 82bd dfd0 4a3d 6ccd 92bd
000000b0: bff7 9e3d 4f96 bb3d e69d 843d 3e8d 183d
000000c0: b318 0a3d 44fd b2bb 237f 703a 4803 023d
000000d0: 3a14 23bd c4a6 8fbd 3215 dd3b ef6e cfbc
000000e0: b345 83bd b5b3 803d e2d6 77bd b5d8 31bd
000000f0: b4b7 d33d db23 96bd 6e10 733d c11f f8bc
00000100: 806c 483d 6b1b 3cba fdfc b23c b7d8 78bd
00000110: e8dc 8d3d f217 f2bc 5bba 5bbc cf82 c73b
00000120: 123c fb3c f3cc 96bd 2152 3fbd 9522 9fbd
00000130: 2ea2 c7bc daeb 06bd f5ec 833d 1bc7 56bd
00000140: 0aec a3bd 1394 c8bc 0f6c 5a3a 5818 b8bd
-0.05148815 -0.07924732 -0.05948789 -0.082130514 0.0044806856 0.033200238 -0.038535178 0.0071359673
-0.0042566885 0.073588066 0.039458796 -0.045929324 -0.021680336 0.0024192247 0.002290736 -0.041215893
0.038507156 -0.07298037 0.06621512 0.06383867 0.012244618 0.06558541 -0.004868971 0.08673367
-0.061434098 0.012905795 0.015473888 0.09001204 -0.0045860624 0.019334104 -0.033491157 -0.062388994
0.057424717 0.07105629 -0.083936125 -0.05928644 -0.012435152 -0.014237819 0.0042808955 -0.03334504
0.06854889 -0.06373396 0.0495156 -0.07168087 0.077620976 0.091595285 0.06475429 0.037244074
0.03371496 -0.0054623205 0.0009174218 0.03174141 -0.03981421 -0.0701423 0.0067469114 -0.025321452
-0.064097784 0.062842764 -0.060507663 -0.04341956 0.10337773 -0.07331058 0.05934184 -0.030288579
0.0489316 -0.00071757165 0.02184915 -0.06075355 0.069269 -0.029552434 -0.01341113 0.0060885916
0.030668292 -0.0736331 -0.046709184 -0.07770268 -0.024369325 -0.03293977 0.0644168 -0.052435976
-0.08004005 -0.02448467 0.0008332142 -0.08989018

weight f4 [2, 84]
00000000: e617 233e 75b8 6cbd e8e7 ab3d 65d7 23bd
00000010: 2d34 0b3e 9ce3 413c f4dd 4d3c c3ba 053d
00000020: cac0 083d b3e0 11be 42b8 673d 9041 0b3d
00000030: e00d 173e 8fea 27be b306 893d 470d e9bd
00000040: f14c 23bc 2c19 3d3e 5f51 073e 66da ed3c
00000050: 89cc 543d 8805 353e 18c0 0cbe 9b8d 48be
00000060: 41bb fcbd 26a7 a3bd e230 71bd 5cd3 2f3e
00000070: 351f 8c3d 6063 2cbe dc1f 983d 3034 9bbd
00000080: 482b bb3d d7d5 09be 5ed1 123e d407 57b9
00000090: b610 b53d d910 c73d 4cf5 8e3d fe5b 08be
000000a0: acf6 e53d fc81 c63d 69c6 b3bd be77 bb3c
000000b0: c284 123e ec52 013e c61a d33d 18a7 19be
000000c0: 93a7 89bd cf41 fb3d e3a1 2fbe d6a0 e83c
000000d0: 52a8 25be 26f7 cd3d 7bb6 aebd 1489 0ebe
000000e0: f0ad 2ebe f37d a6bc b451 1e3e d88e 813d
000000f0: 5c2d 413c 466e 0f3e 1b12 9d3d 1eeb eabd
00000100: 4a16 773d 6d69 61bd dccb a6bd 6aad c13d
00000110: 7fe3 febc 3706 02be 5f30 c4bd 43ac aabd
00000120: cb00 ac3d 792f ea3d fd7a 4bbd a1b7 2c3e
00000130: 6f33 f73d 50de febc f985 22bc 2aad a73d
00000140: f34d fb3d a7d3 b8bc 7e67 f53c 6ba3 b4bd
00000150: 7ee5 f0bd 2b91 b23d 774d 5dbd 2d1d 913d
00000160: c516 21be f205 e03d bac2 f3bd b5cb fabc
00000170: 57ea 033c a9cc e53d 2c9a babd f28e 0abe
00000180: db4e 613b 61b4 0b3d f33b 2abe bfe4 db3d
00000190: 64a9 d7bd d066 2abd 1281 1bbd 98dc 40be
000001a0: f274 ffbd b71b 723c 4438 ea3d 955b 033e
000001b0: 1a3a f03d 363e ad3c 0492 f13d 0a2e 11bc
000001c0: 17e7 883b 69b9 2a3d e9ea a5bd 42e5 0e3e
000001d0: fbfd 18bd ff60 bf3d efa0 efbd 4ef2 0ebe
000001e0: 93d2 ddbd f29f 03be 4163 41be f81f 2abd
000001f0: 5dd3 cebd b9e7 eebd 09c9 033e 64bd e33d
00000200: fbfc 923c 4050 0bbe 4759 f4bd ae5f a03c
00000210: 6f91 0a3e 01ec afbc 0be0 62bb 4311 36be
00000220: 73ce 923d c716 c5bd 2108 cd3d 1b90 893d
00000230: cfcd bb3d 85c4 e1bd a85b b5bb 67ad efbd
00000240: 9904 09be 91d7 1dbe 5e86 acbd 01d7 a93d
00000250: c000 133e ab1b c03d 6436 903d 3c6c 0abe
00000260: 9043 fcbd 9ea1 313e 688d c43d 6fb9 413e
00000270: f298 04bd 5787 b9bd e36b 803d 6b09 dbbd
00000280: 6a96 443c 0d86 3c3d fde6 de3d 5537 b93c
00000290: 71c5 02be 8d2c 203e af74 3dbe d59b b13d
0.15927085 -0.0577931 0.08393842 -0.040000338 0.13594122 0.011834051 0.012565125 0.032648813
0.033386983 -0.14245872 0.056572206 0.033998072 0.14751387 -0.16398071 0.06690731 -0.113794856
-0.009967075 0.18466634 0.13214634 0.029034805 0.051952872 0.17677891 -0.13745153 -0.19585268
-0.12340403 -0.079908654 -0.05888451 0.17170471 0.0684189 -0.16834784 0.07427952 -0.07578313
0.091391146 -0.1346048 0.1433768 -0.00020506914 0.08841078 0.0972001 0.069803804 -0.13316342
0.112286896 0.09692761 -0.08778078 0.022884246 0.14308456 0.12629288 0.10307841 -0.15005147
-0.06721415 0.12268411 -0.17151599 0.028397005 -0.1617749 0.100569054 -0.08530899 -0.13919479
-0.1705854 -0.02032373 0.15460855 0.063260734 0.0117906 0.1400691 0.07669469 -0.11470626
0.06032399 -0.055032182 -0.08144352 0.09456904 -0.031114338 -0.12697683 -0.095795386 -0.083336376
0.08398589 0.11434836 -0.049677838 0.16866924 0.12070357 -0.031111866 -0.009919637 0.08187325
0.12270727 -0.022561861 0.029956575 -0.08820232 -0.11762522 0.08719095 -0.054028954 0.07085643
-0.15731342 0.10938634 -0.119023755 -0.030614713 0.008051476 0.112206765 -0.09111437 -0.13531092
0.0034379277 0.03410757 -0.16624431 0.10736989 -0.105303556 -0.041601956 -0.037964888 -0.1883415
-0.124734774 0.014777116 0.11436513 0.12827905 0.11729832 0.021147829 0.117954284 -0.008861074
0.0041779387 0.041680727 -0.08101446 0.13954642 -0.03735159 0.093446724 -0.117006175 -0.1395962
-0.108311795 -0.12853983 -0.18885519 -0.041534394 -0.10098908 -0.11665291 0.12869658 0.11120108
0.017942896 -0.13604832 -0.11931091 0.019576874 0.13532041 -0.02147484 -0.0034618403 -0.17780022
0.07168283 -0.09623485 0.10011316 0.06716939 0.09170114 -0.11023811 -0.005534608 -0.11702996
-0.1338066 -0.15414263 -0.08424066 0.08292962 0.14355755 0.09380277 0.07041624 -0.1351785
-0.12317574 0.17346808 0.095972836 0.18918394 -0.032372423 -0.09059017 0.06270578 -0.10695156
0.011998752 0.04602628 0.10883901 0.022609392 -0.1277063 0.15641995 -0.18501543 0.08672301

bias f4 [2]
00000000: dffa 1dbd 6ad5 fabc
-0.038569327 -0.030619342

weight f4 [6]
00000000: 417d 843f 2530 713f 97bc 773f bd5b 7e3f
00000010: 32be 6f3f 9508 7c3f
1.0350724 0.9421409 0.9677214 0.9935873 0.9364959 0.98450595

bias f4 [6]
00000000: 430a 873d 3c0e 613c 410e 80bc fee9 d93c
00000010: 9c51 033d 0776 fa3b
0.06593754 0.013736304 -0.015631797 0.026600834 0.03206025 0.0076434645

running_mean f4 [6]
00000000: dc39 933e 6426 38be 3e67 413d 689c b53e
00000010: 7fb4 013e 0887 f4bd
0.2875508 -0.17983395 0.0472176 0.3547089 0.1266651 -0.11939818

running_var f4 [6]
00000000: 749d 4b3d 338b 1b3e f35f dc3d 664b ac3d
00000010: d576 d63d 0245 a43d
0.049710706 0.15189819 0.10760488 0.084128186 0.10471884 0.08020975

weight f4 [16]
00000000: f486 7f3f 3276 803f 9ce0 763f 97e5 713f
00000010: 7742 7e3f 428a 823f 23c7 763f eda0 7d3f
00000020: 48d5 763f 52ec 813f fb4c 833f 2035 7b3f
00000030: 04a7 7a3f 70a0 7d3f eeff 713f d6ed 6c3f
0.998153 1.003607 0.96436477 0.9449095 0.9932017 1.0198443 0.9639761 0.9907368
0.9641919 1.0150244 1.0257868 0.9812794 0.97911096 0.99072933 0.9453114 0.9255041

bias f4 [16]
00000000: dbb0 d43c a0b8 c0bb a211 863d ae60 823c
00000010: 6665 183c 3942 6c3d a5eb 193c 0bda 14bb
00000020: e3f4 d4bc c8b0 b7bb 6924 0ebd 3057 953d
00000030: 7445 68bd 89c9 39bd 2c2e 7cbd c146 63bd
0.025963238 -0.005881384 0.06546332 0.015915241 0.009301519 0.057680342 0.009394561 -0.0022712972
-0.025995677 -0.0056057908 -0.034702692 0.0729202 -0.05670686 -0.045358215 -0.06156747 -0.055487398

running_mean f4 [16]
00000000: 3591 a73f 12b8 5bbf 2025 053f 49c9 06bf
00000010: ec29 39bf ea91 b93f 8ab5 c0bd f41e dc3e
00000020: 72da 9ebc 0845 28bf 5402 913d 90b9 9a3e
00000030: fb22 86bf 96b4 3ebe 22a4 5e3f 0668 873f
1.3091189 -0.85827744 0.52009773 -0.52650887 -0.7232959 1.4497654 -0.09409626 0.42992365
-0.019391272 -0.65730333 0.07080522 0.30219698 -1.0479425 -0.18623576 0.86969197 1.057862

running_var f4 [16]
00000000: f8a7 9e3e 8677 963e fa10 c03e 3285 bf3e
00000010: fbd7 8a3e 80c2 913e fc59 773e e35c 9b3e
00000020: 2603 833e 5bfe 733e 4e1d 853e f302 913e
00000030: 6cc3 9c3e 92d5 d33e 996e 983e bb67 b63e
0.30987525 0.29388064 0.37512952 0.37406307 0.27117905 0.28468704 0.2415542 0.30344304
0.2558834 0.23827498 0.2599892 0.28322563 0.30617845 0.4137388 0.2977188 0.35626015

weight f4 [120]
00000000: 5a1a 6b3f d839 7a3f fabe 863f e188 6f3f
00000010: 9fe0 7a3f a6e6 863f 8d3b 6e3f e1d4 803f
00000020: 3eec 7c3f 4c93 763f d929 783f 6e9a 683f
00000030: 0f8f 843f fb37 7b3f f38f 623f eef6 723f
00000040: abaa 733f 106d 7e3f 809c 803f 453e 773f
00000050: 6d56 7e3f 61c9 7d3f c70b 6f3f f184 733f
00000060: 0d1e 6b3f d61f 783f 37b2 813f a680 6f3f
00000070: ba11 7e3f ad91 6f3f 6a9a 803f 727f 693f
00000080: 9ff9 853f f22b 6e3f 30fc 6f3f 673e 823f
00000090: 74d1 813f 54d9 773f 6e2b 6a3f c95b 6d3f
000000a0: 832c 823f 8a15 733f e6a4 7c3f 8d81 803f
000000b0: 5a97 7c3f 9269 6c3f dbd4 6c3f 62de 6e3f
000000c0: 7ade 723f f3ea 713f 8e5c 853f 30f5 6e3f
000000d0: 47bc 813f cc6a 813f 7a3e 833f 266a 703f
000000e0: 2098 813f 5029 793f 8674 763f 9016 6f3f
000000f0: fc1b 803f 072e 7a3f 1139 7d3f 11e1 773f
00000100: 2327 733f ce91 873f d8a0 7f3f ce94 783f
00000110: f975 653f 035a 6d3f 51a8 823f 4182 6b3f
00000120: 45d0 853f e45c 7f3f 899d 7d3f 0fc3 703f
00000130: 9b9c 7e3f 8a48 703f 64a2 763f c34a 763f
00000140: 2e74 7b3f 1084 823f c696 713f 58e8 863f
00000150: 002d 763f fad4 803f d714 803f 1a7e 833f
00000160: dc69 6b3f bf9d 733f 4158 7b3f dc4a 763f
00000170: 760c 853f 51c0 803f a76f 7a3f ada6 833f
00000180: 9a57 7f3f ca3a 773f f205 7d3f 63bc 7a3f
00000190: 8b03 793f dde5 803f 29c4 7d3f 9aca 863f
000001a0: 3d14 773f 0558 733f 4f96 7e3f 683d 733f
000001b0: d97b 6d3f e99c 7b3f f30b 813f 1b38 843f
000001c0: ef36 723f e979 713f 9229 7a3f 4511 7b3f
000001d0: 1f5c 823f 0574 873f dbba 793f bb03 833f
0.91837084 0.9774451 1.0527031 0.93568236 0.97998995 1.0539138 0.9305962 1.0064965
0.98797977 0.9631851 0.96938854 0.9086064 1.0356158 0.98132294 0.885009 0.94908035
0.95182294 0.99385166 1.004776 0.9657939 0.99350625 0.99135405 0.93377346 0.9512473
0.9184273 0.9692358 1.0132512 0.93555677 0.992458 0.9358166 1.0047123 0.9121009
1.0466803 0.93035805 0.9374418 1.0175294 1.0142045 0.9681599 0.9147252 0.9271818
1.0169834 0.9495474 0.98689115 1.0039536 0.98668444 0.9234859 0.9251229 0.9330808
0.9487072 0.9449913 1.041887 0.93342876 1.0135583 1.0110717 1.0253441 0.9391197
1.012455 0.9732866 0.9627155 0.933938 1.000854 0.9772648 0.989152 0.968278
0.9498159 1.0591371 0.99854803 0.9710206 0.89633137 0.9271547 1.0207616 0.91995627
1.0454184 0.99751115 0.99068505 0.94047636 0.9945771 0.93860686 0.9634154 0.9620783
0.9822415 1.0196552 0.94370687 1.0539656 0.96162415 1.0064995 1.000636 1.0272858
0.91958404 0.95162576 0.9818154 0.96207976 1.0394428 1.005869 0.9782662 1.028524
0.99743044 0.9657408 0.98837197 0.97943705 0.9727103 1.0070149 0.9912744 1.0530579
0.96515256 0.9505618 0.994481 0.95015574 0.927671 0.982863 1.0081772 1.0329622
0.9461507 0.94326645 0.9771968 0.98073226 1.0184363 1.0582281 0.97550744 1.0235513

bias f4 [120]
00000000: 00e2 55bd 8a6b 1bbc 3feb 8c3d fde3 0ebd
00000010: efce 25bc 7b15 bb3d 1c8f 75bd 9496 a53c
00000020: c7d9 1e3c 9c29 a7bb 1311 94bc 93fc 9bbd
00000030: 19ef 4d3d f70b d63a daef b4bd ecdd 3abd
00000040: 0b93 c6bc 59b1 1a3b 30b2 0d3d 7ef8 e7bc
00000050: 006d 7d3c c4c6 a43c 9eaf 52bd 854d 50bd
00000060: cf34 95bd 9db5 5ebb 5e02 4d3c d5d4 35bd
00000070: bafa a83c 8cd9 f7bc cef2 2f3d 223d 7abd
00000080: 8e7c 883d 8917 21bd 1bf2 1bbd ec9d 023d
00000090: ef5a 2c3d 1b27 beba 532b 73bd 1c89 65bd
000000a0: b8c0 2b3d 366b cdbc 96f9 433b 12cd 03bc
000000b0: f4b0 77bc dd29 87bd 0017 8dbd a95c 5fbd
000000c0: 3754 cbbc 2dc8 01bd abb5 713d 35a0 02bd
000000d0: 034c 1abc 1200 203d c78e 643c 6798 5dbd
000000e0: 90b2 4d3d 2444 76bc fdc0 b4bc d31f 73bd
000000f0: acf9 aa3c 1cc1 293b 0fd4 54bc 981a 80bb
00000100: f64e 85bc 77a0 7f3d 043a 863c 4825 d13b
00000110: 2e07 aebd a7bb 31bd c907 5a3d 5c1a 7bbd
00000120: a859 6a3d db61 183c feec 713c 43cb 55bd
00000130: c58c d4bb 4d20 3bbd 28b0 aebc 3bcc 3ebb
00000140: d09f 793c 9af4 273d f5eb acbc 13b5 2d3d
00000150: dfca a3bc 8ba2 a23c 1680 053c 54f9 6a3d
00000160: 124f 7abd 196b f1bc 0ea4 81bb 8a9a 1cbd
00000170: 0d0f 7f3d b6e0 2f3d 843e 913b d041 e13c
00000180: 75d9 173c eacf 8e3b 3528 653c 192b 2fbc
00000190: 44e5 1d3c e862 063d b0c3 da3c bb21 643d
000001a0: ab6a 80bc 300d 2abd 15e4 91bc f6b5 c4bc
000001b0: e2de 99bd 4f2b ee3b 822b e63c d0ad 813d
000001c0: d1cd f8bc 6b57 47bd 935e 6b3c 903e 063c
000001d0: 0649 463d 794b 463d 0f9f 8fbc f7b0 8d3c
-0.052217484 -0.0094860885 0.06880807 -0.034885395 -0.010120138 0.091349564 -0.059950933 0.020213403
0.009695477 -0.005101396 -0.018074548 -0.07616534 0.05027685 0.001633047 -0.088348106 -0.045621797
-0.024240037 0.0023604243 0.03459376 -0.028316732 0.015467882 0.02011431 -0.051437013 -0.05085518
-0.07285463 -0.0033982762 0.012512771 -0.044392426 0.020627368 -0.030255102 0.042956166 -0.061093457
0.06664382 -0.039329085 -0.038072687 0.031888887 0.04207891 -0.0014507504 -0.05936749 -0.05603896
0.041931838 -0.025075536 0.0029903403 -0.008044498 -0.0151178725 -0.06599782 -0.068891525 -0.054531727
-0.02482043 -0.031685043 0.059011143 -0.031891067 -0.009417537 0.039062567 0.013950056 -0.05410042
0.05021912 -0.015030894 -0.02206468 -0.05935652 0.020871006 0.0025902456 -0.012990012 -0.00390942
-0.016273003 0.06240889 0.016385086 0.006382618 -0.08497463 -0.04339185 0.05323008 -0.061304435
0.05721441 0.009300674 0.014765976 -0.0521958 -0.0064865076 -0.0456851 -0.021324232 -0.002911343
0.015235856 0.041004755 -0.021108607 0.042409014 -0.019994197 0.019852897 0.008148214 0.057366684
-0.061110564 -0.029470013 -0.0039563244 -0.038233317 0.062270213 0.04293891 0.0044325013 0.027497202
0.009268154 0.0043582814 0.013986637 -0.010691428 0.009637181 0.032809168 0.02670464 0.05569623
-0.015675863 -0.041516483 -0.017808953 -0.024012547 -0.07513215 0.0072683464 0.028096918 0.0633198
-0.030371578 -0.048667353 0.01436581 0.008193627 0.048409484 0.04841182 -0.0175319 0.017296297

running_mean f4 [120]
00000000: 38d7 ecbf f698 e7bd 5c17 2740 f9b1 e83f
00000010: 39c7 393f a9cf 8240 d7b9 c43f a526 afbf
00000020: 7f35 a8bc e4ca 1440 ac82 1540 32c4 9bbe
00000030: e671 483e df6b e73f 64d2 ec3f 462f 8abf
00000040: 7d0d 2f40 d3ca 88c0 aa79 5e40 8c28 87c0
00000050: 0c89 8140 45ce eb3f 613d 3ebf 3eb4 2bc0
00000060: d7fb 60bf 26c3 85bf 70fb eb3f a26d 6040
00000070: 3aa7 e7bf 8828 083f bc08 9cbf a3e0 3cc0
00000080: 31c7 973f 4ca4 593f 8b5f 1c40 4960 123f
00000090: 36b1 38c0 b277 23bd baf6 f5bd da3c 57c0
000000a0: 74d7 7ebf 712b 84bf 8a2a 7540 e858 90c0
000000b0: cd25 1040 1d63 9d40 4246 8a40 3c14 17c0
000000c0: 830e 9ec0 4eae a5bf 2f20 1bc0 a085 45be
000000d0: c6e6 9ec0 add7 2240 c64c 9a40 6c0d 8140
000000e0: 17dc 56c0 a336 2b40 a382 0b3f d5d2 86bd
000000f0: e92f b3bf 5ddf abc0 2232 613f 7c22 75be
00000100: 9d94 d03f 310b 7540 ed77 a4bf 0f47 6540
00000110: e3a3 93bf 4b3c 65c0 5480 c2bc cc26 dfbc
00000120: 4ba1 2a40 4236 96bf 859c 58c0 9669 2540
00000130: 01bc cfc0 970d 503f 76d5 c93f f3ef 19c0
00000140: 58ee cb3f da19 8140 f798 2ac0 c8a8 a83f
00000150: 1396 63c0 7356 1e40 afa5 9abf 1bd7 4540
00000160: 3b55 2a40 a0dd b7c0 2ebe eabf 500a 523e
00000170: 25bb 87c0 2e76 c240 156b 4c40 e01e a43f
00000180: 03c2 79be 7afe dabe 2c58 113f 4412 9a40
00000190: 9c9c 8f3f 04e0 7a40 7eb4 a63f fdbc c23e
000001a0: d3c9 8840 c41d f1bf 734d 97c0 4fc0 8abe
000001b0: 5599 c940 22af 4040 bbcb 17c0 4e02 83c0
000001c0: 4653 1abd 4e06 24c0 dae0 2a40 6ea9 7740
000001d0: b2bc de3f 1cf7 b2bf 4168 d8bf 16bf 6340
-1.850318 -0.11308472 2.6108007 1.8179313 0.72569615 4.087849 1.5369214 -1.3683668
-0.020533321 2.3248835 2.3361006 -0.30423123 0.19574699 1.8079795 1.8501706 -1.0795677
2.7351983 -4.274759 3.4761758 -4.2236996 4.0479794 1.8422323 -0.74312407 -2.682876
-0.8788428 -1.045018 1.8436108 3.5066915 -1.8097908 0.53186846 -1.2190166 -2.9512107
1.1857663 0.8501632 2.4433315 0.5717817 -2.885816 -0.039909072 -0.1200995 -3.363089
-0.99547505 -1.0325757 3.8307214 -4.510853 2.2523072 4.918349 4.3210764 -2.36061
-4.9392715 -1.2943819 -2.4238393 -0.19289255 -4.9656706 2.5444138 4.8218718 4.0328884
-3.3571832 2.6752098 0.5449621 -0.06583182 -1.3998996 -5.371016 0.8796712 -0.23938936
1.6295353 3.828808 -1.2849098 3.582462 -1.1534389 -3.581805 -0.023742832 -0.02724018
2.6660945 -1.1735308 -3.3845532 2.5845695 -6.4916997 0.81270736 1.5768268 -2.4052703
1.5932112 4.0344057 -2.6655862 1.3176508 -3.5560348 2.4740264 -1.2081813 3.091254
2.661452 -5.745804 -1.8339288 0.20511746 -4.241595 6.076926 3.1940358 1.2821922
-0.24390416 -0.42772275 0.56775165 4.8147297 1.1219668 3.9199228 1.3023832 0.38034812
4.2746367 -1.8837209 -4.7282043 -0.27099845 6.2999673 3.0106893 -2.3718097 -4.0940313
-0.037677072 -2.5628848 2.6699739 3.8697162 1.7401335 -1.3981662 -1.6906816 3.558538

running_var f4 [120]
00000000: 4b4a 0c40 6dd1 a63f ede0 8a3f 6078 1940
00000010: 14d1 ca3f 92d1 ea3f 7548 de3f 7348 4740
00000020: 56de b53f 702d 9e3f 6bda 2241 9c52 2440
00000030: 8c20 2a40 634a ce40 ca81 c03f 701f 1b40
00000040: 88d0 1940 8f97 1b40 068e 913f d496 a140
00000050: 2244 a83f a682 c43f 6138 c73f fb91 f93f
00000060: e104 e03e 9080 d33f 0eb6 3240 0b7b 0140
00000070: 6036 e13f 7964 3240 fa2b 0d40 c21c d23f
00000080: 89af 2840 4e06 003f 984d 3340 f787 023f
00000090: 8acf f23f bc0a a640 79ba cc3f 0387 2640
000000a0: ff14 883f 4157 cd3f a724 f73f 219f 0940
000000b0: 320d 5840 82c9 c13f 770d ba3f bbec 2240
000000c0: df77 7840 df2a d93f ea35 0340 48d9 b73f
000000d0: 9302 fe3f 8bea 853f aa9b c03f 080c ca3f
000000e0: 273d f03f 4cfb a23f 5624 4a40 4604 e03f
000000f0: 7c13 923f 8bfe 2640 de86 ed3f 96cd 833f
00000100: c623 913f e6ca c33f cd7a 1240 d79d 1140
00000110: db3a 1440 c74b 863f 3c2f 0f40 d1ab 8b3f
00000120: f8e0 1d40 911b d840 3deb a43f cefe db3f
00000130: a679 bb3f d32d a83f 6b88 d53f ef9f 5840
00000140: f4d6 c23f a7de d13f 6c00 fa3f 3188 8040
00000150: 417b 4a40 e9eb 3e40 7152 9340 5d20 3040
00000160: dd8a 8b3f 4bf2 a03f 8040 df3f e649 fb3f
00000170: 5949 ca3f ec0d 9d3f 0524 c53f dbbd e83f
00000180: 4279 ca3f b2cd c63f bcd1 223f af90 a63f
00000190: df36 693f 3d8c f13f fbee f03f febf d840
000001a0: 05f7 ca3f 9e88 2440 903f f53f f1c8 1940
000001b0: 3b89 e63f 4789 0d41 ac66 0740 2a7b 4740
000001c0: 9430 8c3f 3137 b93f 88fb 993f fa4b a53f
000001d0: bd22 4f40 5ae6 3f40 6ef2 a13f 76d5 1340
2.1920345 1.3032662 1.0849892 2.397972 1.5845056 1.8345206 1.7365862 3.113797
1.4208477 1.2357616 10.178325 2.567542 2.6582365 6.4465804 1.5039608 2.4237938
2.4033527 2.4311254 1.1371467 5.0496616 1.3145792 1.5352371 1.556408 1.9497675
0.43753722 1.6523609 2.7923617 2.023135 1.7594719 2.7873824 2.205809 1.6415026
2.6357138 0.5000962 2.801611 0.50988716 1.8969586 5.1888103 1.5994407 2.6019905
1.0631407 1.6042253 1.930806 2.1503375 3.3758054 1.513962 1.4535359 2.545699
3.8823164 1.6966208 2.0501657 1.4363184 1.9844536 1.0462202 1.5047505 1.5784922
1.8768662 1.273294 3.1584678 1.7501304 1.1412196 2.609286 1.8556783 1.0297115
1.1339042 1.5296295 2.2887452 2.2752588 2.3160923 1.0491875 2.237258 1.0911809
2.466856 6.753365 1.2884289 1.7187135 1.4646499 1.3138984 1.6682256 3.3847616
1.5221848 1.6396073 1.9531379 4.016625 3.1637728 2.9831488 4.6038136 2.7519753
1.0901753 1.2573942 1.7441559 1.9631927 1.5803634 1.2269874 1.5401617 1.8182939
1.5818255 1.5531523 0.6360128 1.3012904 0.9109935 1.8870922 1.8822931 6.7734365
1.5856634 2.5708385 1.9160023 2.4028895 1.801063 8.846015 2.1156416 3.1168923
1.0952325 1.4469968 1.2029886 1.2913811 3.2364953 2.9984345 1.2652109 2.3099036

weight f4 [84]
00000000: 1e39 8b3f fe1e 863f ab52 873f 068e 7a3f
00000010: abf6 873f b0bf 7f3f 1fd9 823f 8f27 7d3f
00000020: 7179 7a3f 7915 823f bf87 8a3f da40 843f
00000030: 4e76 853f f7cc 853f c9ee 8c3f be64 873f
00000040: 0c8f 873f 1e4f 963f 32b1 853f 67e2 913f
00000050: d9d5 863f acd2 8b3f bb08 823f e449 8e3f
00000060: 5808 8e3f af1c 7d3f b2ac 8e3f 41ff 883f
00000070: 7510 743f 3c61 893f f883 803f fb98 8f3f
00000080: 98ba 823f fa94 863f 3aa7 8b3f cd6f 863f
00000090: 3141 923f 5f2d 8b3f 91f9 8d3f 62f4 833f
000000a0: 8532 873f 896f 8a3f c113 833f 4956 833f
000000b0: 7f7e 893f 5869 833f ee7b 833f 71f4 853f
000000c0: 7717 8f3f 9984 803f 9a56 883f 95dd 8a3f
000000d0: 6bfb 893f 52f4 843f 585f 853f a032 883f
000000e0: bc84 893f 9090 803f 0eca 883f fd41 813f
000000f0: 7ccf 823f c91a 843f 344d 7e3f 2697 873f
00000100: d89c 853f b655 8a3f 333b 893f 1861 813f
00000110: 0468 823f 06ba 883f 8a62 7e3f d6d5 893f
00000120: 01a3 763f 4534 833f 1b5f 823f 5edf 893f
00000130: 6534 803f aae8 853f 3dc8 853f 17b9 7a3f
00000140: 252c 853f 37f7 863f 30bd 8b3f 1544 803f
1.0876806 1.0478208 1.0572103 0.9787296 1.0622152 0.99901867 1.022251 0.98888487
0.97841555 1.0162803 1.0822676 1.0332291 1.0426729 1.0453175 1.1010371 1.0577619
1.059053 1.1742895 1.0444701 1.1397218 1.0534011 1.0923667 1.0158914 1.11163
1.1096296 0.9887189 1.1146452 1.0702897 0.9533761 1.0732799 1.0040274 1.1218561
1.0213194 1.0514214 1.0910408 1.0502869 1.1426145 1.0873221 1.1091787 1.0308955
1.0562292 1.0815288 1.0240403 1.0260707 1.0741729 1.0266523 1.0272195 1.0465223
1.1179036 1.0040466 1.0651429 1.0848871 1.0779852 1.0387061 1.0419722 1.064045
1.0743632 1.0044117 1.0686662 1.0098263 1.0219569 1.0320674 0.9933655 1.0593002
1.043849 1.0807407 1.0721191 1.0107756 1.0187993 1.068177 0.9936911 1.0768383
0.96342474 1.0250326 1.0185274 1.0771291 1.001599 1.0461628 1.0451733 0.97938675
1.0404097 1.0544194 1.091711 1.0020777

bias f4 [84]
00000000: 4303 a63d 969f c33d e3b1 513d 9153 0d3d
00000010: 8db0 693d c434 26bc ed2e ca3c b8eb 76bc
00000020: afc4 2fbb 3784 ca3d e560 e53d 16aa 3abb
00000030: 4819 113d b23f fc3d 1cdb ae3d 51da ee3d
00000040: d9de 863d c213 203e fb35 043d 7bfb 323e
00000050: 6c2e 773d 7c9f 823d adc6 a53d 71fe 153e
00000060: 98e7 193e 1f79 023d b64e d13d 0af9 a63d
00000070: e433 24bd 500d cb3d ffaa e1bc d37c 323e
00000080: 14b4 2f3c d08c a23d 60cf b53d 7d8c 573d
00000090: f877 0e3e 5ab3 8a3d 59d6 b83d 4fd4 ae3d
000000a0: 3406 8b3d f32c e63d 4946 153d 1336 963d
000000b0: dc26 c83d 8edd 943d 2fdc 0d3d f744 6e3d
000000c0: c256 033e 3299 873a b7c9 c83d eba1 e13d
000000d0: 9968 fa3d 1298 0e3d 8288 753d 7197 da3d
000000e0: 0371 fb3d bf4d de3c 5d6e 913d 45d5 20bc
000000f0: 9b67 f13c edbe 203d e748 25bc 7c77 c53d
00000100: 02e4 5c3d c51f 113e b12c f13d 2f65 3a3d
00000110: ad53 d43c c0fa a83d 0fc2 ed3c 9803 fc3d
00000120: aff8 74bc 9253 3d3d 3717 7c3d 9c7b 823d
00000130: 955a 163d 906b 5c3d bd04 d43d a332 a5bc
00000140: 91b3 283d 4223 f73d d930 a73d b217 303d
0.08106091 0.09551923 0.051195037 0.034503523 0.057053138 -0.010144416 0.02468058 -0.015070848
-0.0026820113 0.09888499 0.11200122 -0.0028482727 0.0354245 0.123168364 0.085378855 0.11662734
0.065854736 0.15632537 0.032278042 0.17478745 0.060347006 0.063780755 0.08094535 0.14647843
0.15029752 0.03185379 0.10220091 0.08152969 -0.04008855 0.099146485 -0.027547358 0.17430429
0.010724086 0.07937014 0.08877444 0.052624214 0.13912952 0.0677249 0.090252586 0.085365884
0.067882925 0.11239042 0.036443982 0.073345326 0.09773037 0.07268821 0.03463381 0.05817124
0.12826064 0.0010345338 0.09804099 0.110172115 0.12226982 0.034812994 0.059944637 0.106734164
0.12277415 0.027136682 0.07101128 -0.009816472 0.029468348 0.03924458 -0.010088182 0.096419305
0.053928383 0.14172275 0.11776102 0.045506652 0.025918806 0.08250952 0.029023198 0.12305373
-0.014951869 0.046222277 0.061545577 0.06371233 0.03670748 0.053813517 0.10352466 -0.020165747
0.041186873 0.12067272 0.08163614 0.042991348
